models/mountain_car/adjoint.pth (torch, 5888 bytes, 8 tensors)

net.0.weight f4 [8, 2]
00000000: fe79 a6be ca94 c6be 2536 08bf df3f cd3e
00000010: 8508 3bbf 7790 cabe 0834 dcbe 8eb2 c33e
00000020: 9d62 de3e 025a 8dbc c7a3 7f3e 51aa 40bf
00000030: c507 a6be 9480 033f 2123 15bf 5d25 033f
-0.32514948 -0.38785392 -0.5320762 0.40087792 -0.73059875 -0.39563343 -0.43008447 0.38222164
0.4343461 -0.017254833 0.2496482 -0.7525988 -0.32427803 0.5136807 -0.5825673 0.51228887

net.0.bias f4 [8]
00000000: 6541 f43e ef83 973e 566f 80be 8e37 d23e
00000010: e5bc 103f 80b3 19be a0c3 0e3e 1fc0 3c3e
0.47706142 0.29592845 -0.25084943 0.4105801 0.5653823 -0.1500988 0.13941813 0.18432663

net.2.weight f4 [16, 8]
00000000: bb41 96be dddd a53e 6387 d83e c1ae 8a3e
00000010: 950b 7b3d 2c58 3f3e 86f5 ca3e 2dd1 af3e
00000020: 4a60 97bd 16b1 54be de28 1e3a ed66 913d
00000030: f60b 8d3b 8f3f 273e 05f5 8dbe 1bde c3be
00000040: 93e2 803e 615a c63d fa71 773e ebee 513e
00000050: f9e9 593e 230c a13d f0e2 0c3e 7cf5 973e
00000060: dde4 b63e 0225 be3e 0564 16be 04b7 d43e
00000070: 9bef 45bd c7f9 afbe 23e5 22be 8962 a7bd
00000080: c1fa 03be f061 623c 50e2 cabe 34e3 59be
00000090: 4832 89be 2bed efbd 5840 62be 665a 0a3e
000000a0: aee3 943e c90a ef3e bde8 9f3d d3f6 263d
000000b0: aec7 553d 050c 9fbe f76b 533e eb73 f53c
000000c0: 44f5 b1bc 4c50 62be 48ab bdbe 61c2 5f3a
000000d0: 6d76 263e 2c12 5c3c 2bb6 a3be d359 923e
000000e0: dc18 a3be 74ff 23be bb91 0fbe 491c d4bb
000000f0: f8f3 94bd c75f 6cbe ac36 0bbe 3c14 b5be
00000100: 1813 403e 3b24 153e a900 88be 114a 06be
00000110: 23f4 c23e 6d0e 993e 613d 4b3d fd39 1bbe
00000120: 9f73 7dbd 611c 31be 691e bb3d 911c 81bd
00000130: 429b 74be d616 4cbd 528c b3be 65fc cabe
00000140: a656 903e 0626 d13e 5f6d eb3d ad33 563e
00000150: f34e 143d 7f76 72bc 9e9b 17be 9e2f 62be
00000160: b9e0 9cbe de44 b83e a055 993d e333 8cbe
00000170: 2310 323e d25f c8bd 6358 b2bd 46de a43e
00000180: 7ebd 813e 2123 9dbd 156b ddbe c8c0 acbe
00000190: 79a5 cb3d ad76 b23d 9feb 53be 92c0 023e
000001a0: dac8 693e 2220 80be c3a0 3b3e d8ff fe3b
000001b0: 97ec a53d 68ab a13e 404c 2fbe b843 98bd
000001c0: 96c4 a83e fc46 683e ccd4 4b3d 0b7e 49bd
000001d0: 9e35 d43d 75bc bcbe edad b3bc 60b8 4cbe
000001e0: 005d 813e 03c9 c0be c36a 10be 358e 973e
000001f0: 43a4 903e fe1b a83e d528 8f3e a254 033e
-0.29347023 0.3239583 0.42290792 0.27086452 0.061290342 0.18685979 0.39640445 0.34339276
-0.073914126 -0.20770678 0.00060333114 0.0709971 0.0043044044 0.1633284 -0.27725998 -0.3825539
0.25172862 0.09685207 0.24164572 0.20501296 0.2128066 0.07863643 0.13758445 0.29679477
0.35721484 0.3713761 -0.14686592 0.4154588 -0.04832421 -0.34370252 -0.15907721 -0.08173091
-0.12888624 0.013817295 -0.39625788 -0.21278077 -0.26796174 -0.11715158 -0.22094858 0.13511047
0.29079956 0.46687916 0.07808063 0.040762734 0.052192383 -0.31063858 0.20646654 0.0299625
-0.021723397 -0.22100943 -0.3704474 0.00085357396 0.16256113 0.013432067 -0.3197492 0.28584155
-0.31854904 -0.16015416 -0.14020436 -0.0064730984 -0.07273096 -0.23083411 -0.13595074 -0.35367
0.18757284 0.14564602 -0.26563004 -0.13114192 0.38076887 0.29893818 0.049619082 -0.1515884
-0.061877843 -0.17295982 0.0913666 -0.06304277 -0.23887351 -0.049826466 -0.35067993 -0.39645687
0.28191108 0.40849322 0.1149547 0.2091815 0.036208104 -0.0147987595 -0.14805457 -0.22088477
-0.306402 0.35990041 0.07487035 -0.27383336 0.17388968 -0.09783901 -0.08708265 0.3220083
0.25339884 -0.07672716 -0.4324576 -0.3374083 0.09943671 0.08714042 -0.20695351 0.12768772
0.22830525 -0.25024515 0.18323044 0.007781964 0.081017666 0.31576085 -0.17118931 -0.07434791
0.32962483 0.22683328 0.049763486 -0.04919247 0.10361789 -0.3686253 -0.02193352 -0.19992208
0.25266266 -0.3765336 -0.14103226 0.29600683 0.28250322 0.32833856 0.2796084 0.12825254

net.2.bias f4 [16]
00000000: cb0c a43e 3a1e e2bd 1332 9f3e 0b79 303e
00000010: cbf6 36be 2979 49be a5ce 83be 8d8a a7be
00000020: 734d abbe ee4f c5bd 873f 133e 89a7 563e
00000030: b44e 3bbe fc6c 853d 8cc8 2d3d 3a1d dd3d
0.3204101 -0.110409215 0.3109289 0.17233674 -0.17867582 -0.19675125 -0.25743595 -0.32722893
-0.33457527 -0.09634386 0.14379703 0.20962347 -0.18291742 0.06514928 0.042427585 0.1079659

net.4.weight f4 [32, 16]
00000000: 550c 9d3e 60cd 76bc a317 5f3e 473d 5a3e
00000010: 78ed 41be 0fa9 e43d 6beb 4bbd 3c7f a2bc
00000020: 154c 2a3e 69af 90be b2dc 94bb d41c 0c3d
00000030: 22ed 67bd 8f62 623e 9621 f63d 6abb 693d
00000040: a5d6 173e 4944 81bd 392f 5bbc d2ca 0b3e
00000050: f650 e3bc 562f 993d 69c3 c43d a7a9 14be
00000060: a9da 22bd a09e 0abe 4448 6c3e 5e9f 57be
00000070: 17fd 90bd 3b6e 59be b121 d1bd d5cb 56be
00000080: d283 4bbe 13fa 733e 3443 6dbe 7d2c 4f3b
00000090: db9b 093e 1568 adba 597f f7bd ed2d 4b3e
000000a0: 3bd0 693e 2200 713e 6ff4 83be 9927 9fbe
000000b0: f9cc ad3c f191 293e 76af 44be 2884 443e
000000c0: 2e97 35be 79d4 c93c 1467 303e ce08 1abe
000000d0: 4dce 92bd 297f 043e f831 603d 436f 583e
000000e0: dbbf 5e3e d7cd 1abe 3bc7 e83d 6991 5cbe
000000f0: f5a2 fd3d ef1e 543e 5fd0 78bd ad12 503c
00000100: 2f4a 443d 1a9f 733d 3fe2 4cbe 629a 0d3e
00000110: 054a c2bd 2d5b f5bd 215a 36bd 1f5e 653e
00000120: 422f a43e 10c6 013e 439a 6d3d 5cfc 84be
00000130: d2b3 05be c605 16be 8eaa 50be 256b 893b
00000140: 118e 18be 8722 94be 2c4b 623e 1c3a 6bbc
00000150: 8b79 bdbd 8714 863e 69ea 3e3e 7a9f 473c
00000160: 5fff 10be 8607 88be d8d1 803e c60f 933e
00000170: c423 a13d 8f7b 093e b111 c33d df36 1ebe
00000180: 1d3d aa3d 7775 5f3e 4baf fabd 2c9f 98be
00000190: aa72 f53c dc6a 59be 22bb 6fbc 0fa0 24be
000001a0: 84dd 713d 10db 253e 1e1e d43d 5b47 8c3d
000001b0: 3d63 973e d295 75bd 6cf9 54be a5c2 953c
000001c0: cfe9 1dbe 5134 f6bd 7d44 f5bd 2b95 403e
000001d0: 7515 38be a4be ae3c b98c 073d a1e9 e8bd
000001e0: d531 2abe 1fea 88be f403 1c3e 7142 2dbd
000001f0: bbdd b43c dd1c 27be 1f45 a23e c893 16be
00000200: d17f 2d3e fefa 80be 8b52 8e3d de3f 3ebc
00000210: edf1 9b3c 2f18 703e e243 a53c 4560 4fbe
00000220: 11a4 53be 54d4 3bbe e118 b8bd a84b 063e
00000230: a6c3 5cbe 84cb 203e 74f5 4dbd 31ab 103e
00000240: 4f28 27be 5802 c53c 5007 ef3a 1cc5 49bd
00000250: 7128 873e 567b a3be 0042 793e 2c1a d9bc
00000260: ff96 cabd 53a1 a23d 91c3 8abe 70cc 913d
00000270: f1f8 833e 59d9 37be e552 eebd 3b3b 11bd
00000280: f86f 7a3e c8ae 413c 0a41 2a3e 175c 373e
00000290: 6d3e 1e3e 1625 6fbd 59a4 9ebe ed58 d7bd
000002a0: 90b5 003d 644e 2c3e c888 793e 840f c43d
000002b0: 87db 85be e727 1dbe 1f08 943e f3a2 c4bd
000002c0: f07d b93d df2d 483e a3bc 1bbe 0738 b2bd
000002d0: 1143 093e adfd 293d 81a0 9fbd bff8 f33c
000002e0: cd75 22be c325 223d 2e54 9e3d 1830 e13d
000002f0: d2f5 343e cda0 73be e20a b6bc 14be 90bd
00000300: a43a 303e 5a41 e93c dcbc 4cbe 6868 2b3e
00000310: f14d 6bbe 6432 ef3d 6e85 5abe e8e4 54be
00000320: a86c c43d 6572 603d a115 773e 0d24 b33d
00000330: 9434 273e 8694 b8bd ccd7 4e3e a6ff f73d
00000340: 94e1 46be d2c6 763e 7469 1c3d 7fef 48be
00000350: 51b3 353e 04db 19be 19f3 843c b0ad 923d
00000360: c2ce 093e a802 a53d d217 373d 4b18 5f3d
00000370: 3c18 773e 0c39 0ebd 883f 3abe f9c3 b3bd
00000380: bb4d 9bbe cf21 e93c adad 423e d728 473e
00000390: b803 293d 4f10 4cbe 2aee 2bbe b2e0 8e3c
000003a0: d11e 9cbc b396 ccbd 722c 70be 15f3 d23d
000003b0: dc15 3fbe 72bb 1cbd c42a 813d 8228 b23c
000003c0: 9c31 4c3e b1a4 2b3e 5b6c cb3d 0006 4b3e
000003d0: 8564 373d bfc8 9fbb 5280 3e3e 3bb4 03bd
000003e0: 058b 403e 1646 ebba 1dff 12bc 73fb 593e
000003f0: 6d67 363e c62b 1cbd b307 6c3d c557 553e
0.3067347 -0.015063614 0.2178636 0.21312438 -0.18938243 0.11165058 -0.04978506 -0.01983606
0.16630585 -0.28258827 -0.0045429105 0.03420718 -0.05662263 0.2210791 0.12018125 0.057063498
0.14827974 -0.063118525 -0.013377958 0.13651589 -0.027748566 0.07479732 0.09607584 -0.14517842
-0.03975931 -0.13537073 0.23074442 -0.21056888 -0.07079523 -0.21233456 -0.10211504 -0.20976193
-0.19874504 0.23825864 -0.23170167 0.003161221 0.1343836 -0.0013229871 -0.120848365 0.19841738
0.2283334 0.23535207 -0.25772426 -0.31084898 0.021215903 0.16559578 -0.19207558 0.19191039
-0.17733452 0.024637448 0.17226821 -0.15042421 -0.07168255 0.12939133 0.054735154 0.21136193
0.21752875 -0.15117584 0.11366125 -0.21539845 0.12384597 0.20714925 -0.060745593 0.012699765
0.04792231 0.059477903 -0.20008181 0.13828424 -0.09486774 -0.11980281 -0.044519547 0.22399186
0.32067305 0.12673211 0.058008444 -0.25973785 -0.13056877 -0.1465064 -0.20377561 0.004193681
-0.14897944 -0.28932592 0.22098988 -0.014357116 -0.09251698 0.26187536 0.18644108 0.012184018
-0.14159916 -0.2656824 0.25160098 0.28722972 0.0786815 0.1342604 0.09524859 -0.15450619
0.08312438 0.21822153 -0.12240466 -0.29808939 0.029961903 -0.2123217 -0.014632018 -0.16076683
0.059049144 0.16196847 0.10357307 0.068495475 0.295679 -0.059957333 -0.20798272 0.01828129
-0.15421222 -0.12021697 -0.11975954 0.18806903 -0.17976935 0.021331139 0.033093188 -0.11372686
-0.16620572 -0.2674112 0.15235883 -0.04229969 0.022078386 -0.16319604 0.3169336 -0.14704812
0.1694329 -0.25191492 0.069493376 -0.011611907 0.019036258 0.23446725 0.02017397 -0.20251568
-0.20668055 -0.18342716 -0.0898912 0.13114798 -0.21559009 0.15702635 -0.05028291 0.14127804
-0.1632397 0.02404897 0.0018236432 -0.049260244 0.26398042 -0.31930035 0.24341583 -0.026501738
-0.098920815 0.079409264 -0.2710233 0.071190715 0.25775865 -0.17954005 -0.116369046 -0.035456877
0.24456775 0.011821456 0.16626373 0.17906223 0.15453501 -0.058384977 -0.30984762 -0.10515008
0.03142315 0.16826779 0.24368584 0.09573272 -0.2614405 -0.15347253 0.28912446 -0.096013926
0.09057224 0.19548748 -0.15208678 -0.087020926 0.1340449 0.04150169 -0.077942856 0.029781697
-0.1586525 0.039586794 0.077309 0.10995501 0.17671898 -0.2379181 -0.022221986 -0.070675045
0.1720987 0.028473545 -0.19993919 0.16739047 -0.22978951 0.11679533 -0.21339962 -0.20790446
0.09591037 0.054796595 0.24129345 0.087471105 0.1632865 -0.090127036 0.20199507 0.12109308
-0.19421989 0.24099281 0.038186505 -0.1962261 0.17744185 -0.15024954 0.0162292 0.071620345
0.13457778 0.08057147 0.04470045 0.054466527 0.24130338 -0.034722373 -0.18188298 -0.08777613
-0.3033274 0.028458504 0.19011565 0.19449173 0.041263312 -0.19928096 -0.16790071 0.017441127
-0.019057663 -0.09989681 -0.23454455 0.103002705 -0.18660682 -0.0382647 0.06306985 0.021747831
0.199408 0.16762044 0.099327765 0.19826508 0.044773597 -0.0048762257 0.18603638 -0.032154303
0.18803032 -0.0017949964 -0.008971957 0.21287327 0.17812891 -0.038127683 0.05762453 0.20834263

net.4.bias f4 [32]
00000000: 98d9 7d3e edb6 81bc f792 f43c f620 8d3b
00000010: a41b 63be 58d5 863e af04 1f3d bce6 dc3d
00000020: 526f 173e 7720 ad3d be46 383d 38c7 bbbd
00000030: 3a73 523e dcfe a4bd 4d60 81be d27e 803e
00000040: 20d4 84be 8418 513e cc77 c63d a9d1 3bbe
00000050: 7b09 2abe 5b58 70be 3984 403c 2780 e1bd
00000060: bd3a 643e 8174 87bc c3a7 013e d6cc 60be
00000070: aab7 073e 7427 d4bc 1eb0 b53c c55d 85be
0.24790037 -0.015834296 0.029855235 0.0043069078 -0.22178513 0.26334643 0.038822826 0.107861966
0.14788559 0.08453458 0.04498934 -0.09168857 0.20551768 -0.08056423 -0.25268784 0.25096756
-0.2594309 0.20419508 0.09690818 -0.18341698 -0.16605179 -0.23471205 0.011750274 -0.11010771
0.22288032 -0.016535046 0.12661652 -0.21953139 0.13253656 -0.025897719 0.022178706 -0.26048103

net.6.weight f4 [2, 32]
00000000: 6762 03be b1ca 6abd b1f7 733e 2153 513d
00000010: d743 673e befa 43be d5ca f63d 5e0a 67be
00000020: 116a 0bbe 100c 533e c4a8 5dbe a84d 4c3e
00000030: 3d60 16be df38 4f3e bcf4 0f3e d9b1 1ebd
00000040: 6504 6e3e 94a1 71be 32f7 cb3d 62a5 05be
00000050: 1a0c d93d 6685 0b3e 0c2b a0bd 03a2 5b3e
00000060: b64e 59be e7c5 953d 6a76 2abe e932 e13d
00000070: 0f76 09bd fcb3 d3bd ed28 923c c35a 0d3e
00000080: 21cc b6bd 216b 003e 5122 363b 0a44 f5bd
00000090: ae1d 82bd 0e29 b1bd 73b8 bdbd 03f3 12bd
000000a0: 11da 023e e2a9 04be 131c 0a3e 5f72 053e
000000b0: 788c 38be a68e 6fbd 01c4 033e 57db 41be
000000c0: a280 ba3d 2e87 553b c2b1 fd3d cdcd 62bd
000000d0: 9787 88bd b1cb 91bd bd12 033d 8089 41bd
000000e0: cdaa 073e e863 04be 6014 0dbe 71f4 173e
000000f0: 532e 0fbd 4eb1 1b3e 3c71 093e 5535 1e3d
-0.12830506 -0.057322208 0.23824956 0.05110467 0.22584473 -0.1913862 0.12050406 -0.22562549
-0.1361468 0.2061007 -0.2164641 0.19951499 -0.1468515 0.20236538 0.14058203 -0.038743827
0.23243864 -0.23596793 0.09959258 -0.1305137 0.10598011 0.13625106 -0.078207105 0.21448521
-0.21221432 0.073131375 -0.16646734 0.109960385 -0.033559855 -0.10337064 0.01784178 0.13804154
-0.08925653 0.12540866 0.002779145 -0.11975868 -0.06353317 -0.08650409 -0.092636965 -0.035876285
0.12778498 -0.1295543 0.13487272 0.1303191 -0.18022335 -0.05848565 0.12867738 -0.18931328
0.09106566 0.0032581794 0.1238742 -0.05537205 -0.06666487 -0.07118929 0.032000292 -0.04725027
0.13248749 -0.12928736 -0.13777304 0.14839341 -0.034956288 0.15204355 0.13422102 0.03862508

net.6.bias f4 [2]
00000000: 840b d73d 48d9 e43d
0.10500243 0.111742556
