models/mountain_car/hamiltonian_dynamics.pth (torch, 6364 bytes, 7 tensors)

net.0.weight f4 [8, 4]
0	0xbf1828b8	-0.5943713
1	0xbf10be16	-0.5654005
2	0xbc6c1ca8	-0.014411129
3	0xbbc10498	-0.00589044
4	0xbf0c318b	-0.54763097
5	0x3d72b996	0.05925902
6	0x3e73cd58	0.23808801
7	0xbc74940b	-0.014927874
8	0xbec2b587	-0.3802912
9	0xbde73398	-0.112891376
10	0xbda99ca0	-0.08281827
11	0xbd225440	-0.03963113
12	0xbf1b14c2	-0.6057855
13	0xbe0ef3f3	-0.13960247
14	0x3cabdb9a	0.020978738
15	0x3d53b38e	0.05168491
16	0xbe55f25e	-0.20893237
17	0xbead6297	-0.3386428
18	0x3e74cf8c	0.23907298
19	0x3eaf514c	0.34241712
20	0xbe55d304	-0.20881277
21	0x3e2109b6	0.1572636
22	0xbd195e16	-0.037443243
23	0xbeca162b	-0.39470038
24	0x3ec8c7bd	0.39214888
25	0xbe3e8301	-0.18604662
26	0xbcf74276	-0.030183058
27	0xbef526ba	-0.4788111
28	0xbe63af99	-0.22234954
29	0xbec39cd4	-0.38205588
30	0x3e5cb82e	0.21554634
31	0x3e538c20	0.20658922

net.0.bias f4 [8]
0	0x3e3e6cf1	0.18596245
1	0x3e43cee4	0.19121891
2	0x3dc43420	0.095802546
3	0x3cf110ff	0.02942705
4	0xbdda5637	-0.106609754
5	0x3e5da411	0.21644618
6	0x3c0ebcd6	0.008712014
7	0x3e05dc57	0.13072334

net.2.weight f4 [16, 8]
0	0x3ea2d920	0.31806278
1	0x3e4de819	0.2010807
2	0x3e8ba5af	0.27274844
3	0x3e89f53b	0.26944908
4	0x3e75033e	0.23927018
5	0x3eba78c1	0.36420253
6	0xbd0a1c91	-0.03371865
7	0xbd7906eb	-0.060797613
8	0xbd953e35	-0.07287256
9	0x3e0868db	0.13321249
10	0xbe6b4da6	-0.2297884
11	0xbe166ccb	-0.14689939
12	0x3ddbfa95	0.10741154
13	0x3e807606	0.25090045
14	0x3cd7d77f	0.026347874
15	0xbe00c11a	-0.12573662
16	0xbda126b2	-0.07868709
17	0xbec107ef	-0.37701365
18	0xbe8e0043	-0.27734575
19	0xbf056035	-0.52099925
20	0xbeb5f6c3	-0.35539827
21	0x3e7644ba	0.24049655
22	0x3eea5f5f	0.45775887
23	0xbe568310	-0.20948434
24	0xbed7b982	-0.4213372
25	0xbcc17ec2	-0.023620013
26	0x3db9076d	0.090346195
27	0xbeb71b4e	-0.3576302
28	0x3de608ee	0.11232172
29	0xbea1f6d2	-0.3163362
30	0x3d2dbdb4	0.042417243
31	0xbbe3312a	-0.006933351
32	0xbea48a3f	-0.32136723
33	0xbeab02ac	-0.33400476
34	0xbd28daa5	-0.04122414
35	0xbef2bb29	-0.47408417
36	0xbe679e08	-0.22618878
37	0xbeaca71d	-0.33721247
38	0x3dd8dd83	0.10589125
39	0xbe591957	-0.21201073
40	0xbe83bccd	-0.2572998
41	0x3da12710	0.07868779
42	0xbe309240	-0.1724329
43	0x3ec55cb5	0.38547292
44	0xbe25cbae	-0.16190979
45	0xbe1aeefb	-0.15130226
46	0x3e443864	0.19162136
47	0xbe54b2e7	-0.20771371
48	0x3e33f456	0.17573676
49	0x3ec71f6a	0.38891155
50	0x3e5210c5	0.2051421
51	0x3eed819f	0.46387956
52	0xbe27c773	-0.16384678
53	0xbe49fff4	-0.19726545
54	0xbee2e7fc	-0.44317615
55	0x3e816b1a	0.25277025
56	0x3e0fcbe1	0.14042617
57	0x3e977851	0.29583982
58	0x3e59d763	0.2127357
59	0x3ef5f117	0.480355
60	0x3e0b412a	0.13599077
61	0x3e6576f7	0.22408663
62	0xbb9aa2c4	-0.00471911
63	0xbe3de918	-0.1854595
64	0x3e1aee6f	0.15130018
65	0x3e82e66c	0.25566423
66	0x3eabf073	0.33581886
67	0x3e05dd1a	0.13072625
68	0x3d91a344	0.071112186
69	0xbe2d42d0	-0.16920018
70	0x3e95fc2c	0.29293954
71	0xbdc12fe7	-0.09432965
72	0x3cf8cba2	0.030370537
73	0x3e54f292	0.20795658
74	0x3c92e01a	0.017929126
75	0xbe10b907	-0.14133082
76	0xbeaeeb0a	-0.34163696
77	0xbc578b70	-0.013155803
78	0xbe4229fa	-0.18961325
79	0xbebca885	-0.3684732
80	0xbe600ead	-0.21880598
81	0x3e3eb5cc	0.18624038
82	0x3deca3a9	0.11554653
83	0xbe82161c	-0.25407493
84	0x3e56d4db	0.20979635
85	0x3e993e46	0.29930323
86	0x3d37c444	0.044864908
87	0xbd8aafc6	-0.067718074
88	0x3e32d509	0.17464079
89	0xbdeeaa5a	-0.11653586
90	0xbe593ea5	-0.21215303
91	0x3e4dfccf	0.2011597
92	0xbebb21a2	-0.36549097
93	0x3e50982c	0.20370549
94	0x3d20d00a	0.0392609
95	0x3d958878	0.0730142
96	0x3da425f3	0.08015051
97	0xbe5663e3	-0.20936541
98	0x3e5ae592	0.21376637
99	0xbe95cf5f	-0.29259774
100	0x3ea4767b	0.32121643
101	0xbd6fb4e0	-0.058522105
102	0xbe681e5b	-0.2266783
103	0x3e468652	0.19387177
104	0xbea2e66a	-0.31816417
105	0xbd9befb8	-0.07614082
106	0xbd1f15d5	-0.03883918
107	0x3dcd801c	0.100342005
108	0xbd3f8fb6	-0.046767913
109	0xbdcca1ae	-0.099917755
110	0x3e8f7856	0.28021497
111	0x3e521f34	0.20519716
112	0x3e6bbc43	0.23021035
113	0x3e0a72c7	0.13520347
114	0xbd0dde29	-0.034635697
115	0xbe9aada7	-0.3021061
116	0xbe1c411a	-0.1525921
117	0xbe652ed3	-0.22381143
118	0x3e93655f	0.28788278
119	0xbd76809d	-0.06018125
120	0x3c197741	0.009366811
121	0x3da7c512	0.08191885
122	0x3e3acf4b	0.18243138
123	0xbeea6216	-0.4577796
124	0x3c696ace	0.014246656
125	0xbd745a97	-0.059656706
126	0xbd19e479	-0.037571404
127	0xbda18166	-0.07886009

net.2.bias f4 [16]
0	0xbc19e772	-0.00939356
1	0x3de6eecd	0.112760164
2	0xbe1b8c82	-0.15190318
3	0xbde442af	-0.111455314
4	0xbbe95bad	-0.0071215243
5	0x3e8ef257	0.27919266
6	0x3e7fa55f	0.24965428
7	0x3e8f584d	0.27997056
8	0x3e5f6e12	0.21819332
9	0x3d83b90c	0.06431779
10	0x3e4d358e	0.2003996
11	0x3e837ec0	0.2568264
12	0xbe98e28b	-0.2986034
13	0xbe967b25	-0.29390827
14	0xbe47a447	-0.1949626
15	0xbe882132	-0.26587826

net.4.weight f4 [32, 16]
0	0xbe32418c	-0.17407817
1	0x3e56acf0	0.20964408
2	0x3e3e9a06	0.18613443
3	0x3e5d2248	0.21595109
4	0xbe058c80	-0.13041878
5	0xbe017993	-0.12644033
6	0xbd503ba1	-0.050838117
7	0xbe11c63d	-0.14235778
8	0xbe76cca3	-0.241015
9	0x3cbeec0a	0.023305912
10	0x3d005627	0.03133216
11	0x3d977169	0.07394678
12	0xbe79c389	-0.24390997
13	0xbcefabaa	-0.02925666
14	0x3e541c2b	0.2071387
15	0xbdc71bdc	-0.09722111
16	0xbe303980	-0.17209435
17	0xbe0aa712	-0.13540295
18	0x3e18e7cf	0.14932178
19	0xbe280d3a	-0.16411296
20	0x3e68b26f	0.22724317
21	0xbe4db01e	-0.20086715
22	0xbe90d5ae	-0.28288025
23	0xbe4ac706	-0.19802484
24	0x3e516502	0.20448688
25	0xbe380169	-0.17969288
26	0xbe0293fa	-0.12751761
27	0xbdf0c739	-0.11756749
28	0x3e65fa08	0.2245866
29	0xbe14b989	-0.14523901
30	0x3e8ed0a2	0.2789355
31	0x3e6eadc5	0.23308475
32	0x3df8921f	0.121372454
33	0x3df847ce	0.12123071
34	0xbe83da3f	-0.25752446
35	0xbd9d9905	-0.07695202
36	0xbdddbe2e	-0.108272895
37	0x3e1ab5c5	0.15108402
38	0xbddb7033	-0.1071476
39	0x3d8b2ab1	0.06795252
40	0x3cd94a42	0.026524667
41	0xbd863270	-0.06552589
42	0xbc3fb3d2	-0.011700587
43	0x3e5afe68	0.21386111
44	0xbd257606	-0.04039576
45	0xbe75bd99	-0.23998107
46	0xbba5d5a0	-0.0050608665
47	0x3e40d1bd	0.18830009
48	0xbe14398a	-0.14475074
49	0xbe2430e2	-0.16034272
50	0xbe66cd60	-0.22539282
51	0xbd9808f8	-0.07423586
52	0xbe07b3af	-0.13252138
53	0xbe655454	-0.2239545
54	0x3e1aeeb7	0.15130125
55	0xbe1d3bd6	-0.15354857
56	0xbe44ccb2	-0.1921871
57	0xbd883643	-0.066509746
58	0x3dbfb4e6	0.093606755
59	0xbe476aab	-0.19474284
60	0xbe4b10bd	-0.19830604
61	0x3dc18edd	0.09451077
62	0x3e1a2912	0.1505473
63	0xbe282acf	-0.1642258
64	0x3d957a08	0.07298666
65	0x3e65ebf1	0.22453286
66	0xbd7aeec7	-0.061262872
67	0x3dc36800	0.09541321
68	0x3e8ded1b	0.2771996
69	0x3d8abd17	0.06774347
70	0xbdc1e475	-0.09467403
71	0x3cf27341	0.029595973
72	0x3e18f815	0.14938386
73	0xbbbc04aa	-0.0057378607
74	0xbdfb16fc	-0.12260243
75	0xbe4b5332	-0.19855955
76	0x3d30d5bb	0.04317258
77	0x3e7b7095	0.24554665
78	0xbe52bce6	-0.20579872
79	0xbd948aa4	-0.07253006
80	0x3e7db816	0.24777254
81	0xbe310cf6	-0.172901
82	0xbe0efd29	-0.1396376
83	0x3df1b324	0.118017465
84	0xbe827e32	-0.25486904
85	0xbe85ac70	-0.26108122
86	0x3e7b0c6d	0.24516459
87	0x3ce10704	0.027469166
88	0xbe1091e9	-0.1411816
89	0xbdedd4fb	-0.116128884
90	0x3cff9860	0.031200588
91	0x3d9d8211	0.07690824
92	0xbe6ab6b6	-0.22921261
93	0xbe76a619	-0.24086799
94	0xbc219088	-0.009861119
95	0xbe31230e	-0.17298529
96	0x3d410aba	0.04712937
97	0x3d43a293	0.047762465
98	0xbdaa75fe	-0.083232865
99	0x3e0db967	0.13840257
100	0xbe3e5ea3	-0.18590789
101	0xbdfa4d36	-0.12221758
102	0x3e28d49e	0.16487357
103	0x3e8da279	0.2766302
104	0xbd7f1b72	-0.062282033
105	0x3ddfdd18	0.10930842
106	0x3dfb58b5	0.12272779
107	0xbda9d056	-0.0829169
108	0xbe59477a	-0.21218672
109	0xbb8877d3	-0.004164675
110	0xbe7f3f12	-0.24926403
111	0xbe15e2dc	-0.14637321
112	0x3e7e01e6	0.24805412
113	0x3e82d362	0.25551897
114	0x3c9a8b4b	0.018865248
115	0xbe37706f	-0.17913984
116	0x3e05b796	0.13058314
117	0x3df69a38	0.12041134
118	0xbe142e60	-0.14470816
119	0xbe292cca	-0.16520992
120	0xbdea0bb8	-0.114280164
121	0xbdaec5d2	-0.08533825
122	0x3e55e4cd	0.20888062
123	0x3e16705a	0.14691296
124	0xbe303bba	-0.17210284
125	0xbe87e85f	-0.26544473
126	0xbda3e391	-0.08002389
127	0xbe15f548	-0.14644349
128	0xbe280a03	-0.16410069
129	0xbe49a0b2	-0.19690207
130	0x3c374ef8	0.011188261
131	0x3defd56e	0.1171063
132	0x3c80e357	0.015733404
133	0xbe4f70af	-0.20257829
134	0x3ceb699c	0.028736882
135	0x3e2c4c14	0.16825897
136	0xbd85cf1d	-0.06533644
137	0x3bf9ac38	0.007619407
138	0xbd7defa7	-0.06199613
139	0x3e681ab3	0.22666435
140	0x3de55a9d	0.11198924
141	0xbe62e46e	-0.22157452
142	0xbe261221	-0.16217853
143	0x3e5903f3	0.21192913
144	0xbe878f0f	-0.26476333
145	0x3e881419	0.26577833
146	0x3d036e47	0.03208759
147	0x3e9aa330	0.30202627
148	0x3e6848e8	0.22684062
149	0x3e1c423c	0.15259641
150	0x3e33ab68	0.17545855
151	0xbdf0b698	-0.11753577
152	0x3e523f2b	0.20531909
153	0xbcb95d49	-0.02262749
154	0x3e09f5d4	0.13472682
155	0xbe65da45	-0.22446544
156	0xbe12e040	-0.14343357
157	0xbe547f68	-0.20751727
158	0xbe552d5e	-0.20818087
159	0x3d6c6653	0.05771477
160	0x3e5845c3	0.21120362
161	0x3e011acb	0.12607877
162	0xbda2b552	-0.0794474
163	0x3e06b0b3	0.13153343
164	0xbe27565d	-0.16341539
165	0x3e29b69c	0.16573566
166	0xbd5e3cef	-0.05425733
167	0x3e2d70f7	0.16937624
168	0x3e7737fa	0.24142447
169	0xbe2e18e9	-0.1700169
170	0x3def1402	0.11673738
171	0xbda10159	-0.07861585
172	0x3c4d71a0	0.012539297
173	0x3d416ff2	0.0472259
174	0x3e3fbae1	0.18723632
175	0x3e187489	0.14888205
176	0xbe5319a8	-0.20615256
177	0x3d86a80c	0.06575021
178	0xbe1ca93c	-0.15298933
179	0xbdc95db2	-0.09832324
180	0xbdcdd3ba	-0.10050149
181	0xbe10e253	-0.14148836
182	0xbdedec02	-0.116172805
183	0xbcdfec73	-0.027334427
184	0x3d90873e	0.070570454
185	0x3d903b58	0.07042569
186	0x3e8ca705	0.27471176
187	0xbc7eb39d	-0.015545753
188	0xbe21bc97	-0.15794598
189	0xbdfe0fab	-0.12405332
190	0x3e5bc5d7	0.21462189
191	0xbde8aff7	-0.11361688
192	0xbdc6fff1	-0.09716786
193	0x3e1a782b	0.15084903
194	0xbe83c6e5	-0.25737682
195	0xbe92e09b	-0.28686985
196	0x3dbd66c1	0.092481144
197	0x3dcd4213	0.10022368
198	0x3deec83e	0.11659287
199	0x3e043b85	0.1291333
200	0x3c984ab3	0.018590307
201	0xbd6f67fd	-0.05844878
202	0x3da41044	0.08010915
203	0x3d006390	0.03134495
204	0x3d8cfa7d	0.06883714
205	0xbc91a9ee	-0.017781224
206	0xbe70090c	-0.23440951
207	0xbe812dc3	-0.25230226
208	0xbe851b64	-0.2599746
209	0x3e4f0c55	0.20219548
210	0x3e22ca6c	0.1589753
211	0xbd4d84fc	-0.050175652
212	0xbe106a09	-0.14102949
213	0xbe181695	-0.14852364
214	0x3d682357	0.056674328
215	0xbdff1a6c	-0.124562114
216	0x3d9737e4	0.07383707
217	0xbdde616a	-0.10858424
218	0x3d369dd7	0.04458412
219	0x3e51e7ec	0.20498627
220	0x3e13feef	0.14452718
221	0xbe363144	-0.17792231
222	0x3e1e4aa3	0.15458159
223	0xbe29fb6e	-0.16599819
224	0xbd0acd13	-0.03388698
225	0xbe59ebdb	-0.21281378
226	0x3d8deb3c	0.06929633
227	0x3e8648ed	0.26227513
228	0x3d8488fe	0.06471442
229	0x3e9220db	0.28540692
230	0xbe945c1b	-0.2897652
231	0xbe29892f	-0.16556238
232	0x3e248051	0.16064574
233	0x3e4a0cc8	0.19731438
234	0x3e741012	0.23834255
235	0x3e56ee6f	0.20989393
236	0xbe63d95f	-0.22250889
237	0x3e077ce2	0.13231233
238	0x3e73160e	0.23738882
239	0x3e643544	0.22285944
240	0x3e3c3fa4	0.18383652
241	0xbdf5eae1	-0.1200769
242	0x3d1feaf3	0.039042424
243	0x3d9baaa3	0.07600906
244	0xbc197f5d	-0.009368745
245	0xbe53d7a2	-0.20687726
246	0x3ddc6978	0.10762304
247	0x3d17d1a7	0.037065174
248	0xbddfc90a	-0.10927017
249	0xbe3dffbf	-0.1855459
250	0x3d99dd08	0.075128615
251	0xbe03d428	-0.128739
252	0xbe2d3bea	-0.16917387
253	0xbc95d50e	-0.018290069
254	0x3e5a1a4a	0.21299091
255	0x3e86c337	0.26320812

net.4.bias f4 [32]
0	0xbe5646a3	-0.20925383
1	0x3bb6a758	0.005574148
2	0x3e80c358	0.25149035
3	0xbde1ae5c	-0.110195845
4	0x3e651316	0.22370562
5	0xbe2a5fff	-0.16638182
6	0x3d4b3599	0.04961166
7	0x3cbd3f98	0.023101613
8	0x3e6a1313	0.22858839
9	0xbe017ab3	-0.12644462
10	0x3e03587d	0.12826724
11	0x3e06c899	0.1316246
12	0x3d7b743b	0.061390143
13	0xbd7dac0f	-0.061931666
14	0xbe5f7e83	-0.21825604
15	0x3e090efc	0.13384622
16	0x3d5c0275	0.05371328
17	0xbc730342	-0.01483232
18	0xbd8f37db	-0.069930755
19	0x3e45c064	0.19311672
20	0x3dcc78fd	0.09984014
21	0x3de16c76	0.110070154
22	0x3e42f653	0.19039278
23	0x3d53e93a	0.051736094
24	0xbd59c2aa	-0.05316416
25	0x3dad0d6c	0.08449826
26	0xbd98814e	-0.07446538
27	0xbe011dfb	-0.12609093
28	0x3e40c78f	0.18826126
29	0xbd47f9a4	-0.04882206
30	0x3e37c4cc	0.17946166
31	0xbe756d48	-0.23967469

net.6.weight f4 [1, 32]
0	0xbd7c9bd8	-0.06167206
1	0xbdb4b055	-0.08822695
2	0x3e0dd6ce	0.13851473
3	0x3cfdbca1	0.030973734
4	0xbd801cf2	-0.06255521
5	0x3e878492	0.2646833
6	0x3d32ba04	0.04363443
7	0x3d8f4530	0.06995618
8	0xbe16b11a	-0.14715996
9	0xbd6ae573	-0.057347726
10	0x3e31989f	0.17343377
11	0xbe15447d	-0.14576907
12	0x3d3d9fd5	0.046295006
13	0xbe1e28ab	-0.15445201
14	0xbe048aaf	-0.12943529
15	0x3b7be84c	0.003843802
16	0xbe8a2817	-0.2698371
17	0xbe16c972	-0.14725283
18	0xbbf6b2ad	-0.007528624
19	0xbcbef0b7	-0.023308141
20	0x3e4666a1	0.19375087
21	0x3dd5cd14	0.10439506
22	0x3cb51ecf	0.022109417
23	0x3db8c8b3	0.09022655
24	0xbd28d93d	-0.0412228
25	0x3e1a63b1	0.15077092
26	0x3dd77e22	0.10522105
27	0xbd635794	-0.055503443
28	0x3e1a2514	0.15053207
29	0x3d88a5b5	0.06672231
30	0xbdc44640	-0.095837116
31	0xbe141778	-0.14462078
