models/mountain_car/hamiltonian_decoder.pth (torch, 6352 bytes, 7 tensors)

net.0.weight f4 [8, 4]
0	0x3de9a844	0.11409047
1	0x3f04b426	0.51837385
2	0x3e3878b3	0.18014793
3	0x3ef6fe66	0.48240966
4	0x3e405406	0.18782052
5	0xbe5faa78	-0.21842372
6	0xbedef217	-0.43544075
7	0xbe7522b0	-0.23939013
8	0x3eecfd80	0.46287155
9	0x3a41f955	0.0007399519
10	0xbeb6c3ca	-0.3569625
11	0xbe9751d3	-0.29554614
12	0x3ea674ab	0.32510886
13	0x3d7510b9	0.0598304
14	0xbcd72a2c	-0.026265226
15	0xbe04c78f	-0.1296675
16	0xbee8d4ad	-0.4547476
17	0x3e2d0a8d	0.16898556
18	0x3ee1e447	0.44119474
19	0x3ec35d08	0.38156915
20	0x3f0e984d	0.5570114
21	0x3eaee10b	0.3415607
22	0x3e8b11dc	0.27162063
23	0xbe8362d3	-0.25661334
24	0x3ee671f9	0.4500883
25	0x3e6171a8	0.22016013
26	0x3e2ae92a	0.16690508
27	0xbe8630fa	-0.2620924
28	0x3e06bee9	0.13158764
29	0xbe2a5ba8	-0.16636527
30	0x3d58f713	0.052970003
31	0x3efda558	0.4954021

net.0.bias f4 [8]
0	0x3e42afbe	0.19012353
1	0xbeafd5ba	-0.34342748
2	0x3f032bac	0.51238513
3	0x3cc742cd	0.024323845
4	0xbd588844	-0.052864328
5	0x3e667ef4	0.22509366
6	0x3dbd14dc	0.09232494
7	0x3e8342b8	0.2563684

net.2.weight f4 [16, 8]
0	0x3e7c9682	0.24666789
1	0xbd33bb68	-0.043879896
2	0xbe140c0f	-0.14457725
3	0x3de186dc	0.110120505
4	0xbde1e279	-0.11029524
5	0x3e0f3ae2	0.13987306
6	0x3e67c780	0.22634697
7	0x3e5c1b44	0.21494776
8	0x3e979874	0.296085
9	0x3e7df148	0.24799073
10	0x3eb064e4	0.34451973
11	0xbdda1ebc	-0.10650393
12	0xbd002a2b	-0.031290215
13	0x3e8e063e	0.27739137
14	0xbe6f69d6	-0.23380217
15	0x3d46ad42	0.048505075
16	0xbeba55cd	-0.36393586
17	0xbeb4c352	-0.35305268
18	0xbe1b8d79	-0.15190686
19	0x3e8f8421	0.28030494
20	0x3eb399c2	0.35078245
21	0x3de2de81	0.110775955
22	0x3dc39ea8	0.09551746
23	0xbecef896	-0.4042403
24	0xbd59848d	-0.053104926
25	0x3e14fb39	0.14548959
26	0xbd8c6489	-0.06855113
27	0xbeae80ac	-0.34082544
28	0x3e8b66da	0.27226907
29	0x3ddb3309	0.107030936
30	0xbe35ed1f	-0.17766236
31	0xbe6992c8	-0.22809899
32	0x3ecc52a8	0.39906812
33	0x3e87d753	0.26531467
34	0xbe6a91eb	-0.22907226
35	0x3ed1de6c	0.40990007
36	0xbe1d8f0f	-0.15386604
37	0x3e977d42	0.29587752
38	0x3e595c50	0.2122662
39	0xbe011080	-0.1260395
40	0xb9292dee	-0.00016134206
41	0x3e81abea	0.25326473
42	0x3ebb7dbd	0.36619368
43	0xbc46c9be	-0.01213306
44	0xbe211a27	-0.15732633
45	0x3e639167	0.22223435
46	0x3d016aa7	0.031595852
47	0xbe807e10	-0.25096178
48	0x3e6a9925	0.22909983
49	0x3e3bc550	0.18336987
50	0xbd9e2e6c	-0.07723698
51	0xbe7149cc	-0.23563308
52	0xbecf39a1	-0.40473655
53	0x3e9bc228	0.30421567
54	0x3e362e64	0.17791134
55	0x3eba128f	0.36342284
56	0xbe4b2dc5	-0.19841678
57	0xbe862c8e	-0.26205868
58	0xbe7ca1d0	-0.24671102
59	0x3e10a2e9	0.14124645
60	0xbd9b18dc	-0.07573101
61	0x3e862baa	0.26205188
62	0x3e96b3c0	0.29434013
63	0xbd9d5d1d	-0.076837756
64	0x3eacba35	0.33735815
65	0xbe8975b5	-0.26847616
66	0x3e33f057	0.17572151
67	0x3e05a6c2	0.13051894
68	0xbec4b845	-0.38421836
69	0xbe55cc8f	-0.20878814
70	0x3e7c59c3	0.24643616
71	0xbced190e	-0.028942611
72	0x3d7b0d2c	0.06129186
73	0x3ce4708d	0.0278857
74	0xbe8567ef	-0.26055858
75	0xbe943dd8	-0.28953433
76	0xbd4bc85e	-0.049751632
77	0xbcbc6031	-0.022995086
78	0x3e76c1d4	0.24097377
79	0x3eae5e68	0.340564
80	0x3dff53ac	0.12467131
81	0x3e6291d8	0.22125947
82	0xbd8f3523	-0.06992557
83	0xbdb45f9b	-0.08807298
84	0xbeadf024	-0.33972275
85	0x3e8a244f	0.26980826
86	0x3db44a29	0.088032074
87	0x3ca801d3	0.020508682
88	0xbd72200c	-0.059112594
89	0xbe3f69be	-0.18692681
90	0xbec7c631	-0.39018396
91	0x3e0d38e4	0.13791233
92	0xbe3eaa37	-0.1861962
93	0xbed2ff57	-0.41210434
94	0xbe8f572f	-0.27996203
95	0xbd511f37	-0.05105516
96	0x3e6a2c43	0.22868447
97	0x3ec02721	0.37529853
98	0xbe8ab7dd	-0.27093402
99	0x3e7ff42f	0.24995492
100	0xbeb92e2d	-0.36168042
101	0xbdccf7a5	-0.10008172
102	0x3e6c6eda	0.23089162
103	0x3d8b6c4e	0.06807767
104	0x3d97c889	0.07411296
105	0x3ca90d66	0.020636272
106	0xbb503a43	-0.0031773008
107	0x3dec9d1d	0.115534045
108	0x3e9f8219	0.31153944
109	0x3da8ccb5	0.0824217
110	0xbec73c13	-0.3891302
111	0x3cbbf53e	0.022944089
112	0x3dcd9af7	0.10039323
113	0xbe39dd62	-0.18150857
114	0xbce9c314	-0.028535403
115	0xbd4c1099	-0.049820516
116	0xbec4be4d	-0.38426438
117	0x3d80f8a2	0.06297423
118	0x3dd319b1	0.103076346
119	0x3dd0f36c	0.10202679
120	0xbe2cf49a	-0.16890183
121	0x3e3e58aa	0.1858851
122	0x3e033f20	0.12817049
123	0x3ec17d58	0.37790942
124	0x3e5b542e	0.21418831
125	0x3e8b1782	0.27166373
126	0xbd8c25cf	-0.06843149
127	0x3d8b90fc	0.06814763

net.2.bias f4 [16]
0	0x3d80f33a	0.06296392
1	0xbe810c06	-0.25204486
2	0x3e723dd0	0.23656392
3	0x3e20e08e	0.15710661
4	0x3e19fd2c	0.15037984
5	0x3da0a39c	0.07843706
6	0x3e16f5c2	0.14742187
7	0xbe2d652f	-0.1693313
8	0x3e06539e	0.13117835
9	0x3e0eb4f6	0.13936219
10	0xbd0284e9	-0.031865034
11	0xbe6ea84f	-0.23306392
12	0x3e0ee319	0.13953818
13	0x3d857321	0.065161
14	0xbe13111e	-0.14361998
15	0x3dc3afac	0.09554991

net.4.weight f4 [32, 16]
0	0x3e2eb65c	0.17061752
1	0xbc32d512	-0.010915058
2	0xbddf5418	-0.109047115
3	0x3d9aea4d	0.075642206
4	0xbe4226a7	-0.18960057
5	0x3d32af25	0.043624062
6	0xbda39475	-0.079873
7	0x3dda682c	0.106644005
8	0xbe81b848	-0.25335908
9	0xbe573ae4	-0.21018559
10	0xbe4a6c44	-0.19767863
11	0xbd6d7149	-0.057969365
12	0xbe5bcfee	-0.21466038
13	0x3e04d08b	0.12970178
14	0xbe226391	-0.15858294
15	0xbdadc49d	-0.08484767
16	0xbe143f6a	-0.14477316
17	0x3e9de258	0.3083675
18	0xbde08cc2	-0.109643474
19	0xbe793bd5	-0.2433923
20	0x3c875150	0.016518265
21	0xbcfa9bf0	-0.030591935
22	0x3e1e71e5	0.15473135
23	0x3d8375a3	0.06418922
24	0xbe23c449	-0.15992846
25	0x3d8d4129	0.06897194
26	0x3df74031	0.120727904
27	0x3b8c3f08	0.004279975
28	0x3e89dcb8	0.26926208
29	0xbe9a7d62	-0.30173784
30	0xbdf42253	-0.11920609
31	0x3dd60ec2	0.104520336
32	0x3e6e1d71	0.23253419
33	0x3e1494ff	0.14509962
34	0xbbd372de	-0.006452902
35	0x3e03b9a4	0.12863785
36	0x3e13a88b	0.14419763
37	0xbb5c5dbc	-0.0033625206
38	0xbdee8e57	-0.11648243
39	0x3de57105	0.112031974
40	0x3dc6d676	0.09708874
41	0xbe503575	-0.20332892
42	0x3dd45961	0.1036861
43	0xbe1aad38	-0.1510514
44	0xbd8ef5b7	-0.0698046
45	0x3e314e1a	0.1731495
46	0x3e61707f	0.2201557
47	0x3e9bf72e	0.3046202
48	0x3d8cd84d	0.068771936
49	0x3dacf1e6	0.08444576
50	0xbe136933	-0.14395599
51	0x3e986140	0.29761696
52	0xbe8fbee1	-0.28075317
53	0x3d401dcc	0.046903417
54	0xbe2575ab	-0.16158168
55	0x3dac6aee	0.08418833
56	0xbe4baf58	-0.19891107
57	0x3dbacc6f	0.09121024
58	0x3dd5bb77	0.10436147
59	0x3d94a3d7	0.072578125
60	0x3bfc08c6	0.0076914756
61	0xbda924cf	-0.08258974
62	0x3d60a062	0.054840453
63	0x3d4c84af	0.049931224
64	0xbda9d796	-0.08293073
65	0x3e5cb249	0.21552385
66	0xbe3717f0	-0.17880225
67	0xbe8a0388	-0.2695582
68	0x3e9e7c77	0.30954334
69	0x3e0e8fb4	0.13922006
70	0x3e8d8133	0.27637634
71	0x3e89bd60	0.26902294
72	0xbe1be29a	-0.1522316
73	0x3e319745	0.17342861
74	0x3e265988	0.16245091
75	0xbdf76adb	-0.12080928
76	0x3e6b8cca	0.23002926
77	0xbe15acab	-0.14616649
78	0xbdee247f	-0.11628055
79	0xbd57af55	-0.052657444
80	0x3dfed984	0.124438316
81	0x3e751e6b	0.23937385
82	0xbe88abea	-0.2669366
83	0xbe6b75bc	-0.22994131
84	0x3e4b3151	0.19843031
85	0x3e46b190	0.19403672
86	0x3e92bd03	0.2865983
87	0x3e122ca6	0.14274845
88	0xbbd10d91	-0.006379791
89	0xbe6c053f	-0.23048876
90	0xbde99349	-0.114050455
91	0xbe92526e	-0.28578514
92	0x3e0d39fa	0.13791648
93	0x3d291be7	0.041286375
94	0x3e7238e0	0.23654509
95	0xbdb016ed	-0.08598123
96	0x3ddefd92	0.108882084
97	0x3e513361	0.20429756
98	0xbe0ac5e3	-0.1355205
99	0x3e36cd46	0.17851743
100	0x3db04404	0.08606723
101	0x3e64fc4d	0.2236187
102	0x3e1c6332	0.15272215
103	0xbe422afb	-0.18961708
104	0x3e0097c5	0.12557895
105	0x3d941f46	0.072325274
106	0xbccd41b7	-0.02505575
107	0xbe77fbdd	-0.24217172
108	0x3c43507f	0.011921047
109	0xbe6ceafb	-0.23136513
110	0xbd3ba9ae	-0.045816116
111	0x3d2e7eeb	0.042601507
112	0x3e0cc867	0.13748322
113	0xbe12d025	-0.14337213
114	0xbe5cace1	-0.21550323
115	0xbe72c6f8	-0.23708713
116	0x3be34342	0.006935508
117	0x3e2ef83c	0.17086881
118	0xbcb095e9	-0.021555858
119	0xbe2d01ef	-0.16895269
120	0xbe445ccc	-0.19176024
121	0xbdf44cc6	-0.11928706
122	0x3d0e3c8d	0.034725714
123	0xbe038319	-0.12842979
124	0x3e85214b	0.26001963
125	0xbe43c1e8	-0.19116938
126	0xbe3df185	-0.18549164
127	0x3d9dc73f	0.07704019
128	0xbe232605	-0.15932472
129	0x3e1afa52	0.15134552
130	0xbdfc4d52	-0.12319435
131	0xbe611404	-0.21980292
132	0xbdac92fc	-0.084264725
133	0x3e2e9473	0.17048816
134	0x3dd1291a	0.102129176
135	0x3d7f0dd6	0.062269054
136	0x3c2ca4c9	0.010537335
137	0xbe77e541	-0.24208547
138	0xbe3d56eb	-0.18490188
139	0xbd11c0eb	-0.03558437
140	0x3e8f71f5	0.2801663
141	0xbdf9fe77	-0.122067384
142	0x3db7ba35	0.08971063
143	0x3e68f14e	0.227483
144	0xbd6c7bf5	-0.057735402
145	0x3e2f2803	0.17105107
146	0xbd98b479	-0.074562974
147	0xbc73e73a	-0.014886672
148	0xbd46fe7d	-0.048582543
149	0xb914be8a	-0.00014185361
150	0x3d29ef9c	0.041488275
151	0xbdf3180f	-0.11869823
152	0x3df01159	0.11722059
153	0x3d1a8242	0.03772188
154	0xbda307b6	-0.07960455
155	0xbe369e22	-0.1783376
156	0x3e3bd310	0.18342233
157	0xbd05c184	-0.032655254
158	0x3ca6a0d7	0.020340366
159	0x3e935901	0.28778842
160	0x3cda7269	0.026665883
161	0x3e8f2b3b	0.2796267
162	0xbe71e8c9	-0.23623957
163	0xbe1e8aa8	-0.1548258
164	0x3e5fdece	0.21862337
165	0xbe2ebbea	-0.17063871
166	0x3d839713	0.064252995
167	0x3e24ce01	0.16094209
168	0xbe47665e	-0.19472644
169	0x3e3ebb3b	0.1862611
170	0x3e444056	0.19165167
171	0x3e45d892	0.19320896
172	0xbd972eb3	-0.07381954
173	0x3dd1a857	0.102371864
174	0xbe2e3366	-0.17011794
175	0x3e6b0053	0.22949342
176	0x3e16d413	0.14729337
177	0x3e3ba777	0.18325602
178	0xbdf0e8c0	-0.117631435
179	0xbe45c0d7	-0.19311844
180	0xbd0d00e1	-0.034424666
181	0x3dd9c12e	0.10632549
182	0x3e8c0fca	0.27355796
183	0x3e846304	0.25856793
184	0xbdc61f4e	-0.0967394
185	0x3d788b3e	0.060679667
186	0x3dbcd245	0.09219793
187	0x3d239bca	0.039943494
188	0x3dd41585	0.10355667
189	0xbdb6c46e	-0.08924185
190	0xbb2eda14	-0.0026680278
191	0x3db3228d	0.087468244
192	0x3e251cb9	0.16124238
193	0x3e3d4f33	0.18487243
194	0xbe2bfe13	-0.1679614
195	0x3e2f8b1f	0.17142914
196	0x3d1fd906	0.03902533
197	0xbd36448d	-0.04449897
198	0xbe261b04	-0.16221243
199	0x399fb774	0.00030463526
200	0x3cf6334e	0.03005376
201	0xbce6f996	-0.028195184
202	0x3d92958e	0.071574315
203	0x3d141a5d	0.036157954
204	0x3db7698a	0.08955677
205	0xbe78f790	-0.24313188
206	0x3e940e0e	0.28916973
207	0xbe0d7d0a	-0.1381723
208	0x3c39ad56	0.01133283
209	0x3b62039e	0.003448702
210	0x3e7b97c4	0.24569613
211	0x3e13cacf	0.14432834
212	0xbe887b04	-0.26656353
213	0x3d78cf00	0.060744286
214	0xbe349450	-0.17634702
215	0xbe60b9c9	-0.21945871
216	0xbe153ecc	-0.14574736
217	0xbde5ae7f	-0.11214923
218	0xbdce8fde	-0.10086034
219	0x3e41c634	0.18923265
220	0x3d9ae120	0.075624704
221	0x3db0fe8e	0.086423025
222	0x3d6b1510	0.057393134
223	0xbe83b8ef	-0.2572703
224	0x3e15d845	0.14633282
225	0x3d352893	0.044228148
226	0xbe6e5ab8	-0.23276794
227	0x3e328ddb	0.17436926
228	0xbdf9854a	-0.12183626
229	0x3cd0429e	0.02542239
230	0x3e178959	0.14798488
231	0x3cc65e0b	0.024214765
232	0x3ddf4976	0.109026834
233	0xbd378176	-0.044801198
234	0x3e88c7a8	0.26714826
235	0xbe8031d0	-0.25038004
236	0xbd9e98c5	-0.07743982
237	0xbe18b811	-0.14913966
238	0x3ca5e51c	0.02025085
239	0x3e1223bd	0.14271446
240	0xbe860d65	-0.26182094
241	0x3dca871c	0.09889051
242	0x3d3c64ef	0.045994695
243	0xbe096331	-0.13416745
244	0x3c9df862	0.019283477
245	0x3be00d0b	0.0068374923
246	0xbd6c385e	-0.057670943
247	0x3e3cfe75	0.18456443
248	0xbe8367be	-0.25665087
249	0x3e531fc7	0.20617591
250	0x3e106a67	0.1410309
251	0x3e798f46	0.2437106
252	0xbe9194d0	-0.28433847
253	0xbe237c18	-0.15965307
254	0xbe90e309	-0.28298214
255	0xbdb0b531	-0.086283095

net.4.bias f4 [32]
0	0xbd0e2088	-0.034698993
1	0x3db77f61	0.089598425
2	0xbdc992c8	-0.098424494
3	0x3e3913b2	0.1807392
4	0xbcb8b325	-0.02254636
5	0xbe2c39f6	-0.16818985
6	0xbe7bc36a	-0.24586263
7	0x3d120e25	0.03565802
8	0xbdd642f9	-0.10461993
9	0x3da39f75	0.079893984
10	0xbd913068	-0.07089311
11	0x3c6e6b4f	0.014551952
12	0x3e44c39b	0.19215243
13	0x3dd888ed	0.105729915
14	0xbe509406	-0.20368966
15	0x3cda3221	0.026635231
16	0x3bea6ba4	0.007153945
17	0xbe2c38d7	-0.16818558
18	0xbd8d907a	-0.06912322
19	0x3c3a2caa	0.011363188
20	0x3bd5d398	0.006525468
21	0xbd9ec311	-0.0775205
22	0x3ce9a10f	0.028519182
23	0xbe1d579f	-0.15365456
24	0xbe48ceb1	-0.19610097
25	0x3da2aafb	0.07942768
26	0x3b2f6ab1	0.0026766474
27	0x3d3ccf2e	0.04609602
28	0x3d772535	0.060338218
29	0x3e34a1fa	0.17639914
30	0xbdfcb2b9	-0.12338776
31	0xbd5185ad	-0.051152874

net.6.weight f4 [1, 32]
0	0x3e39e0b0	0.18152118
1	0xbdea6d30	-0.11446607
2	0xbd6b9dc1	-0.057523493
3	0x3deb027b	0.114750825
4	0xbd73720f	-0.059434947
5	0xbe03712d	-0.12836142
6	0xbdbc00ca	-0.09179838
7	0xbe0d4ced	-0.13798876
8	0xbda50b48	-0.08058792
9	0xbe3da9a2	-0.18521741
10	0xbd27ec66	-0.04099693
11	0xbe11b007	-0.14227305
12	0xbe011572	-0.12605837
13	0x3e05af79	0.13055219
14	0xbe0ce9f9	-0.13761128
15	0x3e43e9e5	0.19132192
16	0xbe610425	-0.21974237
17	0xbe3e367d	-0.18575473
18	0xbe574bf3	-0.21025066
19	0xbe5995f0	-0.21248603
20	0x3e17664c	0.14785117
21	0x3e0eadee	0.13933536
22	0xbe17ec95	-0.14836343
23	0xbe130f0f	-0.14361213
24	0x3e272182	0.16321376
25	0xbe5bcddb	-0.21465246
26	0x3d2b3ac9	0.04180411
27	0xbdc16525	-0.0944312
28	0xbe3e08dd	-0.18558069
29	0x3e4d02e5	0.20020635
30	0xbe477f27	-0.19482099
31	0x3da29c6d	0.07939992
