models/mountain_car/z_decoder.pth (torch, 4380 bytes, 6 tensors)

net.0.weight f4 [8, 2]
0	0xbf093430	-0.53595257
1	0x3e33b127	0.17548047
2	0xbd516b94	-0.051127985
3	0xbed92d69	-0.42417458
4	0x3f05f94d	0.5233353
5	0x3dca616a	0.098818615
6	0xbbcbe121	-0.006221906
7	0xbdbc7c47	-0.092033915
8	0x3f208925	0.62709266
9	0x3eaee6cf	0.34160468
10	0xbec59b3b	-0.38594994
11	0xbec4cdde	-0.38438314
12	0x3ec0ad6d	0.37632313
13	0xbef59daa	-0.4797185
14	0x3f1045ae	0.5635632
15	0xbe3d1102	-0.18463519

net.0.bias f4 [8]
0	0xbf25df2c	-0.6479366
1	0x3f071426	0.5276512
2	0xbd5d3d23	-0.054013383
3	0x3e38cc31	0.18046643
4	0x3f251a6a	0.6449343
5	0x3db5959c	0.08866426
6	0xbd01ebea	-0.031719126
7	0xbf343579	-0.7039409

net.2.weight f4 [32, 8]
0	0xbeae3cd0	-0.3403077
1	0x3e422ba0	0.18961954
2	0xbe89b07f	-0.26892468
3	0xbb8f209f	-0.0043679024
4	0x3e32d860	0.17465353
5	0xbdfd85f2	-0.12379064
6	0xbe93493b	-0.28766808
7	0xbec2c475	-0.3804051
8	0xbe16acf0	-0.14714408
9	0xbeae4f5d	-0.34044924
10	0xbe596cf2	-0.21232966
11	0x3df03055	0.117279686
12	0xbe1d816c	-0.15381402
13	0x3df2df3d	0.118589856
14	0x3e9a0e76	0.30089158
15	0x3d88416d	0.06653104
16	0xbd995854	-0.074875504
17	0x3e0d4eed	0.13799639
18	0x3e6d3092	0.2316306
19	0xbd4a4a94	-0.04938753
20	0xbde2ece2	-0.11080338
21	0x3e7e3d74	0.2482813
22	0xbe5ad573	-0.21370487
23	0x3d8915ad	0.066935875
24	0x3de525c6	0.11188845
25	0xbe428323	-0.18995337
26	0x3e10b342	0.14130881
27	0xbeb801f6	-0.35938996
28	0x3e53dbe7	0.20689355
29	0xbdb72184	-0.089419395
30	0x3ea6282d	0.32452527
31	0x3ae9c1cc	0.0017834245
32	0xbe08b892	-0.13351658
33	0x3da808a2	0.082047716
34	0xbdd3fd40	-0.10351038
35	0x3ec34874	0.38141215
36	0x3e28622d	0.16443701
37	0x3eb64142	0.35596663
38	0xbbb6e261	-0.0055811857
39	0x3dde290b	0.10847672
40	0xbde2b365	-0.11069373
41	0x3e5c0f40	0.21490192
42	0x3d84ed08	0.064905226
43	0x3e2153af	0.15754579
44	0x3e40c8ae	0.18826553
45	0xbe659a76	-0.22422203
46	0x3df03f2c	0.11730799
47	0x3e21c0d9	0.15796222
48	0x3da57f28	0.08080894
49	0xbd801212	-0.06253447
50	0xbe99f5d1	-0.30070356
51	0xbe129068	-0.14312899
52	0xbd9eee1b	-0.07760259
53	0x3e211967	0.15732346
54	0xbe319701	-0.1734276
55	0xbe8df748	-0.27727723
56	0xbd8ceeab	-0.0688146
57	0x3e94eabd	0.2908534
58	0x3d02bd91	0.031919066
59	0xbe9e4aed	-0.3091654
60	0x3ce39990	0.027783185
61	0x3c640677	0.013917557
62	0x3e8912c9	0.26772144
63	0x3dc00293	0.09375491
64	0x3e921261	0.28529647
65	0xbd800c28	-0.062523186
66	0xbd4801fb	-0.048830014
67	0xbe81136b	-0.25210127
68	0x3dbad482	0.09122564
69	0xbbb09458	-0.0053887777
70	0xbe14c6f0	-0.14529014
71	0x3eaecacb	0.34139094
72	0xbe7afec6	-0.24511251
73	0xbe8c9285	-0.27455536
74	0x3d946790	0.072463155
75	0xbe60c767	-0.21951066
76	0xbe0cb798	-0.1374191
77	0xbe89ed73	-0.26938972
78	0x3e3b4138	0.18286598
79	0x3de142bf	0.10999059
80	0xbe2df934	-0.16989595
81	0x3d60d78f	0.054893073
82	0xbe8b8375	-0.2724873
83	0xbe69cf14	-0.228329
84	0xbd11eeff	-0.035628315
85	0x3e3b856d	0.18312617
86	0x3dee9158	0.11648816
87	0x3c956721	0.018237652
88	0xbeac2492	-0.3362165
89	0xbe4609da	-0.19339696
90	0xbea4e765	-0.3220779
91	0xbddb59c2	-0.10710479
92	0x3d785428	0.060627133
93	0xbe02754a	-0.12740055
94	0xbd9c776f	-0.07639968
95	0xbe4246ab	-0.1897227
96	0xbe94e4d0	-0.2908082
97	0xbdaf4ccc	-0.0855957
98	0x3e0e4b0a	0.13895813
99	0xbebbadc7	-0.3665602
100	0xbe836993	-0.25666484
101	0x3e46fb12	0.19431713
102	0x3dc3f755	0.09568659
103	0xbd7857e7	-0.060630705
104	0xbe1336c5	-0.14376362
105	0xbdf2d64d	-0.11857281
106	0x3e913a4e	0.28364795
107	0x3e299fd8	0.16564882
108	0x3d0e8285	0.034792442
109	0x3e604b81	0.21903802
110	0x3e0fe937	0.14053808
111	0x3d70d46a	0.058796324
112	0x3e1c9692	0.15291813
113	0x3e945c42	0.28976637
114	0x3da3bb44	0.079947025
115	0xbe82a0d7	-0.25513336
116	0xbe92fb9c	-0.28707588
117	0xbc57badf	-0.013167112
118	0x3e814c37	0.2525346
119	0xbdd8a7c6	-0.10578875
120	0xbc17d20e	-0.0092663895
121	0x3eab5253	0.33461246
122	0x3e08400b	0.1330568
123	0x3e996013	0.2995611
124	0x3e58e239	0.21180047
125	0xbe521a2e	-0.205178
126	0xbd22bf70	-0.03973335
127	0x3e92b6e0	0.28655148
128	0xbe908b8d	-0.2823147
129	0xbe9b35a1	-0.30314353
130	0x3e7e6d45	0.2484637
131	0x3d8f4ef7	0.06997483
132	0x3da05d73	0.07830324
133	0xbdb24f93	-0.08706584
134	0xbe96bdb3	-0.29441604
135	0x3e5d2c8a	0.21599022
136	0xbdf80ced	-0.121118404
137	0xbe91b922	-0.28461558
138	0x3e4f268c	0.20229548
139	0xbe43b9b3	-0.19113807
140	0x3cecb28a	0.028893728
141	0xbc85f5c8	-0.01635255
142	0xbe609784	-0.21932799
143	0x3e2435bd	0.16036125
144	0xbe22525b	-0.15851729
145	0x3df14a6a	0.117817715
146	0x3d17ab66	0.037028693
147	0x3e747578	0.23872936
148	0x3db6e5e8	0.0893057
149	0xbea3e591	-0.32011083
150	0xbe333c44	-0.17503458
151	0xbe877add	-0.26460925
152	0xbdc223ed	-0.094795085
153	0x3e2415b7	0.16023909
154	0xbd9db8c5	-0.077012576
155	0x3dd86ef0	0.10568035
156	0x3d7bae63	0.061445605
157	0xbd4191cd	-0.047258187
158	0x3e2df9ee	0.16989872
159	0xbe678653	-0.22609834
160	0xbd9f73ab	-0.07785734
161	0xbe4d8778	-0.20071208
162	0xbe9c8c86	-0.3057596
163	0x3e804c2e	0.2505812
164	0xbe710cce	-0.23540041
165	0xbe782be6	-0.24235496
166	0x3e9ae8c3	0.30255708
167	0xbd58a548	-0.052892
168	0x3eb47ee7	0.3525307
169	0xbd0a545a	-0.03377185
170	0xbe472bff	-0.19450377
171	0xbe635149	-0.22198977
172	0x3cde296d	0.027119363
173	0x3dcbff7a	0.09960838
174	0xbe9160dd	-0.28394213
175	0xbd17344d	-0.036915112
176	0xbeb44eb5	-0.352163
177	0xbe8fc7f7	-0.2808225
178	0xbcaaf6b2	-0.020869587
179	0xbe103947	-0.1408435
180	0xbe303d1a	-0.17210808
181	0x3d530f48	0.051528245
182	0x3e8d9c3e	0.27658266
183	0xbe5aef0d	-0.21380253
184	0xbe5563cf	-0.20838855
185	0x3db4c59c	0.088267535
186	0x3e85e5f2	0.26151997
187	0x3dc61158	0.09671277
188	0xbe93d918	-0.28876567
189	0xbe89dc76	-0.2692601
190	0x3e1e07ec	0.1543271
191	0xbe967761	-0.29387954
192	0xbeb8643a	-0.36013967
193	0x3d5ff814	0.054679945
194	0x3e180e8a	0.14849296
195	0xbda4426c	-0.080204815
196	0xbea47adf	-0.32124993
197	0xbde2357d	-0.11045358
198	0xbe2904bb	-0.16505711
199	0xbe625338	-0.22102058
200	0x3e07fcf3	0.13280086
201	0x3de81bf2	0.11333455
202	0x3e8d4b00	0.27596283
203	0x3d839f37	0.06426852
204	0xbd4a057e	-0.049321644
205	0x3bfc650e	0.0077024763
206	0x3dc9f723	0.09861591
207	0x3da04fc2	0.078277126
208	0x3dbcaad3	0.0921227
209	0x3e978348	0.29592347
210	0xbd5c6e02	-0.05381585
211	0xbe728b29	-0.23685898
212	0xbe760ac6	-0.24027547
213	0xbebb83c9	-0.36623982
214	0xbe19571f	-0.1497464
215	0xbe6ee47e	-0.2332935
216	0x3e80835c	0.2510022
217	0x3e9e55d9	0.30924872
218	0xbd45af54	-0.04826291
219	0x3e7f00c7	0.2490264
220	0x3dfe63f6	0.1242141
221	0x3e95f87b	0.29291138
222	0xbebe10b9	-0.37122133
223	0xbe8024f2	-0.25028187
224	0x3e556059	0.20837535
225	0x3da01dd6	0.07818191
226	0xbd637a34	-0.055536464
227	0x3de009c7	0.10939365
228	0xbe961679	-0.2931402
229	0xbea0402d	-0.31298962
230	0xbdb62398	-0.08893508
231	0xbd755e4d	-0.059904385
232	0xbe90053a	-0.28128988
233	0xbd464a47	-0.04841068
234	0xbe03f13f	-0.12884997
235	0x3e833f83	0.25634393
236	0x3c78d066	0.015186405
237	0xbe00cc2f	-0.1257789
238	0x3e438260	0.19092703
239	0x3e45ff71	0.19335724
240	0xbe86e4d7	-0.26346466
241	0x3e4af052	0.19818237
242	0x3dac3505	0.0840855
243	0x3e15315a	0.14569607
244	0xbe0281fa	-0.12744895
245	0x3d9c7991	0.076403745
246	0x3e143f17	0.14477192
247	0x3e8e3422	0.2777415
248	0x3e5155b6	0.20442852
249	0xbd92489b	-0.07142755
250	0x3e1ea174	0.15491277
251	0x3e89ba37	0.26899883
252	0xbe07f143	-0.13275628
253	0x3e6c4aae	0.23075363
254	0x3b318e69	0.002709294
255	0xbe926326	-0.2859127

net.2.bias f4 [32]
0	0x3dac6075	0.08416835
1	0x3da40d59	0.08010358
2	0x3cbebe61	0.02328414
3	0x3e9a3c06	0.3012392
4	0x3e7d1254	0.24714023
5	0x3ea1c27f	0.315937
6	0x3e23e3fe	0.16004941
7	0xbe12fa53	-0.14353304
8	0xbc2c5bb9	-0.010519915
9	0xbe1aee9f	-0.15130089
10	0xbde8f887	-0.11375528
11	0xbe376095	-0.17907937
12	0xbe6406fe	-0.22268292
13	0x3dfcd4d8	0.12345284
14	0xbe270d09	-0.16313566
15	0x3d4351ab	0.047685307
16	0xbc6fbb3d	-0.014632043
17	0xbe6b580f	-0.2298281
18	0xbc4f2fe5	-0.012645696
19	0x3e99b657	0.30021927
20	0x3eb7d860	0.3590727
21	0x3e47a956	0.1949819
22	0x3e642915	0.22281297
23	0xbeb66269	-0.35621956
24	0x3e94f52b	0.29093298
25	0x3ea4d185	0.321911
26	0xbda8d140	-0.08243036
27	0xbdc4d102	-0.096101776
28	0x3ea21684	0.31657803
29	0x3e17aed5	0.14812787
30	0xbe556dee	-0.20842716
31	0x3ea2a9c0	0.31770134

net.4.weight f4 [4, 32]
0	0x3d2586f9	0.040411923
1	0x3c455b3d	0.012045679
2	0x3dc42086	0.09576516
3	0x3cc942ac	0.024567924
4	0x3d8a4de3	0.06753137
5	0x3dd6cbf8	0.10488123
6	0x3cf5004d	0.02990737
7	0x3bcc8258	0.006241124
8	0xbcaf7902	-0.021420006
9	0x3e0912b9	0.13386048
10	0x3d63a4ac	0.055576965
11	0x3d2a7ac6	0.041620992
12	0xbd4e4a5e	-0.05036389
13	0x3c81a0ce	0.015823748
14	0x3e1c12a6	0.15241489
15	0x3d01f703	0.03172971
16	0x3d8c691a	0.06855984
17	0xbd104507	-0.03522208
18	0xbdebcd3b	-0.11513754
19	0xbe1bb827	-0.15206967
20	0xbde9eae9	-0.11421759
21	0x3e438742	0.19094566
22	0xbddeee2a	-0.1088527
23	0x3e069c3f	0.1314554
24	0xbd7f11a9	-0.0622727
25	0x3de977ca	0.11399801
26	0xbd46a600	-0.048498154
27	0x3de20e10	0.110378385
28	0xbdf8ac1e	-0.12142204
29	0x3dfdf5f0	0.124004245
30	0xbe004ebd	-0.12530036
31	0xbcecbbaf	-0.028898088
32	0xbe1435a4	-0.14473587
33	0xbd9a9db6	-0.07549612
34	0x3e18db58	0.14927423
35	0x3c08a786	0.008340722
36	0xbd79671e	-0.060889356
37	0x3e1055ed	0.14095278
38	0x3e180758	0.14846551
39	0xbdd76d6a	-0.10518916
40	0xbdcf2d0a	-0.101160124
41	0xbe145693	-0.1448615
42	0xbe573b9c	-0.21018833
43	0x3d250ece	0.040297322
44	0x3d6ae705	0.057349224
45	0x3d059dc7	0.03262117
46	0xbc883b91	-0.016629966
47	0x3dd39c9e	0.10332607
48	0xbe299bdc	-0.16563362
49	0xbd311842	-0.043236025
50	0x3ceeee7a	0.029166449
51	0xbcba57d3	-0.022746956
52	0x3d2b1e3b	0.041776877
53	0x3c81ac46	0.015829217
54	0x3e0906f2	0.13381556
55	0xbe2d8abb	-0.16947453
56	0x3ce3166f	0.027720658
57	0x3ddde545	0.10834745
58	0x3e15bbf1	0.14622475
59	0xbe1298b4	-0.14316064
60	0x3cd49d0a	0.025953788
61	0xbcef5544	-0.029215463
62	0x3d152d21	0.03641999
63	0xbe100847	-0.14065658
64	0xbe037ef0	-0.12841392
65	0x3d4ad0cd	0.049515534
66	0x3d92000d	0.07128916
67	0xbd47e257	-0.04879984
68	0xbcfb3e9d	-0.030669505
69	0xbe0d14ac	-0.13777417
70	0xbe063abb	-0.13108341
71	0xbd359d09	-0.044339214
72	0x3d5f7b1a	0.05456076
73	0x3e09c2e6	0.13453254
74	0xbda645c4	-0.081187755
75	0x3c192d37	0.009349159
76	0x3e0ffb1d	0.14060636
77	0xbe0b251b	-0.13588373
78	0x3dfbbc97	0.1229183
79	0xbe15bd95	-0.14623101
80	0x3d67be72	0.056578107
81	0xbd843153	-0.0645472
82	0x3dc33827	0.095321946
83	0xbdc83e4a	-0.09777506
84	0xbe26b164	-0.16278607
85	0xbd3cdba5	-0.046107907
86	0xbdaea958	-0.085283935
87	0x3e267b25	0.16257913
88	0xbd42a20d	-0.047517825
89	0xbe3e212a	-0.18567339
90	0xbb4f6d1c	-0.0031650728
91	0x3e077760	0.13229132
92	0xbd35aa84	-0.04435207
93	0xbc884feb	-0.01663967
94	0x3e0d81a2	0.13818982
95	0xbe0073ed	-0.12544222
96	0x3df0e7e4	0.117629796
97	0x3b84edae	0.004056654
98	0x3e33f30f	0.17573188
99	0xbda5d957	-0.08098095
100	0x3e1292ed	0.1431386
101	0x3e31df28	0.17370284
102	0x3de081ae	0.109622344
103	0xbccb3c06	-0.024808895
104	0xbd667ed1	-0.056273285
105	0x3d289b37	0.04116365
106	0xbe616b60	-0.22013617
107	0xbd6aad7d	-0.057294358
108	0xbd3b3855	-0.04570802
109	0xbdb2a1e1	-0.08722282
110	0x3bea8274	0.0071566645
111	0x3e05fcbf	0.13084696
112	0xbc037a8e	-0.008024825
113	0xbc5eb894	-0.013593812
114	0xbcc3b517	-0.023890061
115	0xbdda4e9c	-0.10659525
116	0x3d361014	0.044448927
117	0x39e147ff	0.00042968986
118	0x3e2812cb	0.16413419
119	0xbd0a2094	-0.033722475
120	0xbd245d97	-0.040128317
121	0xbd84a220	-0.064762354
122	0xbd8e4a0c	-0.06947717
123	0x3d97ea84	0.07417777
124	0x3e0e2693	0.13881902
125	0x3d0091ac	0.031388924
126	0x3c89da32	0.016827676
127	0xbdc7caf3	-0.09755506

net.4.bias f4 [4]
0	0x3e078f13	0.13238172
1	0x3d70e6f3	0.058814
2	0xbe41a59e	-0.18910834
3	0x3e734c63	0.23759608
