models/mountain_car/z_encoder.pth (torch, 6868 bytes, 10 tensors)

share_mlp.net.0.weight f4 [32, 4]
000000 c5 9a 78 be 6b 8c fe 3e 76 30 19 be 75 67 a1 3e
       -0.2427779 0.49716505 -0.14959893 0.31524244
000010 af 9f a2 be 50 33 e6 be 14 46 ca bd 72 a0 1c 3c
       -0.31762454 -0.44961023 -0.098766476 0.0095597375
000020 6f d5 53 3e 3e 82 56 bd 90 eb c3 be a0 84 9f 3e
       0.20686887 -0.052370302 -0.38265657 0.31155872
000030 e9 8c 91 be a8 96 80 3e b1 e6 e6 3e ca b8 2f be
       -0.28427818 0.25114942 0.4509788 -0.17160335
000040 c1 9a 4b 3e fc 95 eb 3c 86 6c 6c 3d f0 9b bd 3e
       0.19883253 0.028758042 0.057720684 0.37033033
000050 aa db bc be 74 31 bb be 85 83 8c be 8c e0 b8 be
       -0.3688634 -0.36561167 -0.2744409 -0.36108816
000060 18 f8 8a be d6 bd c4 be 87 3d 34 bc dc f8 82 be
       -0.27142406 -0.38426083 -0.011000997 -0.2558049
000070 f3 c4 9e be 92 aa 9f 3e d4 e2 cb bd b6 63 d7 3d
       -0.31009635 0.31184822 -0.099553734 0.10517065
000080 2b ee 0d be e4 9c 49 be 01 90 79 be 03 20 83 be
       -0.13860385 -0.19688755 -0.2437134 -0.2561036
000090 4f 81 2c be f4 72 50 3e 1a a9 ad 3e f8 c6 c7 be
       -0.16846202 0.20356351 0.33918077 -0.3901899
0000a0 bd d0 a1 be f7 1a 6f be 8f ea f9 be 60 08 ff 3d
       -0.31604567 -0.2335013 -0.48811767 0.12452769
0000b0 67 ee 74 3e 22 8e b1 3e bb 5a a7 3e 6f ba 84 3e
       0.23919068 0.3467875 0.3268641 0.25923488
0000c0 73 42 98 3e e1 1d 3e 3e 3c 94 c1 3d 70 c8 a2 3b
       0.29738197 0.18566085 0.094521016 0.0049677417
0000d0 68 7f 81 3d bc 38 01 3e 8c e6 2b be 3e 9c 69 be
       0.06323129 0.12619299 -0.16787165 -0.22813508
0000e0 d3 e6 db 3e 99 53 67 be 7e c8 b3 3e 7c 1c 77 be
       0.42949542 -0.22590484 0.351139 -0.2413196
0000f0 12 ce 61 bc 61 ec 29 3e 38 7e 6c bd a1 9a c8 be
       -0.013782041 0.16594078 -0.05773756 -0.39180472
000100 36 35 e9 3e 3e a2 f0 be 07 97 cc be f4 16 c1 be
       0.4554841 -0.4699878 -0.39958975 -0.37712824
000110 18 0b bd be b2 fa 22 3e 8f 2e 99 3e 60 39 75 3e
       -0.36922526 0.15915945 0.29918334 0.23947668
000120 8d 5c de be 14 b8 0e be c2 d2 db 3e 19 63 53 3e
       -0.43429986 -0.13937408 0.42934233 0.20643272
000130 79 88 b7 be ec 9b a6 be db 1b 9c 3e 16 b0 cd bd
       -0.35846308 -0.32540834 0.30490002 -0.10043351
000140 6b 90 a2 3e 4e a9 d4 be 8c ce 8f be 6c 63 5a be
       0.31750807 -0.4153542 -0.2808727 -0.21326989
000150 91 55 41 3e fb e7 7a be 54 67 92 3d 68 5a 2d 3e
       0.18880297 -0.24502556 0.071486145 0.16929018
000160 64 96 5f 3e f6 4c 04 3e d9 86 34 be ce 7d 0d be
       0.21834713 0.12919983 -0.17629565 -0.13817522
000170 64 0f ff be 88 ca 9e be da 52 c7 bd 56 75 ab bd
       -0.4981643 -0.31013894 -0.097325996 -0.083719894
000180 c7 f1 d0 be 08 c4 e5 be 01 78 7a bb 66 8e 45 be
       -0.4080946 -0.44876122 -0.00382185 -0.19292602
000190 18 c4 d1 3d b8 b5 d3 be f6 4e b6 be 45 e8 af be
       0.1024248 -0.41349578 -0.35607117 -0.34356895
0001a0 21 58 a8 be 12 3f 48 3d 4f 4a 9a 3d 0c cc 3c be
       -0.32879737 0.048888274 0.075337045 -0.18437213
0001b0 af d7 83 3d 7f 3c ce bb 88 73 88 3c ad 37 fc 3c
       0.06437623 -0.006293833 0.016656652 0.030788267
0001c0 a8 7c 59 bd 1e 17 90 3e e8 8d 0a 3e 24 b7 e4 bd
       -0.053097397 0.28142637 0.13530695 -0.11167744
0001d0 95 e1 c7 3e e5 84 74 be b1 5d c6 3e 08 18 d2 3e
       0.39039293 -0.2387882 0.38743356 0.4103396
0001e0 37 01 8b 3e 1e 03 ef 3d 24 2c f4 be d2 33 f3 be
       0.27149364 0.116705164 -0.47689927 -0.47500473
0001f0 8e c4 d0 be c3 01 3b 3e 0e ac cc 3e 98 96 b8 3e
       -0.4077496 0.18262391 0.39975017 0.36052394

share_mlp.net.0.bias f4 [32]
000000 38 03 37 be 2b 81 99 be 78 90 b0 be 12 c4 04 3e
       -0.17872322 -0.2998136 -0.3448522 0.1296542
000010 ef d2 42 3e a4 18 d0 3d c2 f0 c6 be 7b 72 72 3c
       0.19025777 0.1016095 -0.3885556 0.014797802
000020 7d 8b e3 3e fe 04 0c be ca b7 a1 be 35 a6 90 3c
       0.4444236 -0.1367378 -0.31585532 0.017657379
000030 e1 b6 1f be 04 92 d4 3e 66 67 9b 3e e7 e2 50 3e
       -0.15597107 0.4151765 0.30352324 0.20399056
000040 72 ad 84 be a5 1a 87 3c 89 99 a9 3e b5 55 00 bf
       -0.25913578 0.016492197 0.3312495 -0.5013078
000050 3d 03 8f 3e 74 4d bf 3e 5c d6 03 3e 6a 04 92 3d
       0.27932158 0.3736378 0.1287474 0.07129748
000060 f8 c0 96 3c 92 c7 bd 3e 72 ca 89 be 22 a4 ad be
       0.018402562 0.37066323 -0.26912266 -0.33914286
000070 e3 a5 b8 bd 1b af bd 3e 6e 26 ea be 21 18 df 3d
       -0.090160154 0.37047657 -0.45732445 0.10893274

mean_mlp.net.0.weight f4 [8, 32]
000000 66 2d 87 bd ae d0 07 be ec 2d b9 3b 07 fd 55 3c
       -0.06600456 -0.13263199 0.0056512263 0.013060815
000010 66 cd 46 bc 97 b4 a3 3d 8e 58 f3 3d 09 ac 3d 3d
       -0.012133932 0.07993429 0.11882125 0.046306644
000020 c0 dc 9c 3d 02 c9 26 be 79 88 2b be c2 aa 17 3e
       0.07659292 -0.16287616 -0.16751279 0.14811233
000030 48 8f 11 be 7d 9b 73 bd 55 9f c8 bd 38 81 06 be
       -0.14214814 -0.059474457 -0.09796015 -0.1313523
000040 73 5a 58 bd 82 07 0e 3d 1e 58 a4 bc 2d ad 2a 3e
       -0.052820634 0.03467513 -0.020061549 0.16667624
000050 61 59 b0 bd cb 02 e9 bd 00 c6 23 3e c4 96 34 bd
       -0.08610798 -0.11377486 0.159935 -0.044089094
000060 42 ae 0d 3e 80 f1 09 3e 97 39 3b 3d d4 92 2c 3e
       0.13836005 0.13471031 0.04570922 0.16852885
000070 a5 e2 94 3d 9d 12 4a bd 31 b0 2f 3d 44 60 d2 bd
       0.072697915 -0.049334157 0.04289264 -0.102722675
000080 29 f5 af bc 18 47 f6 bd 5e 4e 1c be 4b 24 58 bd
       -0.021479206 -0.12025279 -0.1526427 -0.052768987
000090 80 09 62 3c 6c b2 1f 3a f8 08 dc bd 50 e2 f5 bd
       0.01379621 0.00060919556 -0.10743898 -0.12006056
0000a0 58 37 c6 3d fb 80 94 3d 86 41 17 be e7 30 b2 bd
       0.09678525 0.072511636 -0.14771089 -0.08700734
0000b0 43 5f 9d bd a6 94 2d bd 77 25 93 bd 27 08 28 3d
       -0.07684185 -0.04237809 -0.0718488 0.0410234
0000c0 47 31 2d 3e e6 4f 92 3d 36 63 09 be 31 5f 57 bc
       0.16913329 0.07144146 -0.13416752 -0.013145254
0000d0 a6 59 12 be 48 e4 94 bd ee a8 82 3d 65 dc d3 3b
       -0.1429201 -0.07270104 0.06379877 0.006465482
0000e0 41 ec 09 be 55 55 c1 3c e7 20 8a bd 20 59 1f be
       -0.1346903 0.02360026 -0.06744557 -0.15561342
0000f0 16 b5 b1 3d 8b ce 5c bd e6 03 2c 3d 5b f0 33 3d
       0.086771175 -0.053907912 0.041995905 0.043930393
000100 57 36 33 bd 4c d2 06 3e 04 26 27 be 7a dc 79 3c
       -0.043752994 0.1316616 -0.16323096 0.01525032
000110 24 eb 8c 3d c9 71 3e 3a 62 d9 fb 3d 3d 49 09 3e
       0.06880787 0.000726488 0.12297322 0.13406844
000120 8f f7 06 3e 5c 47 78 3d 9a f5 26 be d5 40 c0 3c
       0.13180374 0.06061493 -0.16304627 0.023468414
000130 69 77 71 3c 0c 87 03 3e 66 4e 16 be da 9e c4 bc
       0.014737942 0.12844485 -0.14678344 -0.024001528
000140 7b 35 52 3d b9 bf 22 3e f9 f5 f6 bc 26 d0 7d 3c
       0.051320534 0.15893449 -0.030146586 0.015491521
000150 00 d7 7f 3d cd 40 e0 3d 72 ff c7 ba 52 ee 06 bd
       0.0624609 0.1094986 -0.0015258624 -0.032942124
000160 b3 3d fc bd 0c 06 00 3e 36 a5 30 3e fe 9d 21 bd
       -0.12316456 0.12502307 0.17250523 -0.039457314
000170 36 49 52 3d 95 13 17 3c d1 96 af 3d 3e ef ca bc
       0.05133935 0.009220977 0.08573688 -0.024772283
000180 3d c7 21 be 69 bf 17 be 3e f8 d4 bd 1c 9d 8c bd
       -0.1579866 -0.14819111 -0.10398911 -0.06865904
000190 fa 8d 8c 3c 84 4e b5 3d 36 06 34 3e 42 ed 6d 3d
       0.017157543 0.08852866 0.17580494 0.058087595
0001a0 2c e2 11 bd 6d 6b 78 bd 34 28 37 bd f1 b4 13 3d
       -0.035616085 -0.060649324 -0.044716075 0.03606123
0001b0 7d 4b 47 3a cb 29 0f 3c eb 38 07 be 20 0a 03 be
       0.0007602496 0.008737992 -0.13205306 -0.12796831
0001c0 3e 5c 3b bd ba 8a fa bd 54 c8 10 3e c3 3a 53 3d
       -0.045742266 -0.12233491 0.14138919 0.05156971
0001d0 a6 89 be 3c 26 e9 0e 3e 66 38 0d 3c 30 46 19 3d
       0.023258995 0.13956127 0.0086194035 0.03742045
0001e0 cd 86 41 bd 6e 4f c6 bb bf 08 f2 3b eb 62 3d 3e
       -0.047247697 -0.006051949 0.0073862965 0.18494765
0001f0 84 eb f0 bd 52 d2 07 be e1 d1 7e bd e6 8a b8 bc
       -0.11763671 -0.13263825 -0.062211875 -0.02252717
000200 2d 7a 00 3e 68 a7 19 be 8a 6f b4 3d 94 d5 1e 3e
       0.12546606 -0.15005267 0.08810337 0.15511161
000210 51 42 e2 bc 1b 1d fa 3d b3 e0 81 3d 5e 7b 03 be
       -0.027619513 0.12212583 0.06341686 -0.1284003
000220 26 6d fc bd 70 5f 81 bd 4d 2d 34 3e 52 f6 fd bd
       -0.12325506 -0.063170314 0.17595406 -0.124004975
000230 38 19 ef 3d 9e d4 bf 3d c2 a9 18 be 84 32 1a 3e
       0.11674732 0.093667254 -0.14908507 0.15058333
000240 c8 02 cf bd 6e 1d 31 3d 62 d6 2d 3e 34 09 3e be
       -0.10107952 0.043240957 0.16976312 -0.18558198
000250 12 68 a3 bd 48 33 04 be 2e 47 79 3d 89 36 10 3d
       -0.07978834 -0.12910187 0.060858898 0.03520826
000260 09 e7 5e bd 6e b3 8c 3d 8d c1 94 3d 80 7f d0 bd
       -0.05441955 0.06870161 0.072634794 -0.10180569
000270 96 e3 a3 bd 3e 2d e4 3d f4 64 08 be ff 81 cd bd
       -0.08002393 0.11141442 -0.1331976 -0.100345604
000280 ad 0e 8e bd 29 c7 f9 3d 54 74 31 be 61 3f 23 3e
       -0.06936393 0.1219619 -0.17329532 0.15942146
000290 0a 38 75 bd 5b a8 33 3b 7b 39 37 bd d9 a5 02 bd
       -0.059867896 0.002741358 -0.044732552 -0.031896446
0002a0 6f 91 fa bd fc 6b 95 bd 1d 48 9b bc 68 f7 14 3e
       -0.122347705 -0.07295987 -0.018955285 0.14547503
0002b0 8a 45 f1 3c d2 c7 16 be 5c 2f 3f 3e d5 ec 37 3d
       0.029452104 -0.14724663 0.1867041 0.044903595
0002c0 8e b9 01 be b0 18 40 be 03 e3 67 bd 80 1a 10 3e
       -0.1266844 -0.18759418 -0.05661298 0.14072609
0002d0 08 8b 1b be 09 45 c3 3d aa 49 b9 bd 6c 09 ef 3d
       -0.15189755 0.09534652 -0.090472534 0.11671719
0002e0 40 78 96 3d 91 20 9f 3c fc 2c 19 3e a7 3c 9b 3c
       0.073471546 0.019424709 0.14958566 0.01894982
0002f0 65 b4 dc bb ea d6 d2 bd ea 76 08 be 9c 04 18 bd
       -0.006735372 -0.10294898 -0.13326612 -0.03711377
000300 a9 aa 1f 3e c1 b2 f1 3d 54 84 c1 3d f1 af 2f bd
       0.15592445 0.11801673 0.09449068 -0.0428924
000310 1f e8 06 bd 80 45 04 3e 3a f7 6c bd 0d be 18 3e
       -0.03293621 0.12917137 -0.05785296 0.14916249
000320 6f 74 5e bb 6f dd f9 bd 15 d3 74 3d 8c a0 e0 3d
       -0.0033943912 -0.12200438 0.059771616 0.10968122
000330 16 59 04 be 2f 7b 2e 3e f1 56 95 bd 9c 10 80 3b
       -0.12924609 0.17039178 -0.072919734 0.00390823
000340 49 23 f5 3d 88 9b fa 3d 26 99 8a 3d 3f ad ba bd
       0.11969621 0.122366965 0.06767492 -0.09115075
000350 66 7b 26 3e 55 51 01 3e ad b9 29 3e 3e be 8c 3d
       0.1625801 0.12628682 0.16574736 0.06872223
000360 31 10 3b 3d 83 42 e3 3d f0 77 06 3d 6b 3d 0f 3e
       0.04566974 0.110966705 0.032829225 0.13988273
000370 66 98 c1 bd ce 62 bf 3c 47 4e 23 be 5d 6a c9 bd
       -0.09452896 0.023362543 -0.15947829 -0.0983474
000380 47 c9 ca 3d 3a 0c bd 3c c9 3b c6 bc 40 79 a4 bd
       0.09901672 0.02307712 -0.02419843 -0.08030939
000390 43 2a 90 3d 7a 4f 96 bd 98 36 90 3d a2 d5 7e 3d
       0.07039311 -0.07339378 0.07041663 0.062215455
0003a0 81 1e c5 bd ef c5 21 bc 64 c2 dc bd a7 70 83 3d
       -0.09624959 -0.009873851 -0.107792646 0.06417971
0003b0 00 3b ed 3c 95 0e d0 3d dc fa 7d 3d 33 13 10 3e
       0.028958797 0.10159031 0.062006816 0.14069824
0003c0 38 8b 48 bd 24 b2 51 be 4f 1e ec 39 e4 1e c8 bc
       -0.048960894 -0.20478112 0.0004503601 -0.024428792
0003d0 7a 04 23 3e 7e 6b cc 3d ce 4f 1a 3e 44 c7 d9 3c
       0.15919676 0.0998144 0.15069506 0.026584275
0003e0 a0 40 aa 3c 73 ed 14 3e 7f d7 82 bd c8 fe be 3d
       0.020782769 0.14543705 -0.06388759 0.093259394
0003f0 45 54 02 bd ca d0 e3 3d 63 7c 05 3e 0d d5 f6 3d
       -0.031818647 0.11123808 0.13035731 0.12052355

mean_mlp.net.0.bias f4 [8]
000000 21 f9 91 3d 34 bc 6f bd 9e b0 2c bd c9 1a 92 3d
       0.07127596 -0.058529094 -0.042160623 0.07134015
000010 e2 db 0e 3e 87 63 00 3e ce 04 6f bd e6 fb ec bb
       0.13951066 0.12537967 -0.05835419 -0.007232177

mean_mlp.net.2.weight f4 [2, 8]
000000 95 26 a3 be 5e 2a 3d 3e 1e d1 8c be 36 a1 8b be
       -0.31865373 0.18473193 -0.27503294 -0.27271432
000010 71 f4 20 3e 65 9d 57 3e f9 56 b3 3e 36 13 ac 3e
       0.15718247 0.21056135 0.35027292 0.33608407
000020 21 0f 57 be 51 e5 a7 3e 7c b6 a3 3e f9 a3 a5 bd
       -0.21001865 0.32792142 0.31975162 -0.08087916
000030 4e 88 be 3d 6e 15 74 3e 9d 65 03 3e cf f3 50 be
       0.09303342 0.238363 0.12831731 -0.20405506

mean_mlp.net.2.bias f4 [2]
000000 45 68 66 be fb 2e 96 3c
       -0.22500713 0.018332949

logvar_mlp.net.0.weight f4 [8, 32]
000000 54 58 d3 bd de f8 34 be 32 5d 46 be b7 a6 65 bc
       -0.10319582 -0.1767306 -0.19371489 -0.014016799
000010 d2 9c 67 bd d0 0f d6 3d 0c 00 c8 3d f5 20 8e bd
       -0.05654604 0.10452235 0.09765634 -0.0693988
000020 be f4 c9 bd f0 0f bb 3d e0 58 d1 bd ba cb c7 bc
       -0.09861134 0.09133899 -0.1022203 -0.024389137
000030 a8 1c f9 bd d6 59 18 3e 58 15 4b bd f7 4b 85 3d
       -0.12163669 0.1487802 -0.0495809 0.0650863
000040 f0 62 fe 3c 95 20 d9 bd ae 6c cd bc 8f 08 0d be
       0.031053036 -0.10601918 -0.025076237 -0.13772796
000050 31 a6 91 3d cc 7e 20 be 09 30 f9 bd 41 bc c4 bd
       0.071117766 -0.15673369 -0.12167365 -0.09606219
000060 b5 f5 b4 3d a7 af 22 3e de 30 ae bd f5 20 ee bd
       0.088359274 0.15887319 -0.085054144 -0.1162738
000070 63 91 59 3d bb 5a e2 bd 2e a3 1a be 29 15 25 bd
       0.053117167 -0.11052462 -0.1510131 -0.040303383
000080 9d 2f 22 3c 32 78 cb bd 2d 19 31 be 71 83 4e bc
       0.009899047 -0.09935035 -0.1729476 -0.01260458
000090 8d ca e7 bd f8 69 f0 bd e9 ca 2f 3d 27 55 0e 3d
       -0.1131793 -0.11738962 0.04291812 0.034749176
0000a0 33 dd a3 bd f7 45 b9 bd 4d bc 6e 3d 07 ab b3 3d
       -0.08001175 -0.09046548 0.058285046 0.08772855
0000b0 9f c2 15 be 50 44 14 3d 6a 44 1f be 45 4e cb bc
       -0.14625023 0.03619796 -0.15553442 -0.024817595
0000c0 ed cc a6 3d e9 58 f2 3d 06 c9 e2 3d 02 1c 67 bd
       0.08144555 0.118333645 0.110734984 -0.056423195
0000d0 d5 59 d1 bd f0 d4 4d 3d dc 04 1c 3e f3 1a 1f 3e
       -0.10222212 0.0502519 0.15236229 0.15537624
0000e0 59 df cf 3d 5e e0 34 be f1 37 13 3e 6b c9 a7 3d
       0.10150022 -0.17663714 0.14376809 0.08192714
0000f0 c4 e0 2b be e6 ca 22 3e aa 4a 50 3c d5 9b 32 3e
       -0.1678496 0.15897712 0.012713114 0.17442258
000100 73 00 b8 bd 01 17 0e be a2 8b e0 3d 0a 66 19 bd
       -0.08984461 -0.13875963 0.10964133 -0.037450828
000110 80 1a 06 3e 04 76 cd bd 51 8f ac 3d 81 a9 f7 3d
       0.13096046 -0.10032275 0.08425773 0.12092877
000120 e8 c7 88 bd 64 f1 ed 3d e8 a7 d7 bd 32 59 48 bd
       -0.06678754 0.11618307 -0.105300725 -0.04891319
000130 81 81 79 3c 20 ee 89 bd 72 d2 81 3d be 9d 39 3d
       0.01522863 -0.06734872 0.063389674 0.04531645
000140 3f 84 ab 3d 3c c1 ff bd 6d 2e ac bd c9 7c ab bd
       0.08374833 -0.124880284 -0.084072925 -0.0837341
000150 18 54 d0 bd 6f 00 33 bd a6 2a 0b be 1d ad d3 3d
       -0.101722896 -0.043701585 -0.13590488 0.10335753
000160 88 23 b2 bc de 45 91 3d a5 e4 06 be d2 ca 08 bd
       -0.021745458 0.07093404 -0.13173158 -0.03339655
000170 8b 82 a3 3d 44 4f b6 3d 17 5a 1b 3e a8 96 f4 bb
       0.079838835 0.089018375 0.15171085 -0.0074642487
000180 88 ee e4 bd 53 a3 22 be 03 71 f5 bc ac ec 3f 3d
       -0.11178309 -0.15882616 -0.029961115 0.046856567
000190 e4 c9 05 bc 09 08 aa 3d e7 cd 19 bd d8 cd c6 3d
       -0.00816581 0.08302314 -0.03754988 0.0970723
0001a0 f1 05 f1 3d 10 c2 b1 3d c3 00 c9 3d 55 f5 0e 3e
       0.11768711 0.086795926 0.098145984 0.13960774
0001b0 9f f8 a9 3d 3b 45 0a be 1e 19 78 3c f9 41 62 3d
       0.08299374 -0.13502972 0.015142707 0.055238698
0001c0 74 ed e9 3d 47 dc 20 bc 96 67 99 3d 9f 3b 15 3e
       0.11422244 -0.009818143 0.074904606 0.14573525
0001d0 b4 d0 6b bd 68 99 37 be da b6 d0 bd f3 0f 45 bd
       -0.05757208 -0.17929614 -0.10191126 -0.048110913
0001e0 46 58 8e 3d 2d 62 c9 bc 87 cd 23 be 8b cd 14 be
       0.069504306 -0.024582947 -0.15996371 -0.14531533
0001f0 56 fd 20 bd 1b dc 2d bb 37 1b cc 3d b1 29 1b 3e
       -0.0393041 -0.0026528898 0.09966128 0.15152623
000200 0c 88 ab 3d bd 89 d5 bd 12 2a 21 3d f2 38 cb bd
       0.08375558 -0.10426662 0.039346762 -0.09922971
000210 4d 4b 0e bd 11 bc e7 3a 47 bc 51 3d b6 27 04 bc
       -0.03473978 0.001767995 0.051204946 -0.008066108
000220 07 da 19 be 89 e3 81 3d 08 25 78 3c 36 23 58 3d
       -0.15024577 0.06342227 0.015145548 0.052767955
000230 b1 87 f8 3c 37 05 95 3d a5 5f 78 3d aa ca 98 bb
       0.03033814 0.07276385 0.06063809 -0.0046628313
000240 3f 88 e0 3c 1c 54 d9 3c 62 8b d3 3d 2e 72 9d 3b
       0.027408717 0.026529364 0.103293195 0.004804871
000250 7b aa 21 be 0d fe ca bd 94 b2 d3 bd 9a 9a 93 bd
       -0.1578769 -0.099117376 -0.103367954 -0.07207222
000260 6f 49 c2 3d d9 9c ee bc 09 6c 44 bd 12 42 fa bd
       0.094866626 -0.029127525 -0.047954593 -0.12219633
000270 11 71 0a 3e cf ff 25 3d 6f 07 72 3d 06 6f 49 bd
       0.13519694 0.04052716 0.05908912 -0.049178146
000280 59 00 08 be 54 8e a5 3c 61 c0 1b 3d c2 d7 09 be
       -0.13281383 0.020209469 0.038025264 -0.13461211
000290 b3 00 32 3d 25 6e c8 3c 93 58 3e be d7 ca a6 3d
       0.043457698 0.024466584 -0.18588476 0.081441574
0002a0 96 ce e9 bc 8a e3 fe bd e7 8a e5 bc ef 0f c2 3d
       -0.02854089 -0.124457434 -0.028020335 0.09475695
0002b0 73 d9 4a 3d 57 ea 08 be 2b 5e b6 3d 6a 92 0f be
       0.049523782 -0.13370644 0.0890468 -0.14020696
0002c0 97 9f 9e 3d 7d 44 a7 3c 52 93 29 3e 36 8a 3e 3d
       0.07745283 0.0204184 0.16560104 0.046518527
0002d0 e0 44 0d 3e 9c 40 b9 3d bb f2 4e 3d 40 f1 4c be
       0.13795805 0.090455264 0.050524455 -0.20013905
0002e0 92 56 08 3e b5 33 fa bd a0 f6 62 3d cf 42 37 be
       0.13314274 -0.122168936 0.05541098 -0.17896579
0002f0 ab 1b 5e bc e4 e2 6b 3c e1 bd a6 3d 43 b1 4c 3e
       -0.013556401 0.014397357 0.08141685 0.19989495
000300 2c 99 24 be 70 11 dc bd b9 ba 3f 3d 58 a8 30 be
       -0.16074055 -0.107455134 0.046808932 -0.17251718
000310 4b 9e 24 3e ff 41 8a 3d 6e 98 c2 bd 60 a8 bd 3d
       0.16076009 0.06750869 -0.0950173 0.092606306
000320 74 c5 35 3e 08 08 cf bd cb 98 41 bd 0a 41 6d 3c
       0.17751104 -0.10108954 -0.047264855 0.014480839
000330 c8 d4 1e 3e b8 24 f1 bd 08 4f 62 bd be 31 cf 3c
       0.15510857 -0.11774582 -0.05525115 0.025292274
000340 d2 5b 32 bd 53 41 2b be ef 33 a9 3d 1e 94 2a be
       -0.043544598 -0.16724138 0.08261859 -0.16658065
000350 8c 7f a8 bc a9 ea d2 3d 18 28 e6 bc 48 e0 fa bc
       -0.020568632 0.10298664 -0.02809529 -0.030624524
000360 6a 79 7e bc 55 ae f4 bd 9d 82 88 bd 5e 87 9f 3d
       -0.015531877 -0.11947314 -0.066655375 0.07789491
000370 6b 95 70 3c e7 b0 64 3d ad e1 29 3d 17 50 1d 3e
       0.0146840615 0.05583277 0.041474987 0.15362583
000380 1c 2a 41 bd 7d ae 18 bd f5 3b 9d bd 32 2e b0 3d
       -0.0471593 -0.03727578 -0.076774515 0.08602561
000390 b5 6e 38 3d d6 b2 50 3e 7b 82 cf bd 82 15 0e be
       0.045027453 0.2038072 -0.10132309 -0.13875392
0003a0 f5 84 06 be 6f 96 26 be 1c 8c b3 bd c4 52 8e bd
       -0.13136657 -0.16268323 -0.08766958 -0.0694938
0003b0 2e 51 b0 3c db 38 2d 3c 3e e2 85 3c 04 b8 14 3e
       0.021523084 0.010572637 0.016343232 0.14523321
0003c0 cc 2d 84 3d 62 54 1a be 5b 54 0b be 00 9f ae bd
       0.064540476 -0.15071252 -0.13606398 -0.085264206
0003d0 3b 47 16 3e fb ed 80 bb 1c d5 ef bd 82 b5 84 bd
       0.1467561 -0.0039346195 -0.11710569 -0.06479932
0003e0 3b 45 ae bd 65 55 37 bd 0e 9d 91 bc b6 41 ca 3d
       -0.085092984 -0.044759173 -0.017775085 0.098758146
0003f0 b1 ed c0 3a ea cf 44 bd 40 7f 13 3e d4 6f cd bd
       0.0014719275 -0.048049845 0.14404011 -0.10031095

logvar_mlp.net.0.bias f4 [8]
000000 1b 33 25 be e9 9e 09 3e 37 26 30 bd 27 7a 9b bd
       -0.16132776 0.13439526 -0.043005195 -0.07591658
000010 41 10 a8 3d da 5a 5d bd 53 bf 0f be 8a a7 9d 3c
       0.08206225 -0.05404172 -0.14037828 0.019244928

logvar_mlp.net.2.weight f4 [2, 8]
000000 2a 65 05 be 4d 6a 8f 3e c1 2c 9f 3e f5 55 40 3e
       -0.13026872 0.2801079 0.31088832 0.1878279
000010 02 28 41 bd 14 61 0f be 73 d2 df bd c0 5d 97 3d
       -0.047157295 -0.14001876 -0.10928812 0.07390928
000020 e4 cf 7f be 7a 0e 51 be c2 11 21 3b 8c c0 9b be
       -0.24981648 -0.20415679 0.0024577235 -0.3042034
000030 1c d0 3c 3e 84 c3 33 bd c0 bd ba 3d a1 5b 32 3c
       0.18438762 -0.04388763 0.09118223 0.010886104

logvar_mlp.net.2.bias f4 [2]
000000 48 40 46 3d 4a 71 89 bd
       0.048401147 -0.06711061
