models/cartpole/adjoint.pth (torch, 9984 bytes, 8 tensors)

net.0.weight f4 [16, 4]
0.032630187 -0.34377006 -0.3737097 0.22026396 0.22596999 -0.41189978 0.43742657 0.40806985
0.3010676 0.1803937 0.54468316 0.07117455 0.057985358 -0.4371812 -0.020837896 -0.44006488
0.32788086 -0.09856764 -0.16041234 -0.1363278 0.009246719 -0.48024243 -0.1834888 0.12836398
0.06271365 0.28148577 -0.41073033 0.16039522 -0.28529352 -0.47469482 0.093657844 0.43277833
0.060887758 -0.21300848 0.368143 -0.32656887 -0.21112695 0.20205012 0.49725547 0.4940885
-0.2558268 0.2513023 -0.27771002 -0.08172566 -0.02687894 0.24241698 0.15032311 -0.0835682
0.32568857 -0.17122558 0.6342744 0.3238997 0.12204426 -0.11878788 0.2117447 -0.38669094
-0.33071044 0.09453142 -0.054239012 -0.22929554 0.41746068 0.1041644 0.28856677 0.031733938
00000000: 3ba7 053d a102 b0be e156 bfbe e08c 613e
00000010: ad64 673e 87e4 d2be 60f6 df3e 88ee d03e
00000020: 8825 9a3e 20b9 383e 5b70 0b3f f6c3 913d
00000030: 0e82 6d3d 37d6 dfbe 3cb4 aabc 2f50 e1be
00000040: 00e0 a73e d5dd c9bd 2243 24be 8499 0bbe
00000050: 8d7f 173c 56e2 f5be 7de4 3bbe d971 033e
00000060: 0470 803d e71e 903e 3f4b d2be a53e 243e
00000070: fe11 92be 330b f3be afcf bf3d 1f95 dd3e
00000080: 7165 793d e51e 5abe 3d7d bc3e 0934 a7be
00000090: aa31 58be 3ae6 4e3e 4598 fe3e 2bf9 fc3e
000000a0: bbfb 82be b2aa 803e 0230 8ebe c85f a7bd
000000b0: 3931 dcbc 283c 783e 4dee 193e ce25 abbd
000000c0: a7c0 a63e c255 2fbe cf5f 223f 2ed6 a53e
000000d0: 57f2 f93d 0f47 f3bd 9ad3 583e 5bfc c5be
000000e0: e152 a9be b099 c13d ba29 5ebd 73cc 6abe
000000f0: 68bd d53e 2554 d53d 06bf 933e 72fb 013d

net.0.bias f4 [16]
-0.40181684 0.4323723 -0.13813427 0.41673094 -0.46105316 -0.07681006 -0.0947467 0.105642095
-0.119902186 0.37120563 0.033989742 -0.002654051 -0.29226837 0.2754278 -0.03654898 -0.0070888367
00000000: f0ba cdbe e75f dd3e 1273 0dbe c25d d53e
00000010: 290f ecbe 984e 9dbd 8f0a c2bd e25a d83d
00000020: 478f f5bd aa0e be3e d438 0b3d 96ef 2dbb
00000030: 33a4 95be df04 8d3e 62b4 15bd 7949 e8bb

net.2.weight f4 [32, 16]
-0.18259194 -0.1443848 0.1275299 -0.24341004 0.15750705 -0.12988462 -0.14442259 -0.2381617
0.30151132 -0.04015053 0.06203973 -0.15511665 -0.0678818 0.14990507 0.23867306 -0.016882118
-0.1962472 -0.20197657 -0.08385845 0.17827527 -0.037821542 -0.17073144 -0.09769462 -0.029254626
-0.12063817 -0.05716682 -0.1205584 -0.059365846 0.04052055 0.100958005 0.13926396 -0.006108557
-0.08221117 0.18101753 -0.22358043 -0.11121203 0.1477049 0.19520116 0.25580436 -0.08825357
0.079299256 -0.09440658 -0.10611234 0.13945311 0.026244702 0.04104116 0.046708707 -0.12488687
-0.07286127 0.13556397 0.031684883 0.16811976 -0.11511439 -0.039744884 0.06970405 0.008059462
-0.18711202 0.20127043 0.17139746 0.06312339 -0.00028456512 0.1950325 0.054369543 0.109580375
0.08381512 -0.07983598 -0.05052089 0.008434132 0.021302965 0.22831579 -0.090015456 -0.21581888
-0.06591488 0.14794129 0.01903087 -0.15636817 -0.010873688 0.07918256 0.20366602 -0.021777237
-0.21368824 0.09153239 -0.10341509 0.17709576 0.039079953 0.14561743 0.039807275 0.13212436
-0.10657068 0.17938514 0.20403594 0.18423685 -0.19747847 0.013320848 -0.04985999 0.031277698
-0.14642757 0.1755648 0.055802736 -0.23250294 -0.063208655 0.17451112 -0.20749536 -0.18652737
0.22840418 -0.13302986 0.040039226 -0.04213832 -0.15350288 -0.0164689 0.09240658 0.22649415
-0.15075567 0.041942373 0.2487342 -0.03780818 0.13339365 0.06006241 0.04177991 0.024207361
0.051679954 -0.086864 -0.16116337 -0.055600915 0.22026646 0.11688978 -0.1441155 0.20426655
-0.049061283 -0.20030564 0.10655153 0.11331746 0.24627244 0.09917854 0.07238133 -0.16772847
0.022832872 0.22461252 -0.11717355 -0.20592181 -0.0075202077 -0.26566905 0.063254274 -0.12262534
-0.057044696 -0.043837626 0.17547397 0.1795769 0.11384417 -0.11427972 0.04846941 -0.11901359
0.15419519 -0.0015289852 -0.076320335 0.039117448 -0.23434144 0.19966581 -0.21291032 -0.16275908
0.01604909 0.059600353 0.116792575 -0.12588792 -0.15769276 -0.07643667 -0.06916763 0.25069818
-0.25437093 0.085455 0.22042507 -0.018235924 0.21760021 -0.023466548 -0.15541925 0.094959065
-0.017646203 0.058944013 0.043020703 -0.075249694 -0.19743024 -0.18856435 -0.04144573 0.084906965
-0.07363357 -0.14838551 0.19529183 -0.042373892 -0.14600869 -0.016116276 -0.2125262 0.05008471
0.005957515 0.057153907 0.22713381 0.18229401 0.20153055 0.0582041 -0.029017093 0.15624346
-0.019334428 -0.09516322 -0.05362313 0.20793627 -0.069282845 -0.056664083 -0.23356026 0.054422103
-0.22747311 -0.08893879 0.10159642 0.23369588 0.22169006 -0.12086271 0.16132398 -0.00066546357
0.095471114 -0.137773 -0.16141842 -0.1979998 -0.26406327 -0.20068383 0.2193082 -0.11977338
-0.11060796 0.13679451 -0.10568805 -0.0649444 -0.13989209 -0.12990947 0.028989332 0.17621118
-0.1917382 0.06934073 -0.21539298 -0.13974845 -0.21004356 -0.19251202 -0.2041738 0.07049608
-0.157234 -0.056153525 0.2603339 -0.08916305 -0.17878696 -0.2200884 0.124347776 -0.2632143
-0.12894176 -0.078986235 -0.06331903 0.04545992 0.08977251 0.115303524 -0.020412423 0.09773334
00000000: 62f9 3abe 9cd9 13be 3397 023e 7b40 79be
00000010: 8749 213e 7900 05be 84e3 13be a9e0 73be
00000020: b15f 9a3e e274 24bd 5f1d 7e3d e6d6 1ebe
00000030: 9d05 8bbd b780 193e b666 743e 5e4c 8abc
00000040: 07f5 48be f2d2 4ebe fbbd abbd cb8d 363e
00000050: c3ea 1abd 39d4 2ebe 1e14 c8bd 66a7 efbc
00000060: 2511 f7bd c127 6abd 53e7 f6bd 9a29 73bd
00000070: e0f8 253d 12c3 ce3d 369b 0e3e 4a2a c8bb
00000080: 545e a8bd a95c 393e 45f2 64be 22c3 e3bd
00000090: f43f 173e d0e2 473e caf8 823e 4abe b4bd
000000a0: a667 a23d 3d58 c1bd 6d51 d9bd cccc 0e3e
000000b0: 21ff d63c c61a 283d a151 3f3d b0c4 ffbd
000000c0: 4a38 95bd 48d1 0a3e 02c8 013d 9627 2c3e
000000d0: 18c1 ebbd 88cb 22bd ffc0 8e3d d50b 043c
000000e0: 4b9a 3fbe d619 4e3e d182 2f3e d646 813d
000000f0: af31 95b9 9ab6 473e 99b2 5e3d ad6b e03d
00000100: 43a7 ab3d 0c81 a3bd feee 4ebd 502f 0a3c
00000110: 8e83 ae3c 9dcb 693e 065a b8bd a0ff 5cbe
00000120: 61fe 86bd ec7d 173e a1e6 9b3c fa1e 20be
00000130: 8e27 32bc 772a a23d d38d 503e 2d66 b2bc
00000140: 17d1 5abe 5575 bb3d 4acb d3bd 9758 353e
00000150: 4d12 203d bc1c 153e f40c 233d 9c4b 073e
00000160: bb41 dabd bdb0 373e ccee 503e 96a8 3c3e
00000170: cc37 4abe b03f 5a3c fd39 4cbd 0b1d 003d
00000180: 1cf1 15be 42c7 333e 6991 643d 4015 6ebe
00000190: 8a73 81bd 0bb3 323e aa79 54be 0801 3fbe
000001a0: c9e2 693e fb38 08be 2c00 243d 3b99 2cbd
000001b0: dc2f 1dbe c9e9 86bc a93f bd3d 15ee 673e
000001c0: b25f 1abe c4cb 2b3d 2eb4 7e3e c0dc 1abd
000001d0: 5898 083e 0004 763d 6921 2b3d 844e c63c
000001e0: 5cae 533d c1e5 b1bd 0308 25be c9bd 63bd
000001f0: 888d 613e e963 ef3d 0393 13be 402b 513e
00000200: 7cf4 48bd ec1c 4dbe b037 da3d fc12 e83d
00000210: d82e 7c3e 1e1e cb3d aa3c 943d 03c1 2bbe
00000220: 010c bb3c d300 663e b0f8 efbd 2bdd 52be
00000230: 136c f6bb c605 88be 758b 813d ff22 fbbd
00000240: b3a7 69bd 158f 33bd 73af 333e 02e3 373e
00000250: 2227 e93d 7c0b eabd dc87 463d 66bd f3bd
00000260: 58e5 1d3e 3b68 c8ba d64d 9cbd 9e39 203d
00000270: 34f7 6fbe 3275 4c3e 2a05 5abe 51aa 26be
00000280: 6279 833c 801f 743d f230 ef3d c3e8 00be
00000290: 367a 21be d48a 9cbd c2a7 8dbd 835b 803e
000002a0: e83c 82be 0803 af3d 1cb7 613e 8163 95bc
000002b0: 97d2 5e3e eb3c c0bc 3926 1fbe e679 c23d
000002c0: c58e 90bc 476f 713d 7a36 303d 831c 9abd
000002d0: 272b 4abe 0317 41be ffc2 29bd b4e3 ad3d
000002e0: 32cd 96bd 5ff2 17be 95fa 473e 3f90 2dbd
000002f0: 4d83 15be 4806 84bc 78a0 59be a025 4d3d
00000300: 4237 c33b 371a 6a3d c495 683e 48ab 3a3e
00000310: 065e 4e3e 6c67 6e3d 41b5 edbc 49fe 1f3e
00000320: 3c63 9ebc efe4 c2bd eda3 5bbd 3fed 543e
00000330: 2ae4 8dbd 9918 68bd 6c2a 6fbe b6e9 5e3d
00000340: b6ee 68be 8a25 b6bd c911 d03d f94d 6f3e
00000350: b802 633e de86 f7bd 1d32 253e 8172 2eba
00000360: 5c86 c33d 5e14 0dbe df4a 25be 76c0 4abe
00000370: 4d33 87be 1080 4dbe 5492 603e bf4b f5bd
00000380: 6d86 e2bd dc13 0c3e fa72 d8bd 9201 85bd
00000390: df3f 0fbe fd06 05be 097b ed3c b470 343e
000003a0: 0557 44be 8302 8e3d fa8f 5cbe 381a 0fbe
000003b0: a915 57be df21 45be f012 51be 4060 903d
000003c0: f301 21be 3d01 66bd 7c4a 853e 1e9b b6bd
000003d0: ee13 37be db5e 61be 0caa fe3d 06c4 86be
000003e0: 4f09 04be 89c3 a1bd 68ad 81bd 2e34 3a3d
000003f0: a6da b73d 4124 ec3d f437 a7bc 6b28 c83d

net.2.bias f4 [32]
0.1935895 0.018657643 -0.14480843 0.16123824 0.20433034 -0.030799614 -0.19685991 -0.19653657
-0.16066878 -0.24165861 0.067762166 0.17574504 -0.026309837 -0.20565873 -0.22593583 0.12666275
-0.13409236 -0.1622634 -0.15381086 -0.34885868 -0.035194207 0.020888025 0.07266345 0.15041846
-0.20291266 0.1326848 0.12947659 -0.02273351 0.1496429 0.19029343 0.14161596 0.0015262811
00000000: 533c 463e ead7 983c a948 14be a31b 253e
00000010: f93b 513e 794f fcbc a595 49be e240 49be
00000020: 5b86 24be 5b75 77be e4c6 8a3d 82f6 333e
00000030: ba87 d7bc 3498 52be b95b 67be e1b3 013e
00000040: 824f 09be 6028 26be 9880 1dbe 9b9d b2be
00000050: cd27 10bd 5d1d ab3c 93d0 943d 4c07 1a3e
00000060: 56c8 4fbe 86de 073e 8395 043e a03b babc
00000070: fd3b 193e 48dc 423e c603 113e 7f0d c83a

net.4.weight f4 [32, 32]
0.13628998 -0.029915888 -0.07085813 -0.116470866 -0.0029633085 0.015640318 -0.13408387 0.06885863
0.10417058 -0.14166002 -0.14202829 0.08601434 -0.026964584 -0.13634092 0.10469382 0.122275874
0.035712156 -0.08839951 -0.14162916 0.112507485 0.114678435 -0.065826595 0.020227047 -0.078068785
0.15852642 -0.028199561 -0.09090979 0.1091078 0.015834823 0.13082024 -0.074514285 0.11173846
-0.099702165 0.03147923 -0.1561142 0.07251452 0.11501554 0.14696127 -0.10980169 0.15263228
-0.09852845 0.016639266 -0.11623174 0.16875981 0.15269798 -0.12956311 -0.14991006 0.118159644
-0.1881819 -0.14716324 0.026317505 0.0038062846 -0.31036064 0.07760008 0.13853352 -0.11774185
-0.18407582 0.07892002 0.115218066 -0.16252714 0.091830984 0.10926492 0.12034421 0.1403497
0.08647658 -0.08027008 -0.12293314 0.14991042 0.16207631 -0.15877667 0.036318544 -0.036430392
0.07497337 -0.15499574 0.083201274 -0.020629315 -0.026322978 -0.13801783 0.032343283 -0.13158941
0.01832209 0.12884428 -0.0072130365 0.05366048 0.2969017 -0.17748612 -0.15999256 0.09782293
0.006981656 -0.1741746 0.09608235 0.054700896 -0.06324756 0.0132298665 -0.16017617 0.092624724
0.06380589 0.14137523 0.03088346 -0.04259045 0.15415813 0.095686026 0.040804632 0.045069754
-0.15695429 0.23391137 -0.14206743 0.1118267 -0.055858754 -0.033461977 0.059684332 0.10292709
0.027597513 -0.16182567 -0.12380416 0.28454575 -0.11276567 -0.15521188 0.12170423 0.061188925
-0.14868732 0.14048067 0.014642546 -0.1669514 0.110450745 -0.13527775 -0.13565658 -0.09766332
0.040815257 0.10713659 -0.068490915 0.13768077 -0.16083974 0.12365696 0.13979395 -0.0078017707
-0.040068276 -0.085188285 -0.12923826 -0.11280114 -0.011711054 -0.060135636 0.0498644 0.16904233
0.026877794 -0.12754576 0.049544767 0.15824808 -0.2517116 -0.14356492 -0.12537976 0.16098641
-0.00041957948 -0.15746954 0.001305433 0.18385676 0.10417606 -0.02686647 0.15322764 -0.15020597
-0.06661693 0.05923378 0.100175075 0.13284469 -0.009949322 0.11525023 0.08953183 0.18467122
-0.15061943 0.055755276 -0.17130935 0.114896044 -0.018211847 -0.09717041 0.08298637 -0.1564386
-0.10381067 0.060272735 -0.04331441 -0.21776223 -0.025186732 0.027060743 -0.079233944 0.027794844
0.07636271 0.066822425 -0.0684663 0.12620877 -0.13720025 0.03855311 0.03490875 -0.13507777
0.03909857 -0.051877435 -0.1543492 -0.03352559 -0.086636946 0.15880308 -0.03160367 -0.1003084
0.061319795 0.18387929 -0.014132259 -0.09015137 -0.07976349 -0.02559084 0.06813792 0.16716331
-0.124948494 -0.059844755 -0.20992303 0.22010103 -0.16105536 0.01748919 0.1186324 -0.12062705
0.10081647 -0.061970685 -0.15016362 0.036698885 0.010186723 0.14928447 -0.048029672 -0.15544046
0.050720196 0.1099645 -0.101718135 -0.1665445 -0.19449843 -0.063111305 0.14746426 0.21692255
0.076213695 0.10709111 -0.017451081 -0.0977569 -0.05743006 0.11908594 -0.064880505 -0.12441991
0.06631775 0.063597575 0.040236637 0.2109455 -0.09061289 0.037235018 -0.06668423 -0.2257673
0.13133647 -0.051706553 0.10558958 0.030556038 0.01608874 -0.15466444 -0.101881035 -0.06989803
00000000: 9a8f 0b3e 2a12 f5bc 111e 91bd 4788 eebd
00000010: 1134 42bb 2020 803c 484d 09be c105 8d3d
00000020: 6357 d53d 530f 11be dd6f 11be 4928 b03d
00000030: d5e4 dcbc f49c 0bbe b769 d63d c66b fa3d
00000040: e946 123d cd0a b5bd 3c07 11be 536a e63d
00000050: 87dc ea3d 18d0 86bd 31b3 a53c 87e2 9fbd
00000060: c054 223e c402 e7bc e92e babd e973 df3d
00000070: 08b8 813c bef5 053e f29a 98bd 22d7 e43d
00000080: a630 ccbd 5df0 003d 67dc 1fbe 7e82 943d
00000090: 448d eb3d 047d 163e b5df e0bd a34b 1c3e
000000a0: 49c9 c9bd 124f 883c e80a eebd 5fcf 2c3e
000000b0: dc5c 1c3e 31ac 04be 0682 19be affd f13d
000000c0: c2b2 40be f6b1 16be cf97 d73c dc72 793b
000000d0: 97e7 9ebe caec 9e3d bbdb 0d3e a422 f1bd
000000e0: 5f7e 3cbe d2a0 a13d 73f7 eb3d 846d 26be
000000f0: e211 bc3d 49c6 df3d 0677 f63d d5b7 0f3e
00000100: a21a b13d a464 a4bd 5fc4 fbbd 1e82 193e
00000110: 55f7 253e 5a96 22be c1c2 143d 0938 15bd
00000120: a38b 993d 34b7 1ebe 6e65 aa3d cffe a8bc
00000130: 49a3 d7bc 8c54 0dbe 647a 043d 60bf 06be
00000140: 3518 963c c1ef 033e 565b ecbb 17cb 5b3d
00000150: 8003 983e ecbe 35be 17d5 23be 6357 c83d
00000160: 60c6 e43b d45a 32be d3c6 c43d 0c0e 603d
00000170: f087 81bd 15c2 583c 3905 24be 08b2 bd3d
00000180: aaac 823d abc4 103e 4fff fc3c 5373 2ebd
00000190: a1db 1d3e 09f7 c33d c222 273d 109b 383d
000001a0: a0b8 20be 7686 6f3e 207a 11be 6605 e53d
000001b0: 26cc 64bd 6d0f 09bd 8f77 743d 70cb d23d
000001c0: 2e14 e23c a1b5 25be 098d fdbd fbaf 913e
000001d0: b0f1 e6bd ddef 1ebe 1140 f93d 3da1 7a3d
000001e0: 7d41 18be 2ada 0f3e 4ae7 6f3c 4ff5 2abe
000001f0: 0034 e23d 4086 0abe 8fe9 0abe b503 c8bd
00000200: e62d 273d 6e6a db3d f744 8cbd 30fc 0c3e
00000210: 2cb3 24be dc3f fd3d 2526 0f3e ffa5 ffbb
00000220: a21e 24bd 3277 aebd 0957 04be 4904 e7bd
00000230: b8df 3fbc c950 76bd 9d3e 4c3d 6f19 2d3e
00000240: d22e dc3c 5b9b 02be 74ef 4a3d c90b 223e
00000250: 58e0 80be af02 13be 8d63 00be 9fd9 243e
00000260: 01fb dbb9 b23f 21be 101b ab3a f244 3c3e
00000270: 425a d53d 1217 dcbc b5e7 1c3e 98cf 19be
00000280: 756e 88bd 1f9f 723d 9728 cd3d 7008 083e
00000290: 7b02 23bc 5008 ec3d 775c b73d 741a 3d3e
000002a0: fb3b 1abe a55f 643d b86b 2fbe 9e4e eb3d
000002b0: 0331 95bc 4801 c7bd c2f4 a93d 7131 20be
000002c0: b09a d4bd 8be0 763d 736a 31bd 10fd 5ebe
000002d0: 6854 cebc 7eae dd3c 6845 a2bd 03b2 e33c
000002e0: 0d64 9c3d 32da 883d 0f38 8cbd df3c 013e
000002f0: 397e 0cbe dee9 1d3d 7afc 0e3d d451 0abe
00000300: d225 203d 6f7d 54bd b70d 1ebe 2152 09bd
00000310: b66e b1bd 469d 223e da72 01bd 7e6e cdbd
00000320: 772a 7b3d da4a 3c3e fe8a 67bc 48a1 b8bd
00000330: 0a5b a3bd e2a3 d1bc e58b 8b3d dc2c 2b3e
00000340: ffe4 ffbd c61f 75bd 10f6 56be 2a62 613e
00000350: b2eb 24be 7d45 8f3c 8bf5 f23d 510b f7bd
00000360: de78 ce3d f9d4 7dbd 7ec4 19be 9251 163d
00000370: 37e6 263c 07de 183e c3ba 44bd c92b 1fbe
00000380: fbbf 4f3d 1135 e13d 9951 d0bd a48a 2abe
00000390: 992a 47be 8040 81bd df00 173e f220 5e3e
000003a0: ed15 9c3d 9552 db3d 92f5 8ebc c534 c8bd
000003b0: c83b 6bbd 54e3 f33d 12e0 84bd decf febd
000003c0: 9ad1 873d 723f 823d 2ccf 243d 1902 583e
000003d0: 4093 b9bd bf83 183d be91 88bd 8b2f 67be
000003e0: 117d 063e 40ca 53bd 5a3f d83d a850 fa3c
000003f0: 89cc 833c 5b60 1ebe 01a7 d0bd b326 8fbd

net.4.bias f4 [32]
-0.048357483 -0.080053665 -0.08285531 0.13219541 -0.12939914 0.12219303 0.037150025 -0.14433572
-0.07569285 -0.1703478 -0.14889827 0.13466987 -0.1234543 0.0593986 0.011548063 0.062002912
0.06010946 0.14101425 0.013865664 0.17225075 -0.14743365 -0.13305141 -0.01671447 0.118405804
-0.17152436 -0.18524796 0.05717983 0.14511137 0.053857166 0.06430218 -0.031099536 0.11983674
00000000: 7f12 46bd 2df3 a3bd 0bb0 a9bd 3c5e 073e
00000010: 3581 04be 5740 fa3d a02a 183d becc 13be
00000020: da04 9bbd a76f 2ebe ca78 18be e6e6 093e
00000030: 9cd5 fcbd f24b 733d 1634 3d3c c4f6 7d3d
00000040: 5635 763d 0a66 103e cf2c 633c 8062 303e
00000050: d9f8 16be a13e 08be c9ec 88bc be7e f23d
00000060: 15a4 2fbe a4b1 3dbe 6635 6a3d 1398 143e
00000070: 5599 5c3d ddb0 833d 74c4 febc f76c f53d

net.6.weight f4 [4, 32]
-0.10329649 0.08155905 -0.0392711 -0.089934625 0.17854232 -0.049343005 -0.1227571 0.1410065
0.07194679 0.001775717 0.038018364 -0.024215829 0.07939679 0.038300738 -0.20317192 0.023534685
-0.10485048 0.07455286 0.13018228 -0.109446086 -0.06967064 -0.05667233 -0.13079958 -0.035015035
-0.14956713 -0.09553148 0.12740888 -0.16994871 0.10972547 0.028307779 -0.087070085 -0.049281858
-0.08908655 -0.037812658 0.017260946 -0.13848327 -0.06367185 0.00270976 -0.067782074 0.012615935
0.02290168 0.01848297 0.13001144 0.05444618 0.063461326 -0.05063695 0.08956614 0.060260132
0.0069760927 0.18215466 0.0386932 0.04153089 -0.19651371 -0.017362453 -0.09454579 0.13277051
-0.13731995 -0.012806087 -0.1304973 -0.018663364 0.09221149 -0.06492139 -0.16662414 0.0966356
0.059532136 -0.17049693 0.09637512 -0.17752002 -0.06308836 0.064503565 -0.14134048 -0.11007817
0.02048802 0.08241419 0.07238553 -0.11314089 -0.013777325 0.03765339 0.016176932 0.02142636
-0.11608103 -0.05554902 -0.0076649725 -0.1772256 -0.059098687 -0.088345416 -0.11572492 0.08617453
0.0822029 0.09224458 -0.10478139 -0.01109429 -0.029826557 -0.069680266 -0.10113466 -0.018816596
0.11449117 0.13224623 -0.113429725 0.13407812 -0.058131255 -0.0043320805 -0.15833905 -0.26354206
-0.13178161 0.15296067 0.15946786 0.116473295 -0.14154112 -0.003144714 0.11041381 -0.1698971
0.15929416 -0.16752285 -0.004853331 -0.035567258 0.08971384 0.13518418 -0.059463758 -0.07451241
0.113156326 -0.01840811 -0.052723378 -0.044987995 0.08525227 0.11848975 0.0725354 -0.1215804
00000000: 1c8d d3bd 6e08 a73d bcda 20bd a52f b8bd
00000010: ccd3 363e e41b 4abd 1368 fbbd 0264 103e
00000020: d758 933d 2dbf e83a 25b9 1b3d 4660 c6bc
00000030: c99a a23d 3ce1 1c3d 4d0c 50be d0cb c03c
00000040: d9bb d6bd 2baf 983d 814e 053e 4525 e0bd
00000050: 7baf 8ebd 3f21 68bd 53f0 05be ed6b 0fbd
00000060: 2028 19be 02a6 c3bd 7977 023e 0907 2ebe
00000070: bfb7 e03d b7e5 e73c cd51 b2bd c6db 49bd
00000080: 0273 b6bd 72e1 1abd d466 8d3c 8fce 0dbe
00000090: 6366 82bd 3b96 313b 54d1 8abd 11b3 4e3c
000000a0: 4e9c bb3c 9969 973c b821 053e f502 5f3d
000000b0: 03f8 813d b168 4fbd 746e b73d 54d3 763d
000000c0: b597 e43b c086 3a3e c37c 1e3d 4b1c 2a3d
000000d0: e43a 49be b43b 8ebc 39a1 c1bd fef4 073e
000000e0: 9a9d 0cbe 9fd0 51bc 16a1 05be e9e3 98bc
000000f0: 61d9 bc3d 81f5 84bd 859f 2abe e3e8 c53d
00000100: f8d7 733d bf96 2ebe 5260 c53d cfc7 35be
00000110: 7834 81bd 721a 843d 8fbb 10be aa70 e1bd
00000120: 7ed6 a73c c5c8 a83d dd3e 943d 69b6 e7bd
00000130: 4aba 61bc 713a 1a3d 7c85 843c 5586 af3c
00000140: e4bb edbd 5f87 63bd 732a fbbb a17a 35be
00000150: 7711 72bd 71ee b4bd 3001 edbd 467c b03d
00000160: fe59 a83d baea bc3d a097 d6bd d3c4 35bc
00000170: d356 f4bc 87b4 8ebd b01f cfbd 4325 9abc
00000180: 597a ea3d 8e6b 073e d84d e8bd c64b 093e
00000190: 0a1b 6ebd 20f4 8dbb a223 22be fcee 86be
000001a0: c2f1 06be b9a1 1c3e 8b4b 233e 8d89 ee3d
000001b0: 28f0 10be 8c17 4ebb a320 e23d 81f9 2dbe
000001c0: 021e 233e 1c8b 2bbe b108 9fbb f9ae 11bd
000001d0: e4bb b73d b96d 0a3e 4590 73bd f699 98bd
000001e0: 81be e73d 9bcc 96bc 78f4 57bd 5545 38bd
000001f0: be98 ae3d c1aa f23d 718d 943d 25ff f8bd

net.6.bias f4 [4]
0.107454434 -0.046768744 -0.17912291 -0.1362439
00000000: 1211 dc3d 9590 3fbd ff6b 37be 8583 0bbe
