models/cartpole/hamiltonian_decoder.pth (torch, 17184 bytes, 9 tensors)

net.0.weight f4 [16, 8]
0.2893802 -0.1936248 -0.09336034 0.23425795 0.16440144 -0.06255101 -0.054324586 0.21747851
-0.21235012 0.28264976 0.33117166 0.060781468 0.10851701 -0.2664313 -0.23883742 0.28313667
0.049680036 -0.22405738 0.32493424 0.104470536 0.18644653 0.11304633 -0.01841251 -0.17356278
-0.32403767 0.20974335 -0.31145078 0.1634514 -0.009613672 0.0065253247 0.050379515 -0.22266105
-0.2607536 0.16664408 -0.19115111 -0.13834417 0.02875048 -0.3000967 0.0628332 0.2792409
-0.124030255 0.19880532 -0.17389128 -0.08112149 -0.2827033 -0.18271454 -0.31524947 0.31424212
-0.046389695 -0.025216898 -0.10075992 -0.26059443 0.20578349 0.21763435 -0.14082336 0.24127069
0.20922531 0.042528298 -0.18987711 0.10111512 -0.028221298 -0.2711664 0.17738533 -0.21104772
-0.2844655 -0.33885983 0.1719136 0.20799582 -0.31727046 -0.20279853 0.3335864 -0.078225374
-0.035629943 -0.31669292 0.11416846 0.113823645 0.07557347 -0.29152638 -0.1708311 0.050256036
-0.22751679 0.25696492 0.14621668 -0.2896329 0.28100294 -0.17401496 0.03335409 0.012083085
-0.12056672 -0.24012224 -0.021167208 0.038442582 -0.1116257 -0.15986764 0.15490185 0.11513349
-0.18517442 0.2759207 -0.09499859 -0.12467345 -0.3404174 -0.049850814 0.12302037 -0.18108222
-0.21048611 0.22076708 0.10820712 0.06424727 0.29447427 -0.20026246 -0.3141864 -0.16666797
-0.076701395 -0.2837739 0.048910916 0.18538639 -0.13406377 0.09968757 -0.044356696 0.20571545
-0.186074 0.2792469 -0.2538579 -0.17010307 -0.02013299 0.120584615 -0.04038878 0.31495112
00000000: a429 943e 9445 46be b533 bfbd 51e1 6f3e
00000010: da58 283e be1a 80bd 7583 5ebd b0b2 5e3e
00000020: 4f72 59be 78b7 903e 558f a93e fdf5 783d
00000030: 2b3e de3d af69 88be cc91 74be 4af7 903e
00000040: 4b7d 4b3d 4c6f 65be c85d a63e a6f4 d53d
00000050: d7eb 3e3e d684 e73d d5d5 96bc 71ba 31be
00000060: 44e8 a5be f6c6 563e 7a76 9fbe ce5f 273e
00000070: aa82 1dbc 64d2 d53b c05a 4e3d 4201 64be
00000080: 7f81 85be bfa4 2a3e 1ebd 43be 18aa 0dbe
00000090: 2086 eb3c 46a6 99be b1ae 803d aaf8 8e3e
000000a0: 9303 febd 9f93 4b3e 8e10 32be 0623 a6bd
000000b0: 7dbe 90be 8519 3bbe 6168 a1be 58e4 a03e
000000c0: 1f03 3ebd ab93 cebc 385b cebd a26c 85be
000000d0: e8b8 523e 8adb 5e3e 0034 10be aa0f 773e
000000e0: 293f 563e 2732 2e3d 256f 42be 7215 cf3d
000000f0: 5a30 e7bc 53d6 8abe 80a4 353e e51c 58be
00000100: 76a5 91be 097f adbe 1e0a 303e dbfc 543e
00000110: 4671 a2be 6baa 4fbe d6cb aa3e a034 a0bd
00000120: b4f0 11bd 9325 a2be 27d1 e93d 5f1c e93d
00000130: 43c6 9a3d f242 95be 59ee 2ebe 46d9 4d3d
00000140: 29fa 68be e890 833e d3b9 153e c34a 94be
00000150: 9edf 8f3e fa30 32be 4c9e 083d 22f8 453c
00000160: afeb f6bd 9be2 75be da66 adbc f875 1d3d
00000170: 049c e4bd 58b4 23be 979e 1e3e 1bcb eb3d
00000180: 5d9e 3dbe 7a45 8d3e 9f8e c2bd cb54 ffbd
00000190: 304b aebe 5e30 4cbd 1bf2 fb3d 9e6d 39be
000001a0: ac89 57be c410 623e b29b dd3d 1394 833d
000001b0: 55c5 963e 9a11 4dbe 0add a0be 02ab 2abe
000001c0: 9f15 9dbd d04a 91be d056 483d eed5 3d3e
000001d0: 0348 09be ff28 cc3d 5eaf 35bd 12a7 523e
000001e0: 2f8a 3ebe 73f9 8e3e aaf9 81be 802f 2ebe
000001f0: f1ed a4bc 11f5 f63d b56e 25bd 4641 a13e

net.0.bias f4 [16]
0.29512772 0.15158999 -0.110503644 0.33350167 -0.018143574 -0.3061066 0.3980693 -0.26364282
0.1789035 -0.21153693 -0.07820284 0.057895638 -0.33048904 -0.09635092 0.05632139 -0.008035134
00000000: fb1a 973e 683a 1b3e bc4f e2bd bbc0 aa3e
00000010: d5a1 94bc 01ba 9cbe bdcf cb3e 31fc 86be
00000020: 7b32 373e 239d 58be d028 a0bd fa23 6d3d
00000030: dc35 a9be a253 c5bd 42b1 663d cba5 03bc

net.2.weight f4 [32, 16]
-0.013192 0.04352323 0.042386167 -0.16737762 0.11354953 0.12844461 -0.22908787 0.037271976
-0.07311558 0.051552117 -0.1155883 0.008180064 -0.13823588 -0.2221612 0.23195778 0.14782077
0.23459837 -0.22079095 -0.20012382 -0.12753478 -0.13463072 -0.09234516 -0.11320916 -0.1712065
0.13764255 0.13751058 -0.038001113 0.12567449 -0.14425538 -0.101611786 0.16328774 0.096533716
0.055965897 -0.2019744 0.085137434 -0.14806846 0.06619796 0.09759466 -0.17418742 -0.11337648
-0.13707425 0.062390164 -0.08937164 -0.1618193 0.1779167 0.08464578 -0.055274863 0.12369026
0.16163224 -0.07997864 0.08018424 0.0762612 -0.12046435 0.17237917 0.1603453 -0.16158417
0.17732368 0.23893073 0.07423178 0.08860939 0.18054852 0.1262889 -0.16120298 0.08567035
0.12488245 0.17360736 0.02097053 -0.16661903 0.037146065 -0.15285692 0.18504246 -0.11309178
-0.12124081 -0.16093107 -0.16887486 0.052266046 0.13871902 0.17678705 -0.025210632 0.12169627
0.20039834 0.19984898 0.14407267 -0.09886887 0.0650531 0.0055511957 -0.20279945 -0.22275122
0.11742242 -0.22392274 0.15640442 -0.11916345 -0.122284755 -0.082555935 -0.110267386 -0.06655968
-0.0048457338 -0.1560055 -0.024149371 -0.07969791 -0.12968653 0.08023937 0.087863825 0.10037217
-0.12363566 -0.12039898 -0.13612922 -0.04506532 0.027284008 -0.21704018 0.14762355 0.14677082
0.014319985 -0.24071224 0.083342776 -0.0058502075 -0.19546895 -0.15562718 -0.2105349 -0.005394457
0.22415006 0.012129663 -0.03342987 0.16621053 0.08092028 -0.12478515 -0.112586506 -0.076262765
-0.05416135 0.017284581 0.14760455 0.12240107 -0.18690021 0.16869703 -0.15677935 -0.08893218
0.031076768 -0.12203707 0.15368591 0.12245589 -0.04054441 0.043610886 -0.061290834 0.14999346
-0.13681705 -0.012017018 0.14211272 -0.17012 -0.17259113 0.27888867 0.12476847 -0.082791395
-0.21509945 0.05696993 -0.0006733046 -0.007591686 0.21078543 -0.038397014 -0.11421211 0.11839985
-0.14525208 0.2409948 0.17790312 0.03939529 -0.1345286 -0.15857546 -0.001437865 -0.06516358
-0.040160332 0.026337449 0.0702966 -0.14766353 0.13569762 -0.12918605 -0.12551726 0.003851346
-0.10456095 -0.18525957 0.12627812 -0.121920265 -0.045074947 -0.031805784 -0.20985466 0.101607054
0.18772991 0.03625985 0.058427863 -0.053725608 0.08673397 -0.022592843 -0.014571447 0.24588834
0.12771659 0.008582239 -0.08376097 -0.060491513 0.0073687253 0.22679093 -0.04934494 -0.11189947
0.1184967 -0.06639775 0.24733232 -0.10156566 0.1753078 -0.003059973 -0.09769719 0.049507763
0.18581833 0.21314606 0.20964643 -0.1756934 -0.21716392 0.101409696 0.033247996 0.20611499
0.24810198 0.21717928 0.19053738 -0.046218924 0.14772789 0.23191105 0.056852862 0.2436677
0.080483794 0.20177045 0.0168217 0.16274029 0.11558797 -0.12114582 0.068851076 -0.21026513
-0.002847241 0.1492216 -0.10947718 -0.034846988 -0.19583564 0.1214764 0.09985644 0.12476608
0.14987391 -0.16428407 0.1144848 -0.08793509 -0.043932572 -0.00376741 -0.24504453 0.021287506
-0.094170615 -0.19559024 -0.06625941 -0.06416047 0.08765217 -0.19699414 -0.0057656737 0.121511124
00000000: 4223 58bc 6a45 323d 1e9d 2d3d 0a65 2bbe
00000010: a88c e83d fc86 033e 0396 6abe 80aa 183d
00000020: 9fbd 95bd 5028 533d 8fb9 ecbd ad05 063c
00000030: b58d 0dbe 3a7e 63be 5786 6d3e 545e 173e
00000040: 8e3a 703e 0617 62be 42ed 4cbe 7a98 02be
00000050: a3dc 09be 761f bdbd 34da e7bd c250 2fbe
00000060: 2bf2 0c3e 93cf 0c3e 0ea7 1bbd d0b0 003e
00000070: afb7 13be d719 d0bd e734 273e 78b3 c53d
00000080: 7f3c 653d 61d2 4ebe 895c ae3d 429f 17be
00000090: cc92 873d b6df c73d 305e 32be ee31 e8bd
000000a0: 315d 0cbe d48c 7f3d 7a08 b7bd f5b3 25be
000000b0: cc2f 363e c45a ad3d e567 62bd 5251 fd3d
000000c0: ec82 253e d7cb a3bd a337 a43d d52e 9c3d
000000d0: 03b6 f6bd 2a84 303e 8f31 243e 5276 25be
000000e0: 5794 353e 42aa 743e d506 983d d778 b53d
000000f0: b6e1 383e e151 013e 6512 25be f073 af3d
00000100: 5fc2 ff3d 21c6 313e 64ca ab3c 2e9e 2abe
00000110: 7926 183d 8686 1cbe c57b 3d3e aa9c e7bd
00000120: 1a4d f8bd 1dcb 24be 88ed 2cbe ec14 563d
00000130: 5c0c 0e3e aa07 353e 8786 cebc e53b f93d
00000140: 3935 4d3e 36a5 4c3e c987 133e c37b cabd
00000150: 8f3a 853d cee6 b53b a9aa 4fbe e518 64be
00000160: 2a7b f03d 014c 65be 7b28 203e f80b f4bd
00000170: 6e70 fabd 1613 a9bd ded3 e1bd 7150 88bd
00000180: f6c8 9ebb e8bf 1fbe e7d4 c5bc a838 a3bd
00000190: 8ccc 04be 8a54 a43d f3f1 b33d ed8f cd3d
000001a0: b134 fdbd be93 f6bd 7565 0bbe 6a96 38bd
000001b0: b682 df3c c83f 5ebe a12a 173e 174b 163e
000001c0: 5f9e 6a3c 457d 76be 9eaf aa3d 19b3 bfbb
000001d0: 0329 48be bb5c 1fbe 7696 57be fcc3 b0bb
000001e0: 9887 653e 7ebb 463c c2ed 08bd 1833 2a3e
000001f0: 88b9 a53d 5b8f ffbd c193 e6bd a72f 9cbd
00000200: 4bd8 5dbd 6598 8d3c a625 173e 6aad fa3d
00000210: c562 3fbe eabe 2c3e c48a 20be 1322 b6bd
00000220: b594 fe3c 92ee f9bd d75f 1d3e 27ca fa3d
00000230: e511 26bd 54a1 323d 190c 7bbd e397 193e
00000240: c519 0cbe 07e3 44bc ff85 113e f033 2ebe
00000250: bbbb 30be 7fca 8e3e 9d86 ff3d 898e a9bd
00000260: 0843 5cbe 4d59 693d b580 30ba aec3 f8bb
00000270: 23d8 573e 3046 1dbd 0ae8 e9bd 9f7b f23d
00000280: f6bc 14be 57c7 763e 3c2c 363e f55c 213d
00000290: dec1 09be 9b61 22be be76 bcba 7c74 85bd
000002a0: 297f 24bd a2c1 d73c aaf7 8f3d 1c35 17be
000002b0: 51f4 0a3e 5949 04be 9987 00be dd66 7c3b
000002c0: 0d24 d6bd afb4 3dbe 0d4f 013e 55b1 f9bd
000002d0: 82a0 38bd c846 02bd 24e4 56be 5c17 d03d
000002e0: 453c 403e 3585 143d 0e52 6f3d 620f 5cbd
000002f0: 94a1 b13d a014 b9bc 14bd 6ebc 27ca 7b3e
00000300: 23c8 023e 859c 0c3c df8a abbd f3c5 77bd
00000310: 5975 f13b e23b 683e eb1d 4abd 8d2b e5bd
00000320: 66ae f23d 8bfb 87bd af44 7d3e a801 d0bd
00000330: e383 333e d489 48bb 7715 c8bd a7c8 4a3d
00000340: 2947 3e3e f642 5a3e 8ead 563e f8e8 33be
00000350: 3860 5ebe e3af cf3d 0d2f 083d cf0f 533e
00000360: 720e 7e3e 3f64 5e3e 3b1c 433e 0e50 3dbd
00000370: fb45 173e 177a 6d3e 8cde 683d 0784 793e
00000380: b0d4 a43d ea9c 4e3e a9cd 893c 64a5 263e
00000390: 63b9 ec3d 4d1b f8bd cb01 8d3d be4f 57be
000003a0: c798 3abb 8ccd 183e 9235 e0bd b7bb 0ebd
000003b0: 2389 48be 9ec8 f83d 8981 cc3d 5c85 ff3d
000003c0: 8c78 193e 153a 28be 0277 ea3d 5017 b4bd
000003d0: a4f2 33bd a7e6 76bb f4ec 7abe 2363 ae3c
000003e0: 86dc c0bd cf48 48be 03b3 87bd 9166 83bd
000003f0: fb82 b33d d5b8 49be faed bcbb d3da f83d

net.2.bias f4 [32]
-0.18444283 0.18368758 -0.18922906 -0.12816061 0.10103232 -0.2409216 -0.08868262 -0.12219173
-0.20471765 -0.10336395 -0.14893198 0.2005125 -0.2375788 -0.24754685 -0.047847863 0.17817952
0.13122343 -0.091594264 0.06727128 0.0511421 -0.18942565 0.16562116 -0.16292319 0.1338078
-0.06461074 -0.07321727 0.048410315 0.041444942 0.24148777 0.21458791 -0.14041118 0.15269044
00000000: 95de 3cbe 9918 3c3e 43c5 41be 893c 03be
00000010: 08ea ce3d 27b4 76be 3c9f b5bd a83f fabd
00000020: 81a1 51be 7bb0 d3bd a081 18be 2653 4d3e
00000030: db47 73be ec7c 7dbe 1ffc 43bd b174 363e
00000040: 6f5f 063e c695 bbbd 86c5 893d 617a 513d
00000050: ccf8 41be 9898 293e 56d5 26be e904 093e
00000060: a352 84bd f0f2 95bd e549 463d 2cc2 293d
00000070: 9248 773e efbc 5b3e f3c7 0fbe e25a 1c3e

net.4.weight f4 [64, 32]
0.10078073 0.16501519 0.14569265 0.08575717 0.07139992 0.1540029 -0.04812002 0.030661246
0.015269599 0.043588955 0.09792308 0.0773071 -0.0560665 0.10615461 -0.024321105 0.1726894
-0.12033976 0.121452294 -0.04227699 0.1488722 -0.06897819 -0.06775947 -0.08591231 0.15670763
-0.1665797 -0.10326145 -0.0033207405 0.06115594 0.038967986 -0.11878281 -0.11405874 0.060833495
0.062029462 -0.075687334 0.10341438 -0.16359334 0.097007625 0.10134579 0.04568325 0.006997036
0.15329906 -0.112888575 0.13321231 0.1201963 0.058133792 0.13762744 -0.13691491 -0.118417084
-0.07467736 0.111875676 0.16223548 0.08968198 -0.008607604 -0.11847903 0.019802023 -0.0675833
-0.083428 -0.16568525 0.006396299 0.15758115 -0.09759626 0.14690235 0.007207724 -0.1674917
-0.010535744 -0.061893158 0.02668123 0.07509642 -0.17186779 0.09917674 -0.015216837 0.107116856
0.14502336 0.022510132 0.102519274 -0.01593527 0.018148294 0.037979245 0.01742376 0.04248351
0.009008041 0.16505292 -0.002491701 0.08289786 0.09069742 -0.13200715 0.17682616 -0.14674067
0.12277724 0.065623626 0.12505707 -0.0049749753 -0.16286065 0.024303118 -0.1613347 -0.013129605
0.092927404 0.006395529 0.15752353 0.15012528 -0.17172194 -0.023903217 0.059470505 0.053248264
0.09567839 -0.06818824 0.098330356 0.037240963 -0.10336418 -0.06930634 -0.11217713 -0.035322648
0.119223155 0.11439709 -0.15299577 0.0801217 -0.043071102 -0.15398498 0.05527278 0.11395996
-0.10226942 -0.10691288 0.019264929 0.062351484 0.07924578 -0.13049723 0.026491424 0.041993484
-0.1667853 0.1753266 0.14730586 -0.11807714 -0.028345473 0.0197057 -0.089310035 -0.03634532
0.012294474 0.17252068 -0.07266048 0.14786644 0.06605399 -0.18287614 0.11297764 0.1584846
-0.017879223 0.02404662 -0.1606438 0.13562454 -0.019784873 -0.07352866 -0.16706316 0.04669558
-0.07970442 -0.045777757 0.0057465993 0.16600406 0.027824061 -0.15482819 0.12308657 0.07242549
-0.0030283835 0.13463649 0.023876768 0.12983963 -0.038889434 -0.098843925 -0.17820238 0.01872964
0.16649808 0.059161752 0.033627693 0.086194426 0.12712838 -0.02867475 -0.04263816 -0.1008994
0.061015684 0.14458713 0.05820975 0.06441232 -0.11245319 0.15298377 0.1159555 0.021899406
-0.037704777 0.027560443 0.07070307 0.16389076 0.11503413 0.10000484 0.022227434 0.12528248
-0.058877505 0.07599276 0.07397331 -0.14904396 0.101389356 -0.18475257 -0.0065803877 -0.0131662125
0.07932514 0.099269666 -0.095649935 -0.17646675 -0.110383645 -0.024697213 0.008458492 -0.088641696
0.08965565 -0.13373277 -0.075362906 0.005567759 0.09247693 0.12396966 0.18018796 -0.082798816
0.1634411 -0.09330291 0.171195 0.0704767 0.040435817 -0.15072925 -0.09953706 0.15575054
0.065628394 -0.09740176 -0.025755133 -0.06370639 -0.1596352 0.0030226097 -0.027951311 -0.13028765
0.15123925 -0.0390124 -0.12649801 -0.006134865 0.17866609 -0.09515272 0.08862129 -0.032953013
0.13124733 -0.052801177 -0.00095606165 0.05641166 -0.15386511 0.073226005 0.1122389 0.11587032
-0.036503904 -0.015421478 0.116112195 0.015399752 -0.06011861 0.14807977 0.10308773 -0.14608434
00000000: 2166 ce3d bef9 283e 7430 153e 75a1 af3d
00000010: 1f3a 923d f0b2 1d3e 8019 45bd 4b2d fb3c
00000020: 572d 7a3c 558a 323d e58b c83d 2f53 9e3d
00000030: fca5 65bd 9767 d93d 0e3d c7bc 7dd5 303e
00000040: b174 f6bd fbbb f83d a32a 2dbd f471 183e
00000050: 7044 8dbd 7ac5 8abd cbf2 afbd f777 203e
00000060: de93 2abe bd7a d3bd c8a0 59bb a77e 7a3d
00000070: e59c 1f3d 6744 f3bd a197 e9bd 8b2c 793d
00000080: 9b12 7e3d f601 9bbd ebca d33d 0385 27be
00000090: efab c63d 628e cf3d 5c1e 3b3d 6447 e53b
000000a0: 6efa 1c3e 2032 e7bd cf68 083e 7a29 f63d
000000b0: b31d 6e3d 35ee 0c3e 6c33 0cbe a884 f2bd
000000c0: 72f0 98bd 131f e53d 0f21 263e 30ab b73d
000000d0: e806 0dbc 22a5 f2bd da37 a23c 1d69 8abd
000000e0: 4ddc aabd 65a9 29be 0c98 d13b f45c 213e
000000f0: 8ce0 c7bd 926d 163e c52e ec3b f282 2bbe
00000100: 1d9e 2cbc ae83 7dbd 9892 da3c 27cc 993d
00000110: 1cfe 2fbe 2d1d cb3d 0a50 79bc 1560 db3d
00000120: 0181 143e 2b67 b83c a0f5 d13d af8a 82bc
00000130: bbab 943c 2090 1b3d 46bc 8e3c 3003 2e3d
00000140: 7696 133c a203 293e ce4b 23bb 5ac6 a93d
00000150: 92bf b93d e22c 07be eb11 353e 3043 16be
00000160: a272 fb3d ae65 863d f60e 003e 1e05 a3bb
00000170: f1c4 26be 5517 c73c ec34 25be 8e1d 57bc
00000180: b950 be3d 9691 d13b d94d 213e 71ba 193e
00000190: e0d7 2fbe aed0 c3bc 5897 733d da1a 5a3d
000001a0: 08f3 c33d 47a6 8bbd 6d61 c93d fb89 183d
000001b0: 99b0 d3bd 7bf0 8dbd 20bd e5bd 7bae 10bd
000001c0: 452b f43d 0649 ea3d ecaa 1cbe d916 a43d
000001d0: 536b 30bd 3dae 1dbe b665 623d d763 e93d
000001e0: a172 d1bd 24f5 dabd 7cd1 9d3c 4564 7f3d
000001f0: 9d4b a23d 11a1 05be 8b04 d93c 5c01 2c3d
00000200: c4c9 2abe d188 333e 59d7 163e 6dd2 f1bd
00000210: c434 e8bc d96d a13c 2ee8 b6bd d5de 14bd
00000220: c36e 493c 43a9 303e 05cf 94bd 4d6a 173e
00000230: 5047 873d e243 3bbe d260 e73d c949 223e
00000240: 7377 92bc 6bfd c43c cf7f 24be 29e1 0a3e
00000250: e313 a2bc 3296 96bd 9b12 2bbe dd43 3f3d
00000260: 123c a3bd 7581 3bbd f84d bc3b f8fc 293e
00000270: 49ef e33c 488b 1ebe d014 fc3d d153 943d
00000280: d877 46bb 26de 093e 3699 c33c aef4 043e
00000290: 874a 1fbd af6e cabd af7a 36be e76e 993c
000002a0: 797e 2a3e 9853 723d 31bd 093d b486 b03d
000002b0: f12d 023e 4fe7 eabc 5aa5 2ebd 58a4 cebd
000002c0: 95eb 793d a60e 143e 596d 6e3d 9bea 833d
000002d0: dc4d e6bd c7a7 1c3e 147a ed3d 6266 b33c
000002e0: 5370 1abd 70c6 e13c c5cc 903d fbd2 273e
000002f0: 0497 eb3d 56cf cc3d 4f16 b63c 0d4a 003e
00000300: 8a29 71bd 18a2 9b3d 527f 973d fb9e 18be
00000310: 39a5 cf3d c72f 3dbe 4ba0 d7bb 19b7 57bc
00000320: 3875 a23d e54d cb3d 1de4 c3bd b3b3 34be
00000330: d210 e2bd cf51 cabc 7d95 0a3c c789 b5bd
00000340: 629d b73d 3ef1 08be de57 9abd bf71 b63b
00000350: 8b64 bd3d cee3 fd3d 3183 383e 6d92 a9bd
00000360: 1b5d 273e 9915 bfbd be4d 2f3e 1756 903d
00000370: 07a0 253d c558 1abe 16da cbbd 127d 1f3e
00000380: 2e68 863d 937a c7bd 6efc d2bc 7f78 82bd
00000390: 6977 23be fa16 463b 26fa e4bc 206a 05be
000003a0: 76de 1a3e 77cb 1fbd b288 01be fa06 c9bb
000003b0: 3ef4 363e 6edf c2bd 147f b53d bdf9 06bd
000003c0: b365 063e 0c46 58bd 36a0 7aba ea0f 673d
000003d0: d18e 1dbe 84f7 953d 82dd e53d 6b4d ed3d
000003e0: 1e85 15bd 5eaa 7cbc 3bcc ed3d 3e4f 7c3c
000003f0: ee3e 76bd 39a2 173e a91f d33d 2297 15be

net.4.bias f4 [64]
0.13259308 -0.06958123 -0.0037201096 0.16747035 0.11738885 -0.15684037 -0.15493587 -0.065969326
0.18252201 0.16056947 0.142802 -0.01191747 -0.04438115 0.04923636 0.020293765 -0.15179355
0.0041316566 0.053920697 0.17845133 0.1725966 -0.06417786 -0.17896023 -0.15874723 -0.05425452
-0.072700664 0.05900235 -0.13952182 -0.17410682 0.14806128 0.05082227 0.080031954 -0.13371542
0.030929223 -0.09235068 0.063835725 -0.13056386 -0.04734542 0.12252484 0.10092013 -0.10695863
0.14490183 -0.006266716 0.17148697 -0.119061165 0.03378254 -0.13751996 -0.110948704 -0.048626877
0.06903307 -0.20443168 -0.051742047 -0.07533851 0.10854915 0.13820066 -0.1920313 0.11147724
0.17193201 0.1741075 -0.13767198 0.10427986 0.065277316 -0.008858552 -0.1784582 0.0764874
00000000: 7bc6 073e 9b80 8ebd 15cd 73bb 597d 2b3e
00000010: 9169 f03d c39a 20be 82a7 1ebe ed1a 87bd
00000020: 0de7 3a3e 536c 243e b03a 123e 7e41 43bc
00000030: 02c9 35bd 11ac 493d 1c3f a63c c56f 1bbe
00000040: d962 873b f3db 5c3d f2bb 363e 2abd 303e
00000050: af6f 83bd 5a41 37be a28e 22be fd39 5ebd
00000060: 16e4 94bd 73ac 713d cfde 0ebe 0f49 32be
00000070: 609d 173e 032b 503d cbe7 a33d b2ec 08be
00000080: 485f fd3c 5a22 bdbd 4ebc 823d 88b2 05be
00000090: 45ed 41bd 4eee fa3d 37af ce3d 200d dbbd
000000a0: 2561 143e 0659 cdbb 489a 2f3e 57d6 f3bd
000000b0: 905f 0a3d 08d2 0cbe 1339 e3bd fa2c 47bd
000000c0: 3661 8d3d 8a56 51be 78ef 53bd 144b 9abd
000000d0: 044f de3d 7984 0d3e daa3 44be 2e4e e43d
000000e0: f20e 303e 3d49 323e e2f9 0cbe ae90 d53d
000000f0: 1db0 853d 7623 11bc bfbd 36be 6da5 9c3d

net.6.weight f4 [8, 64]
0.047042407 -0.10828062 -0.07446895 -0.08386934 -0.10403966 -0.026274117 0.08862749 -0.042992495
0.0344622 0.023412855 -0.10013019 0.07906663 -0.050791778 -0.02601654 -0.08954906 -0.08869783
0.09584936 0.06576378 -0.05754031 0.012612423 0.022824444 0.11484393 -0.09557976 -0.042948928
0.10275495 -0.07436099 0.0003489591 -0.08966808 0.093072765 0.0012554107 0.035002507 0.10654711
-0.105258964 -0.053626608 -0.08271346 0.08120017 0.09131269 -0.0016567573 0.06068116 -0.04663524
0.07053654 -0.014856835 -0.02907981 -0.10862465 0.078735895 -0.081730835 -0.07289882 0.03762271
-0.09144249 -0.05766073 0.07054882 0.075895235 -0.00015555267 0.05317288 -0.10136336 -0.010147919
-0.018125625 -0.03727532 -0.13218458 -0.050025173 -0.04836348 -0.09172653 -0.0015382762 0.012097204
0.04572777 -0.036828108 -0.012491051 -0.117852114 0.10303619 0.05247257 -0.014452668 0.07825791
0.10072041 -0.01731866 -0.034446523 -0.07079298 -0.09327921 -0.07239261 0.07185978 -0.1181612
0.06327892 -0.10437948 -0.030754384 0.099962026 0.09843101 -0.025267586 -0.056177285 -0.082505025
0.12807128 -0.052347537 0.043277275 0.08808864 -0.095248915 -0.04478645 -0.09702961 0.11587698
0.09758607 -0.0433152 0.03518998 -0.07087977 -0.079411365 -0.1337584 0.11858151 0.09426516
0.014845558 -0.07759629 0.073644154 0.0033616293 0.012642618 -0.06028741 0.056058362 0.07627143
0.098910585 -0.05731279 -0.065985814 0.037803907 -0.07452094 0.058379404 0.010068973 0.11486651
0.07184844 -0.0049788984 -0.109608606 -0.13132149 -0.034749594 0.08918415 0.11871496 0.044502664
-0.048175067 -0.08689627 0.12391228 0.083894305 0.058293708 0.106940314 0.003965893 -0.04919244
0.056745864 0.008292939 0.018486243 0.030126583 0.03070498 0.10407757 0.08458237 0.11373959
0.017539522 0.11672246 -0.046438124 -0.11250472 0.12095613 0.06697968 0.028574718 -0.049305063
0.051127423 -0.038642846 -0.015676344 0.112587474 0.052882683 0.08773799 0.09035177 0.07079016
0.1090179 0.008615364 0.0359928 -0.13306214 0.094183326 -0.0592147 -0.07156546 -0.039236937
0.07801292 0.08508688 -0.016547753 0.07534626 -0.00562347 0.07139539 -0.08222249 0.10913229
0.122632384 0.07250429 0.04902866 -0.054605655 0.024887886 -0.13495818 0.11044977 0.0006876161
-0.023378253 0.104765505 -0.10414134 -0.04767477 -0.026954813 -0.03854501 0.03570062 -0.046526015
-0.051183548 0.08280114 0.05080863 -0.050159365 -0.012740626 0.08381259 0.047045033 -0.077643864
0.025009276 -0.09127543 -0.030566858 0.06667464 -0.106617935 0.04042507 0.019860776 0.1081713
0.079148285 -0.027150352 -0.09143382 -0.09167124 -0.056369793 -0.06374552 0.11183288 0.07924757
0.013570662 -0.08151908 -0.052992865 -0.095777914 0.049106807 -0.0020333605 0.08350396 -0.015165278
-0.12610944 0.017782345 0.05678007 -0.029599143 -0.047519602 -0.13221584 -0.098676294 -0.05598615
0.07162228 0.09899428 -0.031624474 -0.07735963 -0.0042851586 0.09857394 -0.024061797 -0.04434044
0.023184206 -0.08449758 0.122074336 -0.09719232 -0.0007969674 -0.00044592362 0.08899818 -0.08531936
0.015233138 0.01969699 -0.064552486 0.021870255 -0.09647665 -0.044718683 -0.08167906 -0.04274372
00000000: 8aaf 403d 3bc2 ddbd 2d83 98bd b0c3 abbd
00000010: bf12 d5bd d13c d7bc 5482 b53d e618 30bd
00000020: 3c28 0d3d 51cc bf3c 0f11 cdbd afed a13d
00000030: 0a0b 50bd a420 d5bc 7f65 b7bd 35a7 b5bd
00000040: ab4c c43d 29af 863d 63af 6bbd 56a4 4e3c
00000050: 54fa ba3c 4b33 eb3d 52bf c3bd 37eb 2fbd
00000060: 3071 d23d 934a 98bd 7ff4 b639 e6a3 b7bd
00000070: ef9c be3d 988c a43a ca5e 0f3d 5f35 da3d
00000080: 0392 d7bd 93a7 5bbd ad65 a9bd 464c a63d
00000090: 2602 bb3d 8d27 d9ba cf8c 783d 9804 3fbd
000000a0: 7675 903d 156a 73bc c838 eebc 9a76 debd
000000b0: 4940 a13d 7f62 a7bd fa4b 95bd 451a 1a3d
000000c0: 3346 bbbd a82d 6cbd e67b 903d f66e 9b3d
000000d0: da1b 23b9 cecb 593d 9897 cfbd 7543 26bc
000000e0: 317c 94bc 02ae 18bd 655b 07be 32e7 4cbd
000000f0: c918 46bd 1edb bbbd fc9f c9ba 5a33 463c
00000100: 0b4d 3b3d 12d9 16bd 44a7 4cbc 735c f1bd
00000110: a304 d33d 7aed 563d e2ca 6cbc af45 a03d
00000120: 8146 ce3d dddf 8dbc cc17 0dbd e9fb 90bd
00000130: 2c09 bfbd 9442 94bd 382b 933d 80fe f1bd
00000140: 6198 813d e9c4 d5bd 9ef0 fbbc e4b8 cc3d
00000150: 3396 c93d f8fd cebc 271a 66bd 65f8 a8bd
00000160: 1e25 033e 5f6a 56bd 8343 313d d167 b43d
00000170: dd11 c3bd ff71 37bd 76b7 c6bd e950 ed3d
00000180: 35db c73d 476b 31bd 5e23 103d 6a29 91bd
00000190: 6da2 a2bd f6f7 08be ddda f23d 180e c13d
000001a0: c93a 733c ceea 9ebd bfd2 963d c84e 5c3b
000001b0: fc22 4f3c eeef 76bd 749d 653d 3234 9c3d
000001c0: a291 ca3d d1c0 6abd 9223 87bd 45d8 1a3d
000001d0: 6f9e 98bd 3e1f 6f3d 55f8 243c 223f eb3d
000001e0: 4625 933d 0726 a3bb 7a7a e0bd 2479 06be
000001f0: 9755 0ebd 2ea6 b63d d420 f33d 6d48 363d
00000200: 3853 45bd acf6 b1bd b9c5 fd3d c7d0 ab3d
00000210: 62c5 6e3d 8603 db3d 52f4 813b 037e 49bd
00000220: 5a6e 683d 1bdf 073c 7670 973c 06cc f63c
00000230: 0389 fb3c 9f26 d53d 8639 ad3d 4df0 e83d
00000240: 0baf 8f3c 2f0c ef3d e735 3ebd e068 e6bd
00000250: d9b7 f73d a42c 893d 8715 ea3c 1bf4 49bd
00000260: fd6a 513d f647 1ebd ad6b 80bc 4394 e63d
00000270: 839b 583d faaf b33d 590a b93d 6efa 903d
00000280: c744 df3d 7527 0d3c 306d 133d 7141 08be
00000290: 30e3 c03d 1d8b 72bd e990 92bd e9b6 20bd
000002a0: 3dc5 9f3d 0842 ae3d 278f 87bc 244f 9a3d
000002b0: 1645 b8bb bf37 923d 4464 a8bd c080 df3d
000002c0: b026 fb3d 217d 943d 47d2 483d 2eaa 5fbd
000002d0: aee1 cb3c 7a32 0abe 7d33 e23d 2341 343a
000002e0: c083 bfbc 4c8f d63d 0e48 d5bd 9f46 43bd
000002f0: 57d0 dcbc 5fe1 1dbd d03a 123d 1092 3ebd
00000300: d7a5 51bd a593 a93d b61c 503d e873 4dbd
00000310: 0fbe 50bc efa5 ab3d 4bb2 403d bf03 9fbd
00000320: 41e0 cc3c 9dee babd 5967 fabc b78c 883d
00000330: 815a dabd c294 253d 11b3 a23c ea88 dd3d
00000340: 7f18 a23d 6a6a debc a841 bbbd 22be bbbd
00000350: 03e4 66bd 038d 82bd a308 e53d 8d4c a23d
00000360: 7b57 5e3c 7af3 a6bd 0c0f 59bd 3627 c4bd
00000370: 3824 493d 2142 05bb 2004 ab3d c977 78bc
00000380: d522 01be 48ac 913c 3892 683d e779 f2bc
00000390: eaa3 42bd 9763 07be cc16 cabd bc51 65bd
000003a0: b4ae 923d 83bd ca3d aa88 01bd ba6e 9ebd
000003b0: 846a 8cbb 22e1 c93d 3f1d c5bc 529e 35bd
000003c0: ceec bd3c 110d adbd 1c02 fa3d c40c c7bd
000003d0: 94eb 50ba dbca e9b9 ae44 b63d ebbb aebd
000003e0: 6994 793c 955b a13c 1834 84bd 4029 b33c
000003f0: 8d95 c5bd f02a 37bd 5a47 a7bd 0a14 2fbd

net.6.bias f4 [8]
0.0090758065 0.116891295 -0.12603974 0.019355858 0.038760815 -0.013744946 0.0477473 0.041764867
00000000: b1b2 143c b464 ef3d 9010 01be 2d90 9e3c
00000010: a9c3 1e3d 7b32 61bc ac92 433d a311 2b3d

net.8.weight f4 [1, 8]
0.11067607 -0.20945923 0.13941972 -0.12536542 -0.12857802 0.17612126 -0.13316654 0.22536206
00000000: 23aa e23d 7b7c 56be 0bc4 0e3e cb5f 00be
00000010: f5a9 03be 2259 343e cf5c 08be 50c5 663e
