models/cartpole/hamiltonian_dynamics.pth (torch, 17198 bytes, 9 tensors)

net.0.weight f4 [16, 8]
0.08851287 -0.10427109 -0.13030882 0.05739317 -0.13935691 -0.1316986 -0.3094808 -0.4176422
-0.17392805 -0.033029214 0.38306668 -0.3662006 -0.0018887463 0.04806347 -0.3322999 0.22548513
0.14159901 0.092945 -0.2793215 -0.046300862 -0.241821 0.014793628 0.27132022 0.2415368
-0.29257208 0.1392061 -0.13955067 0.07456453 -0.23862463 -0.2234058 -0.059026822 0.09200961
0.1740667 0.16490883 -0.085927114 0.4114447 -0.08116223 0.05322517 0.19016196 0.20792054
-0.26748893 0.02289514 -0.054977063 -0.19343004 0.26285124 0.32719615 -0.02731538 -0.11384212
-0.20103113 0.18302155 0.25087613 -0.18028526 0.16600427 0.0758183 -0.28577778 -0.09239196
-0.08944544 -0.11334695 -0.052650888 0.3539709 0.15387501 0.15803467 0.38897395 0.008404129
0.3889072 0.06359818 0.2913337 0.24000573 -0.06881835 0.19078027 -0.36049798 -0.039925218
-0.11446992 -0.21922565 -0.16029161 -0.24432264 0.35263363 -0.16229065 -0.16016929 0.2675886
-0.30606103 0.2335547 0.22438927 0.12436092 -0.3363711 0.0005471745 0.009328552 0.365121
-0.25974527 -0.28550866 -0.21660432 -0.23496214 0.17653729 0.09673996 -0.17718211 0.36347285
0.3409723 0.34777752 0.2461893 0.068166256 0.16134399 -0.19356324 0.15780436 -0.070502006
-0.016988931 0.09186698 0.09923756 -0.2642941 0.048575286 -0.068218306 -0.051996887 -0.015733486
-0.3988828 -0.26753357 -0.05878715 -0.080927305 -0.38056865 0.2511565 0.4087425 0.2932253
0.050269682 0.014421455 0.10526644 0.06050843 -0.38481596 0.10804002 0.3764312 0.36995372
00000000: 3c46 b53d 158c d5bd ad6f 05be 1a15 6b3d
00000010: 94b3 0ebe ffdb 06be 4474 9ebe 33d5 d5be
00000020: 321a 32be a449 07bd 5121 c43e a57e bbbe
00000030: cf8f f7ba 33de 443d 3623 aabe 93e5 663e
00000040: 55ff 103e f359 be3d 3a03 8fbe f9a5 3dbd
00000050: ed9f 77be f960 723c 7cea 8a3e 6c55 773e
00000060: 02cc 95be 0b8c 0e3e 5fe6 0ebe 4ab5 983d
00000070: 045a 74be 7dc4 64be 1cc6 71bd 896f bc3d
00000080: 8a3e 323e dcdd 283e 8efa afbd e1a8 d23e
00000090: 6238 a6bd a302 5a3d d1b9 423e 1fe9 543e
000000a0: 4ff4 88be 978e bb3c a12f 61bd 8612 46be
000000b0: 7094 863e 4186 a73e 81c4 dfbc 0f26 e9bd
000000c0: 1bdb 4dbe 006a 3b3e d672 803e b39c 38be
000000d0: 06fd 293e a046 9b3d 7751 92be ff37 bdbd
000000e0: 2c2f b7bd 7222 e8bd 75a8 57bd ac3b b53e
000000f0: 6991 1d3e d7d3 213e 9827 c73e 79b1 093c
00000100: d81e c73e c33f 823d b129 953e 10c4 753e
00000110: a3f0 8cbd e75b 433e 3193 b8be a088 23bd
00000120: 356f eabd b07c 60be 7c23 24be b72f 7abe
00000130: 658c b43e 852f 26be 6b03 24be 5f01 893e
00000140: 08b4 9cbe f728 6f3e 4dc6 653e f0b0 fe3d
00000150: d538 acbe 4270 0f3a c8d6 183c 24f1 ba3e
00000160: 55fd 84be 312e 92be 86cd 5dbe ea99 70be
00000170: 31c6 343e 9a1f c63d 3a6f 35be 1d19 ba3e
00000180: ec93 ae3e e50f b23e 0c19 7c3e c09a 8b3d
00000190: 5c37 253e 7135 46be 7797 213e 5b63 90bd
000001a0: 5f2c 8bbc c124 bc3d 103d cb3d 8e51 87be
000001b0: e1f6 463d 0ab6 8bbd b0fa 54bd 83e3 80bc
000001c0: 5e3a ccbe 29fa 88be cbca 70bd 37bd a5bd
000001d0: e5d9 c2be 9697 803e b246 d13e a021 963e
000001e0: 95e7 4d3d f747 6c3c ee95 d73d b0d7 773d
000001f0: 9906 c5be 1644 dd3d 97bb c03e 936a bd3e

net.0.bias f4 [16]
-0.067587286 0.36674252 0.18347037 -0.29676545 -0.24498574 -0.2788195 0.019408176 -0.2863288
0.26453018 0.18423261 0.06759181 -0.30879265 0.34431556 -0.29600438 0.19139344 -0.326009
00000000: 346b 8abd adc5 bb3e a8df 3b3e a4f1 97be
00000010: 8bdd 7abe 6ec1 8ebe e5fd 9e3c b099 92be
00000020: 8070 873e 79a7 3c3e 936d 8a3d 121a 9ebe
00000030: 214a b03e e38d 97be a4fc 433e a7ea a6be

net.2.weight f4 [32, 16]
0.13299875 0.2919089 -0.232492 0.007651193 0.11500351 -0.083062336 -0.107530296 -0.2708789
0.31533903 0.07732341 -0.04720992 -0.16584164 0.14121495 0.063963465 0.08062336 0.061386935
0.19832116 0.20191678 -0.26900768 0.021439966 0.00033076978 -0.26197824 0.28169295 0.02851861
0.31198168 0.013215675 -0.025352608 -0.06507437 0.24103172 -0.20412101 0.13024211 -0.17845541
-0.18214431 -0.034864057 -0.070119634 -0.044345148 0.048034564 0.11676358 0.30761296 0.03987293
0.2908058 -0.09106749 -0.24141815 -0.28927445 0.029714428 -0.022969006 0.01675739 0.17549306
-0.01806171 -0.25821307 0.03903388 0.3181796 0.25796294 -0.04426303 -0.28715798 -0.0010454957
0.070353486 -0.36439717 -0.03907666 0.13462442 0.11322321 0.17577104 0.2496284 0.12793966
0.06516958 -0.02860791 -0.07304655 0.011210891 0.0594791 -0.036251456 0.20661755 -0.30232218
0.091167495 0.076476336 -0.1620801 0.11875716 0.038904335 0.04071167 0.038218305 0.17608596
0.10251336 0.13085485 0.008476332 -0.032818623 0.050609153 0.12337079 0.27991405 -0.12310899
0.26174784 0.056758538 -0.107209906 -0.016766984 -0.05216748 -0.25875574 -0.029685086 0.041265205
-0.11839593 0.24323031 0.014035166 -0.2355786 -0.04275781 0.09184107 0.26903337 0.15476777
0.21565726 -0.102309935 -0.23765802 0.05570115 -0.18841986 0.009417923 0.14525226 -0.20437866
0.15171029 0.19941956 -0.23585865 -0.09765268 0.09445842 0.106050506 0.13535571 -0.10675178
0.15515713 0.21600763 -0.037078172 -0.16460969 0.17819929 -0.01281496 -0.23229194 -0.19334286
0.2676065 0.11484821 -0.27810287 -0.12273407 -0.2717141 -0.26125446 0.28335553 0.040240455
0.3060608 -0.05349433 -0.20975587 0.105330504 -0.09711486 -0.2049754 0.12807147 -0.21423553
0.12891808 0.092608124 -0.033116672 0.17022787 0.28510198 0.16899137 -0.29298016 0.18834236
-0.09134022 -0.29910123 -0.1858957 0.05239127 -0.034445055 0.19891806 0.114314176 -0.122594215
0.12693726 -0.11268914 0.09130965 -0.17654541 0.10897928 -0.14009497 -0.015595441 0.0360957
0.09888688 0.33138594 0.049389407 0.14317887 0.014324672 -0.22458406 0.040124994 -0.17802587
-0.17648128 0.047441922 0.17392154 0.015247753 0.22013837 0.0042493935 -0.1516963 0.1631921
-0.001043613 -0.27482513 0.28632998 0.121421315 0.15656132 -0.04826458 0.24432708 0.083311774
-0.1996292 -0.104344964 0.25645694 0.2340832 0.27224004 -0.14131689 0.019489646 0.15522385
-0.1360381 -0.022063266 -0.013962772 0.1326762 -0.20059526 -0.17545538 0.0031734253 0.16488145
-0.0056280256 -0.18438995 -0.16874968 0.13064507 0.29773542 -0.10508621 0.11329243 -0.0016426739
-0.097128645 -0.16892113 -0.06044258 0.040611032 -0.25320262 -0.15032683 0.23985717 0.1197926
0.057828873 0.15426217 -0.016571779 0.17320363 0.017465902 0.10214282 -0.08419491 0.24229462
-0.25723428 -0.21494278 0.17014575 0.23984398 0.05293071 0.10225956 0.2664391 0.20510446
0.20924234 -0.14122307 0.102743626 -0.31438696 -0.28766212 -0.15571912 0.1726269 0.14233606
0.2960236 0.13280484 0.020500297 -0.015660908 -0.00065273687 0.04660546 -0.20552564 -0.26003507
00000000: d330 083e 1575 953e 6212 6ebe dcb6 fa3b
00000010: f686 eb3d 961c aabd d838 dcbd a4b0 8abe
00000020: 1e74 a13e bc5b 9e3d 305f 41bd 64d2 29be
00000030: a79a 103e 47ff 823d dc1d a53d de70 7b3d
00000040: b414 4b3e 46c3 4e3e 60bb 89be dea2 af3c
00000050: 2b6b ad39 0322 86be 0f3a 903e dc9f e93c
00000060: 10bc 9f3e 8f86 583c 46b0 cfbc b645 85bd
00000070: 05d1 763e 1905 51be 305e 053e 04bd 36be
00000080: 0a84 3abe 9dcd 0ebd e29a 8fbd 42a3 35bd
00000090: e4bf 443d be21 ef3d 727f 9d3e cc51 233d
000000a0: 7fe4 943e 9881 babd 5236 77be c81b 94be
000000b0: ac6b f33c 7f29 bcbc cb46 893c 74b4 333e
000000c0: 27f6 93bc 8134 84be fde1 1f3d 70e8 a23e
000000d0: b813 843e 274d 35bd 5f06 93be 0409 89ba
000000e0: 7d15 903d 4492 babe d90e 20bd fcda 093e
000000f0: 92e1 e73d 53fd 333e 969e 7f3e 9d02 033e
00000100: a177 853d 235b eabc 6e99 95bd e3ad 373c
00000110: 5ba0 733d 687c 14bd 8d93 533e f9c9 9abe
00000120: 06b6 ba3d a09f 9c3d 53f8 25be f436 f33d
00000130: 275a 1f3d 48c1 263d cc8a 1c3d e14f 343e
00000140: 86f2 d13d d0fe 053e 50e0 0a3c d26c 06bd
00000150: 8b4b 4f3d d3a9 fc3d e550 8f3e 9120 fcbd
00000160: d003 863e a47b 683d de90 dbbd ea5a 89bc
00000170: 91ad 55bd a27b 84be 232e f3bc b405 293d
00000180: 9179 f2bd 5e11 793e c1f3 653c 843b 71be
00000190: d022 2fbd 2c17 bc3d bebe 893e 717b 1e3e
000001a0: 42d5 5c3e df87 d1bd a05c 73be e426 643d
000001b0: 23f1 40be a24d 1a3c 02bd 143e a448 51be
000001c0: f159 1b3e a434 4c3e ee84 71be 21fe c7bd
000001d0: 6b73 c13d 0231 d93d b09a 0a3e ada0 dabd
000001e0: 83e1 1e3e 1b31 5d3e 48df 17bd 718f 28be
000001f0: e079 363e d7f5 51bc f0dd 6dbe acfb 45be
00000200: b803 893e 8a35 eb3d 8063 8ebe 005c fbbd
00000210: 1c1e 8bbe 25c3 85be fa13 913e 2dd3 243d
00000220: 00b4 9c3e df1c 5bbd 3eca 56be 85b7 d73d
00000230: 28e4 c6bd 12e5 51be 2b25 033e 8f60 5bbe
00000240: 1a03 043e 54a9 bd3d 59a5 07bd 3750 2e3e
00000250: e3f8 913e 130c 2d3e 7f01 96be d2dc 403e
00000260: 9510 bbbd cc23 99be 715b 3ebe 3a98 563d
00000270: 4216 0dbd 2db1 4b3e 8d1d ea3d ad12 fbbd
00000280: d7fb 013e 90c9 e6bd 8e00 bb3d 52c8 34be
00000290: 8730 df3d 0e75 0fbe 0584 7fbc 16d9 133d
000002a0: 3485 ca3d 6bab a93e 8c4c 4a3d 7b9d 123e
000002b0: 07b2 6a3c 5df9 65be 1b5a 243d 6a4c 36be
000002c0: 82b7 34be 7652 423d 7d18 323e b6d1 793c
000002d0: f46b 613e 7f3e 8b3b 4656 1bbe d41b 273e
000002e0: d7c9 88ba e1b5 8cbe d899 923e bdab f83d
000002f0: 9c51 203e 15b1 45bd e130 7a3e 5d9f aa3d
00000300: 996b 4cbe d0b2 d5bd 534e 833e 82b3 6f3e
00000310: 0c63 8b3e 60b5 10be c0a8 9f3c 00f3 1e3e
00000320: 924d 0bbe 06be b4bc 1cc4 64bc 45dc 073e
00000330: d868 4dbe 93aa 33be 3ef9 4f3b afd6 283e
00000340: 4d6b b8bb b8d0 3cbe b7cc 2cbe d2c7 053e
00000350: c770 983e 7037 d7bd dd05 e83d fd4e d7ba
00000360: 62eb c6bd a9f9 2cbe a492 77bd c157 263d
00000370: c6a3 81be 47ef 19be 1e9d 753e d355 f53d
00000380: f8dd 6c3d e7f6 1d3e 8ac1 87bc 4b5c 313e
00000390: a714 8f3c 4130 d13d 626e acbd 151c 783e
000003a0: 36b4 83be f619 5cbe b03a 2e3e a999 753e
000003b0: dfcd 583d 766d d13d b56a 883e e706 523e
000003c0: a043 563e c89c 10be 406b d23d 54f7 a0be
000003d0: 7348 93be d574 1fbe 1bc5 303e 8bc0 113e
000003e0: 6890 973e fefd 073e 3df0 a73c 4e4b 80bc
000003f0: 6e1c 2bba 5ee5 3e3d 5075 52be 5123 85be

net.2.bias f4 [32]
0.10920316 0.12668988 0.24430954 -0.15542683 0.31141043 0.14722396 0.1601159 0.056910366
0.2520347 -0.12266066 0.20914988 -0.17457584 -0.009962153 -0.16870512 -0.24212858 0.11891721
-0.14333007 -0.16740218 -0.019605862 0.13745522 -0.08405947 -0.11628011 -0.120148316 -0.112786405
0.1348127 -0.22805151 -0.30086246 -0.10539697 -0.028026322 0.11111649 -0.054912664 0.1104378
00000000: e8a5 df3d feba 013e 482c 7a3e 3628 1fbe
00000010: 3071 9f3e e1c1 163e 6cf5 233e d81a 693d
00000020: b10a 813e 8335 fbbd 632b 563e 02c4 32be
00000030: 4c38 23bc 09c1 2cbe 8ef0 77be de8a f33d
00000040: 1ec5 12be 7a6b 2bbe 799c a0bc 10c1 0c3e
00000050: 5f27 acbd 4424 eebd 5210 f6bd 8ffc e6bd
00000060: 570c 0a3e 5686 69be a50a 9abe 5eda d7bd
00000070: 7597 e5bc 0b91 e33d 1aec 60bd 372d e23d

net.4.weight f4 [64, 32]
-0.019321546 -0.048482284 0.17955187 0.05209067 0.06923317 0.2625817 0.00029664172 0.026998257
0.19667266 0.00801441 0.07308451 -0.14874607 -0.1202504 -0.10865089 -0.12682931 0.21081026
-0.088936836 0.019980418 0.02222168 0.016503178 -0.22461733 -0.21186453 0.04893812 -0.086483754
0.08285909 -0.20110025 -0.16463074 0.17892395 0.07420223 0.18888332 -0.19162863 -0.0030795545
-0.08251878 -0.1256581 -0.020766309 0.041983977 -0.06818973 -0.032792218 -0.20978147 0.025050825
-0.030195445 0.26584384 -0.24570142 -0.0065901885 0.041600578 0.20629194 -0.09230158 -0.13464083
-0.03404149 0.2062046 0.25219622 -0.24051464 0.21869099 -0.08762223 0.21227655 0.14285375
-0.11737205 0.033443227 0.07758361 -0.1983155 0.28792846 -0.19470754 0.15420668 -0.1302752
-0.10409693 0.021186467 0.03883278 -0.020098774 0.1134962 0.05390686 -0.016744383 -0.15622663
0.033542678 0.15014884 -0.15624346 0.12071066 0.1921316 0.15835513 0.08994688 -0.054518092
-0.015597262 -0.031938624 -0.09852695 -0.0860336 -0.06221079 -0.071161054 0.085446104 0.075267255
-0.17150715 0.05758127 -0.0314085 -0.061504144 0.25276017 -0.09120544 0.20581241 -0.03468157
-0.08636845 -0.21978778 -0.1838715 0.100517154 -0.17616296 -0.17968033 -0.15923883 -0.12693416
-0.01886132 0.015276411 -0.16241005 0.16686119 0.07128531 0.09236793 -0.007880372 -0.20717634
0.14163555 0.15186466 0.13503581 -0.049169727 -0.055515513 0.19951908 0.193159 -0.008691871
0.018644974 0.11600998 0.12755014 -0.06872512 0.076087125 -0.044785604 -0.09738733 -0.059007477
0.20490173 0.097349726 -0.06885285 -0.24064791 0.24271056 -0.0419832 0.18733457 0.07300444
0.015311367 -0.24596365 -0.046401396 -0.124458 -0.03720365 -0.011257603 0.049970035 0.087366
0.01345733 -0.018706294 0.07695036 0.062147275 0.028812759 0.08019354 -0.010247835 -0.09896343
0.24069627 -0.11503539 -0.20240097 0.07859819 -0.09617848 0.13233945 0.054710183 -0.023433512
0.016001446 -0.071033716 -0.037335824 -0.10236522 0.035136376 0.10533838 -0.014469761 -0.06710607
0.22696918 -0.108094424 -0.016938295 -0.13692966 -0.101860486 0.11347117 0.10600649 -0.0277908
-0.03557065 -0.16511261 -0.17009524 0.1455501 0.04539227 0.08313469 -0.20724234 -0.0032252714
0.120099254 -0.23708062 -0.090250865 0.24802235 -0.1008617 0.10392009 0.06227242 -0.022009524
0.037289985 -0.113841474 -0.033501342 0.069684684 0.10292509 0.08127338 0.16029988 -0.09155725
0.1974293 -0.2266423 0.07648487 -0.06982912 0.014654327 -0.2071307 -0.097463936 0.16455118
0.020433629 0.095177844 0.007441118 0.14854932 -0.20628695 0.054031864 -0.16516548 -0.0048341607
0.10992459 -0.097865686 -0.15712637 0.10692536 -0.07508679 -0.014817417 0.06884263 0.13256514
-0.014065058 0.08955791 -0.08730028 0.12557206 -0.0039118337 -0.031640396 -0.09735807 0.08679601
0.06964944 0.27331176 0.04531305 0.06814407 0.22991565 0.1779897 0.18967591 -0.18808937
-0.04647343 -0.08098293 0.19881552 -0.23467554 -0.037512906 -0.052427668 0.15023269 0.2105272
-0.10027874 0.09004491 0.13844243 -0.070437 0.103238426 -0.12454121 -0.04466591 -0.1919908
00000000: 3848 9ebc 5c95 46bd 72dc 373e 075d 553d
00000010: 1fca 8d3d 1c71 863e 9486 9b39 732b dd3c
00000020: 8f64 493e df4e 033c 55ad 953d e450 18be
00000030: d745 f6bd 5c84 debd 8bdf 01be a5de 573e
00000040: 8424 b6bd f9ad a33c 3e0a b63c ac31 873c
00000050: 1602 66be 04f3 58be 5773 483d 651e b1bd
00000060: 07b2 a93d 39ed 4dbe f694 28be d737 373e
00000070: 57f7 973d a16a 413e 4c3a 44be 5ad2 49bb
00000080: 9bff a8bd 84ac 00be 1b1e aabc 64f7 2b3d
00000090: 0fa7 8bbd 2251 06bd f4d0 56be 6337 cd3c
000000a0: 705c f7bc af1c 883e 2799 7bbe 82f2 d7bb
000000b0: 5e65 2a3d 323e 533e 9c08 bdbd 49df 09be
000000c0: 176f 0bbd 4c27 533e dd1f 813e 7849 76be
000000d0: 88f0 5f3e 4973 b3bd 065f 593e 4148 123e
000000e0: c260 f0bd c4fb 083d 28e4 9e3d 3813 4bbe
000000f0: 5c6b 933e 6a61 47be 5be8 1d3e dd66 05be
00000100: c530 d5bd 3e8f ad3c 1f0f 1f3d 2fa6 a4bc
00000110: b270 e83d 71cd 5c3d 842b 89bc e0f9 1fbe
00000120: 0c64 093d 9ec0 193e 49fe 1fbe 2737 f73d
00000130: 25be 443e d927 223e 1236 b83d 5d4e 5fbd
00000140: a98b 7fbc 13d2 02bd 7fc8 c9bd 6232 b0bd
00000150: bed0 7ebd e3bc 91bd 5efe ae3d b825 9a3d
00000160: 929f 2fbe 56da 6b3d 33a6 00bd c5eb 7bbd
00000170: c869 813e ebc9 babd 7dc0 523e 430e 0ebd
00000180: f1e1 b0bd 0c10 61be cf48 3cbe f0db cd3d
00000190: 1064 34be 1ffe 37be 810f 23be 07fb 01be
000001a0: 0e83 9abc e949 7a3c d24e 26be a9dd 2a3e
000001b0: 08fe 913d 662b bd3d ad1c 01bc 0926 54be
000001c0: e908 113e 6982 1b3e d446 0a3e 3266 49bd
000001d0: 3c64 63bd bb4e 4c3e 79cb 453e 5968 0ebc
000001e0: 58bd 983c a496 ed3d 819c 023e c1bf 8cbd
000001f0: 91d3 9b3d 1c71 37bd 0273 c7bd d3b1 71bd
00000200: c2d1 513e 4b5f c73d b902 8dbd 686c 76be
00000210: 1e89 783e 93f6 2bbd a2d4 3f3e 5a83 953d
00000220: 87dc 7a3c e5dd 7bbe 640f 3ebd d6e3 febd
00000230: db62 18bd cf71 38bc 61ad 4c3d f2ec b23d
00000240: 227c 5c3c f13d 99bc 2698 9d3d 248e 7e3d
00000250: bc08 ec3c 833c a43d 89e6 27bc 57ad cabd
00000260: 1579 763e ad97 ebbd 3342 4fbe 16f8 a03d
00000270: 39f9 c4bd fe83 073e c917 603d a3f7 bfbc
00000280: 7715 833c 207a 91bd 73ed 18bd dba4 d1bd
00000290: 29eb 0f3d a6bb d73d 9412 6dbc e86e 89bd
000002a0: 9c6a 683e 9c60 ddbd 2ec2 8abc 4a37 0cbe
000002b0: 3b9c d0bd 9363 e83d ee19 d93d 88a9 e3bc
000002c0: 88b2 11bd 4813 29be 722d 2ebe 160b 153e
000002d0: 3fed 393d 8542 aa3d 5637 54be 135f 53bb
000002e0: 99f6 f53d 43c5 72be 72d5 b8bd 92f9 7d3e
000002f0: 9490 cebd 0ed4 d43d 5d11 7f3d 514d b4bc
00000300: 62bd 183d b825 e9bd b438 09bd d8b6 8e3d
00000310: 64ca d23d a872 a63d a725 243e 5e82 bbbd
00000320: e82a 4a3e eb14 68be 19a4 9c3d 9202 8fbd
00000330: b418 703c 121a 54be 2c9b c7bd 1b80 283e
00000340: 6d64 a73c 9aec c23d 9fd4 f33b 501d 183e
00000350: e33c 53be 8450 5d3d 2421 29be e167 9ebb
00000360: 2520 e13d ce6d c8bd bce5 20be affb da3d
00000370: 1ac7 99bd c0c4 72bc 5dfd 8c3d 28bf 073e
00000380: 2171 66bc 236a b73d 7dca b2bd f695 003e
00000390: d72e 80bb 5c99 01bd ab63 c7bd 1bc2 b13d
000003a0: 5ea4 8e3d 85ef 8b3e 2d9a 393d 1e8f 8b3d
000003b0: 026f 6b3e ef42 363e 673a 423e 809a 40be
000003c0: ec5a 3ebd 61da a5bd 4c96 4b3e c94e 70be
000003d0: 22a7 19bd 65be 56bd 99d6 193e 7194 573e
000003e0: f15e cdbd 7769 b83d dac3 0d3e 4641 90bd
000003f0: ab6e d33d 760f ffbd 9af3 36bd 3c99 44be

net.4.bias f4 [64]
0.18625124 0.09143386 0.14491923 -0.1855262 0.005725611 0.21707262 0.1828861 0.09166912
-0.13085294 0.0458829 0.04064018 -0.15872486 -0.032954544 -0.028367944 -0.1692996 0.07298408
0.17020407 -0.14875379 -0.21525168 -0.08368839 -0.06190665 -0.1347103 -0.20952545 0.23506261
-0.005264874 0.10398415 -0.22107469 0.049685687 0.052534748 0.21407112 -0.16588156 -0.110368274
0.094565146 -0.14312327 -0.020642057 -0.014575401 -0.09964107 -0.16750805 0.10451349 -0.043917235
-0.10474082 -0.046115376 -0.031067079 -0.16852441 0.020393021 -0.044748917 0.14152992 -0.018585589
-0.18408072 -0.08401131 0.13083959 -0.067314014 -0.07974726 0.059210844 0.09429644 -0.19049756
0.103428856 0.026052333 0.029548526 0.027848167 0.058279842 0.040794175 -0.13471265 0.057906408
00000000: a5b8 3e3e ad41 bb3d b565 143e 95fa 3dbe
00000010: e89d bb3b 4948 5e3e 7e46 3b3e 05bd bb3d
00000020: 50fe 05be b5ef 3b3d 5176 263d c588 22be
00000030: 58fb 06bd e463 e8bc e05c 2dbe ad78 953d
00000040: fa49 2e3e ea52 18be f06a 5cbe d264 abbd
00000050: d491 7dbd 7ff1 09be d78d 56be 41b4 703e
00000060: f784 acbb a4f5 d43d 6761 62be 3883 4b3d
00000070: ad2e 573d 7635 5b3e dbdc 29be c308 e2bd
00000080: 5fab c13d e88e 12be 8819 a9bc aacd 6ebc
00000090: 9e10 ccbd 3b87 2bbe 2b0b d63d 8fe2 33bd
000000a0: 5b82 d6bd 7ae3 3cbd 6380 febc aa91 2cbe
000000b0: 440f a73c a44a 37bd 38ed 103e ce40 98bc
000000c0: a87f 3cbe 1f0e acbd d0fa 053e eedb 89bd
000000d0: 8852 a3bd 1287 723d 7e1e c13d cb11 43be
000000e0: 82d2 d33d b46b d53c c00f f23c d721 e43c
000000f0: d8b6 6e3d cb17 273d 1df2 09be 452f 6d3d

net.6.weight f4 [8, 64]
-0.016971894 0.079721704 0.030683333 0.13415855 -0.18856244 0.011204611 -0.10292339 0.0722051
0.088742256 -0.10544025 0.09087005 0.08429404 -0.024052931 -0.1361924 0.045430344 0.010260938
-0.17153785 0.18316898 0.04864573 0.042268135 0.1485861 0.08021892 0.06674468 -0.012898208
-0.07263924 -0.006883712 0.13822979 0.13729346 -0.23429394 -0.08157767 0.15932453 0.024644176
-0.13517913 0.09762308 0.20307152 -0.10681866 0.07934937 0.1572742 -0.09139486 -0.1154753
-0.035609037 0.04798 0.18970951 0.15835044 -0.011131243 0.031552088 -0.07924103 0.03389488
0.10143744 0.04655057 0.08237451 -0.052118678 -0.13217632 -0.08899641 -0.13593456 0.09407349
-0.12758286 -0.041897863 0.15185784 -0.058802094 0.01589277 0.034126185 0.12995161 0.015003955
-0.09823662 0.23186685 0.114340685 -0.052747816 -0.17595634 -0.06843145 -0.07422748 0.15965962
0.1387261 -0.04127489 0.053169463 0.019672235 -0.16203183 -0.0928492 0.19298925 -0.03943046
-0.18292694 0.16634612 0.05660262 -0.0918785 0.19663215 -0.031431373 -0.0026238903 -0.15688059
-0.122383624 0.03592343 0.11015577 -0.06361459 -0.10336746 -0.10066168 -0.030750748 -0.04137571
-0.032372963 0.14696696 0.17097571 -0.07071382 0.10657737 0.02180061 -0.14697386 -0.15051183
6.1603256e-05 0.07635536 0.1653888 0.09187733 0.023138346 0.16462809 0.05953611 0.08503828
-0.036717065 0.08685365 0.1279919 -0.19329935 -0.10963704 -0.09659458 -0.17739438 0.15523736
-0.101692416 -0.05168158 -0.057329204 -0.11656397 -0.087572075 -0.15724485 0.09515925 -0.011111983
-0.05450828 0.12511487 0.12717873 0.02620319 -0.1677667 -0.17004402 -0.08147709 0.17207244
0.13538711 -0.060402125 0.12856296 0.0602693 -0.086092085 -0.07647083 0.12212224 0.0450456
-0.057185687 0.05401242 0.12014112 -0.08038081 0.062598966 0.07354855 0.03264841 -0.021623332
-0.10991229 -0.09855344 0.031466912 -0.06743387 -0.11524346 -0.16015302 0.1347044 0.098063186
-0.0805967 -0.012470663 0.11849315 -0.123385206 0.006631778 0.0073345047 -0.19502017 -0.02895568
0.16530104 0.0075607137 0.064420916 0.02505064 -0.10995975 0.18277785 0.037599266 0.13064821
0.16029197 0.10865848 0.1319351 -0.105132185 0.020477341 -0.13496798 -0.055504765 0.05503303
-0.004515701 -0.15533818 0.09971915 -0.093928255 -0.14791122 -0.11448418 0.1449831 0.14941712
-0.09780657 0.1615662 -0.027276793 0.13978301 -0.0041049593 -0.15601389 -0.00048792342 0.094171934
0.008886135 -0.019285873 0.14151739 0.07784754 -0.17768967 -0.11334849 0.115534045 -0.16500115
-0.13993046 0.13685909 0.09777298 -0.053192668 0.01540046 0.17474459 0.011339886 -0.031152308
-0.13679555 -0.16810724 -0.0012368783 0.04444538 -0.09977951 -0.13903335 0.1043318 0.13036712
0.017156914 0.036138617 -0.03257744 -0.11485917 0.1322911 0.16033651 -0.045750383 -0.1514414
0.088425465 0.120993264 0.08743098 0.11547224 -0.010606319 -0.011459159 -0.05594734 0.08889051
0.07807447 0.078276776 0.14626352 -0.11861573 0.017404933 -0.060110435 -0.14583223 0.13940895
-0.1287086 -0.15522386 0.16525675 0.02118044 -0.029792763 0.03745714 0.049385592 0.191445
00000000: a408 8bbc 2245 a33d 9d5b fb3c dc60 093e
00000010: 8316 41be 8b93 373c 80c9 d2bd 44e0 933d
00000020: 80be b53d 0ff1 d7bd 141a ba3d 5ba2 ac3d
00000030: a70a c5bc 0576 0bbe 2b15 3a3d 7e1d 283c
00000040: 9ea7 2fbe a690 3b3e bf40 473d 5a21 2d3d
00000050: f426 183e d149 a43d 6fb1 883d 0153 53bc
00000060: e2c3 94bd c390 e1bb 1c8c 0d3e a896 0c3e
00000070: c0ea 6fbe 3212 a7bd f825 233e 95e2 c93c
00000080: 666c 0abe 9cee c73d fbf1 4f3e bec3 dabd
00000090: ec81 a23d 7d0c 213e 3a2d bbbd 507e ecbd
000000a0: c8da 11bd ad86 443d 3643 423e 9e26 223e
000000b0: d15f 36bc c33c 013d 1f49 a2bd 5cd5 0a3d
000000c0: 6fbe cf3d cfab 3e3d f8b3 a83d 657a 55bd
000000d0: 3b59 07be c043 b6bd 6e32 0bbe 9aa9 c03d
000000e0: 15a5 02be 189d 2bbd 9f80 1b3e 77da 70bd
000000f0: 8e31 823c e6c7 0b3d 0912 053e 26d3 753c
00000100: 4830 c9bd 816e 6d3e 732b ea3d 180e 58bd
00000110: e62d 34be ca25 8cbd 9404 98bd d07d 233e
00000120: 370e 0e3e dc0f 29bd 39c8 593d ab27 a13c
00000130: aceb 25be b927 bebd f99e 453e d681 21bd
00000140: 3351 3bbe a356 2a3e 26d8 673d cc2a bcbd
00000150: f059 493e 2fbe 00bd 93f5 2bbb 4ea5 20be
00000160: 44a4 fabd 7224 133d 5999 e13d 5e48 82bd
00000170: 52b2 d3bd b627 cebd fee8 fbbc 9479 29bd
00000180: 8399 04bd 827e 163e 4214 2f3e 68d2 90bd
00000190: 3c45 da3d 3197 b23c 5180 16be c61f 1abe
000001a0: ff30 8138 3360 9c3d ae5b 293e 2e2a bc3d
000001b0: a18c bd3c 4494 283e 23dc 733d 8d28 ae3d
000001c0: a264 16bd 54e0 b13d 4f10 033e 44f0 45be
000001d0: 6289 e0bd 61d3 c5bd dfa6 35be 8bf6 1e3e
000001e0: 1d44 d0bd 10b0 53bd 07d2 6abd 17b9 eebd
000001f0: fd58 b3bd cb04 21be dae2 c23d 090f 36bc
00000200: 1344 5fbd 1d1e 003e 243b 023e 13a8 d63c
00000210: 09cb 2bbe 0520 2ebe 76dd a6bd c233 303e
00000220: eba2 0a3e 3868 77bd 02a6 033e f1dc 763d
00000230: 0c51 b0bd bd9c 9cbd 3a1b fa3d bc81 383d
00000240: 8a3b 6abd 213c 5d3d 8c0c f63d b29e a4bd
00000250: e333 803d 9fa0 963d 57ba 053d 6a23 b1bc
00000260: b219 e1bd 63d6 c9bd 73e3 003d c51a 8abd
00000270: c304 ecbd 27ff 23be f3ef 093e 5ad5 c83d
00000280: e20f a5bd c051 4cbc 89ac f23d 62b1 fcbd
00000290: 634f d93b 4956 f03b 5eb3 47be 7634 edbc
000002a0: ad44 293e ddbf f73b 1def 833d 0037 cd3c
000002b0: 9432 e1bd 1e2a 3b3e b001 1a3d a5c8 053e
000002c0: 9423 243e 5688 de3d ff19 073e 8b4f d7bd
000002d0: 19c0 a73c 0c35 0abe f758 63bd 516a 613d
000002e0: 72f8 93bb f910 1fbe 8e39 cc3d 755d c0bd
000002f0: 0a76 17be af76 eabd 7376 143e cd00 193e
00000300: d04e c8bd 9c71 253e 9573 dfbc 4723 0f3e
00000310: e582 86bb 1bc2 1fbe f9cf ffb9 37dd c03d
00000320: 2797 113c 68fd 9dbc efe9 103e 886e 9f3d
00000330: 48f4 35be 4123 e8bd 1d9d ec3d 10f6 28be
00000340: ee49 0fbe ca24 0c3e 333d c83d 8ee0 59bd
00000350: 3652 7c3c 3ff0 323e eeca 393c 2033 ffbc
00000360: 2214 0cbe 4e24 2cbe c01e a2ba 5c0c 363d
00000370: 3359 ccbd c25e 0ebe e9ab d53d f57e 053e
00000380: a88c 8c3c 1606 143d ec6f 05bd 493b ebbd
00000390: 5177 073e 412f 243e c164 3bbd 7413 1bbe
000003a0: 6918 b53d 51cb f73d 030f b33d b67c ec3d
000003b0: 20c6 2dbc 32bf 3bbc 0a29 65bd 3a0c b63d
000003c0: 82e5 9f3d 934f a03d 1bc6 153e ceec f2bd
000003d0: ca94 8e3c 5c36 76bd 0b55 15be 38c1 0e3e
000003e0: 30cc 03be 01f3 1ebe 1139 293e 9a82 ad3c
000003f0: f40f f4bc a86c 193d 8c48 4a3d 280a 443e

net.6.bias f4 [8]
0.03805295 -0.086568475 -0.026841465 0.008063547 -0.057510354 0.005473469 -0.11892185 0.0139285065
00000000: 69dd 1b3d d04a b1bd a2e2 dbbc f81c 043c
00000010: fa8f 6bbd c95a b33b 4d8d f3bd 6434 643c

net.8.weight f4 [1, 8]
-0.68541604 -0.60093987 -0.6158863 -0.72651815 -0.5629731 0.62071395 -0.7539423 0.67519766
00000000: 6d77 2fbf 32d7 19bf b9aa 1dbf 18fd 39bf
00000010: 011f 10bf 1ce7 1e3f 5d02 41bf c1d9 2c3f
