models/cartpole/z_decoder.pth (torch, 9372 bytes, 6 tensors)

net.0.weight f4 [16, 4]
0.27120152 -0.10589686 -0.0020551458 0.27562478 -0.3892197 -0.35038432 0.2889851 -0.22864765
-0.19841577 -0.03313066 0.20846891 -0.031566355 0.12655015 0.3658707 -0.053198773 -0.024452416
0.3396492 -0.34632134 0.25976688 -0.43467167 -0.1076924 -0.040360354 0.28715402 0.33844745
-0.10493501 -0.38322324 0.3172359 0.3911256 0.082654655 -0.3407028 0.44882903 0.44911006
0.07959237 -0.31035435 -0.24695691 0.359017 -0.3885859 0.08933098 -0.3713402 0.17648955
-0.23718598 -0.05175177 0.2989155 0.40907046 0.27096853 0.23806138 0.36509454 0.31155053
-0.047598206 0.25658685 -0.04716402 -0.12750132 -0.047177535 -0.021993179 0.30999377 0.3280078
-0.3100549 -0.36250943 0.26455486 -0.22484335 0.311951 -0.30227435 -0.41874015 -0.34367788
00000000: edda 8a3e 74e0 d8bd a0af 06bb b11e 8d3e
00000010: ce47 c7be 9365 b3be dbf5 933e 9c22 6abe
00000020: 812d 4bbe 04b4 07bd e078 553e b94b 01bd
00000030: 5d96 013e 6853 bb3e f5e6 59bd 6f50 c8bc
00000040: 80e6 ad3e 0851 b1be 2a00 853e 498d debe
00000050: d58d dcbd e650 25bd da05 933e fc48 ad3e
00000060: 2be8 d6bd d635 c4be be6c a23e 9d41 c83e
00000070: d846 a93d 9970 aebe ebcc e53e c1f1 e53e
00000080: 5301 a33d c4e6 9ebe 46e2 7cbe 14d1 b73e
00000090: bbf4 c6be 29f3 b63d 4d20 bebe adb9 343e
000000a0: e2e0 72be aaf9 53bd 740b 993e af71 d13e
000000b0: 63bc 8a3e 5dc6 733e aced ba3e 8d83 9f3e
000000c0: 56f6 42bd 5a5f 833e 0f2f 41bd b58f 02be
000000d0: 3b3d 41bd 0a2b b4bc 81b7 9e3e a3f0 a73e
000000e0: 84bf 9ebe d69a b9be bc73 873e 563d 66be
000000f0: 0bb8 9f3e b4c3 9abe 1c65 d6be 8cf6 afbe

net.0.bias f4 [16]
-0.157483 -0.20827508 -0.3941057 -0.3401972 0.4160337 0.42957732 0.105884835 0.3920816
-0.10023345 -0.14880815 0.38655654 0.38758698 0.29235247 0.39157555 -0.1820001 -0.16930713
00000000: 3943 21be 1046 55be 39c8 c9be 542e aebe
00000010: 5e02 d53e 8ff1 db3e 26da d83d ebbe c83e
00000020: 3247 cdbd 2a61 18be bdea c53e cd71 c63e
00000030: 39af 953e 977c c83e 3c5e 3abe d95e 2dbe

net.2.weight f4 [64, 16]
-0.10623456 -0.09531238 0.21555775 0.04645488 -0.17586625 0.20978217 0.06999982 -0.13954753
-0.05907418 0.055546846 0.212329 0.19700931 0.100077435 0.24353668 0.12556009 -0.055882994
-0.09560492 -0.14376579 -0.07417207 -0.18546963 0.22823185 -0.24171902 -0.03943412 0.14754386
0.056948878 0.0055694412 0.22855668 0.026684264 -0.13048387 -0.22558868 0.0106360875 -0.1488557
-0.16040902 -0.10152088 -0.0833039 -0.027346862 -0.21354724 0.2009113 0.040363215 -0.20073657
0.17302544 -0.15817739 0.09365953 -0.21945933 0.012723158 -0.029791437 0.119347245 -0.21273841
0.080401614 -0.16961768 0.21658573 -0.19270326 -0.006929599 -0.065492965 0.18979643 -0.2050312
0.040042438 -0.20919849 -0.21028577 -0.123513855 0.09250383 -0.21065226 -0.12939906 -0.0742454
0.049834225 0.03933251 -0.0022034305 -0.040757395 -0.11784667 0.18813197 0.015231828 0.095414326
-0.060120728 -0.09936137 -0.23334032 0.188303 -0.17156884 0.17122273 0.10723296 -0.23252334
-0.17900774 0.19813012 -0.17192687 0.2127934 0.16235489 -0.0577824 0.03640357 -0.057640094
-0.13107468 0.116773374 0.012618427 0.031650513 0.13194714 0.0020324911 0.025749933 0.14521694
-0.1546637 -0.2113169 0.06037817 -0.15958275 -0.11195451 0.19230443 0.092234395 0.18341069
-0.10190616 0.14143877 -0.19036986 0.16520222 -0.100624144 0.15053032 0.047170337 -0.029976549
-0.02921915 0.197534 0.20380077 -0.08698303 -0.06643164 -0.18092957 -0.01691684 0.1828917
-0.21968241 -0.05598983 -0.087925255 0.016951542 -0.17124015 0.08521027 0.0070168283 0.14589737
0.05459684 -0.03339141 -0.22274199 -0.052538864 -0.038811546 -0.21349514 0.2161425 0.02964287
-0.09660739 0.1944769 -0.18924953 -0.007423067 0.18714082 -0.16043901 0.20603338 -0.19648904
0.09459605 -0.019701649 0.0075960476 0.030791154 -0.19491108 -0.18002948 -0.070773505 0.18121605
0.13372403 0.1916439 0.15171185 0.11996251 0.09990555 -0.2569107 0.021123055 0.108880475
-0.12528326 -0.06698293 -0.01576607 -0.28176582 -0.121542595 -0.20916066 0.188543 -0.19442277
-0.10162672 -0.18064342 0.1420626 -0.09265113 -0.047603518 0.20137191 0.039753113 0.045639772
0.024013685 -0.16260931 -0.16612695 0.032853812 0.26381028 -0.12125318 0.10516636 0.2026416
-0.136264 0.23131263 0.13618053 0.12324243 -0.20985581 0.21675614 0.2229341 0.17556822
0.08684072 -0.10546205 -0.26643193 0.2139729 0.1502289 -0.24516356 0.19048427 -0.14954264
-0.027305346 -0.19394302 0.06562715 0.004696436 -0.09608432 -0.12551905 0.1227212 -0.18414408
-0.06116772 -0.1929237 -0.12740456 0.1029759 -0.09753799 -0.12917683 -0.1728995 0.07922349
0.030891282 -0.08329579 -0.052695923 0.18544741 -0.15572417 0.10587096 0.09968474 -0.17261708
-0.11572751 -0.16034523 0.029410714 -0.1938687 -0.16180071 0.18193877 0.2114602 0.12072225
-0.21458574 0.22118104 -0.017618982 0.016957944 0.15626329 -0.029660545 -0.18086219 0.011530871
-0.12013801 -0.20654121 -0.10853899 0.22128089 -0.18509081 0.24802566 -0.17814198 -0.14612891
0.004315557 0.09450934 0.06606526 -0.20631321 0.08381591 -0.1683295 0.089439064 0.18044643
00000000: 8191 d9bd 2333 c3bd 2cbb 5c3e 7947 3e3d
00000010: 4816 34be 23d1 563e 115c 8f3d 8ce5 0ebe
00000020: c4f7 71bd 1785 633d c66c 593e cfbc 493e
00000030: 66f5 cc3d ae61 793e d392 003e 91e5 64bd
00000040: 83cc c3bd 5737 13be 87e7 97bd c0eb 3dbe
00000050: 9cb5 693e 3185 77be ac85 21bd bd15 173e
00000060: 3a43 693d dc7f b63b c30a 6a3e f598 da3c
00000070: 909d 05be b800 67be fc42 2e3c a16d 18be
00000080: 4342 24be 2eea cfbd 3c9b aabd 8706 e0bc
00000090: 21ac 5abe b1bb 4d3e e653 253d e38d 4dbe
000000a0: 952d 313e 41f9 21be 91d0 bf3d f2b9 60be
000000b0: cb74 503c 2c0d f4bc 546c f43d 19d8 59be
000000c0: 9aa9 a43d 42b0 2dbe a6c8 5d3e 0154 45be
000000d0: b111 e3bb 2d21 86bd ff59 423e b3f3 51be
000000e0: 8a03 243d 2138 56be 2755 57be d5f4 fcbd
000000f0: a672 bd3d 3ab5 57be 3081 04be f90d 98bd
00000100: f91e 4c3d 201b 213d 6e67 10bb 3af1 26bd
00000110: 9859 f1bd aba5 403e eb8e 793c 9668 c33d
00000120: 2741 76bd f97d cbbd c4f0 6ebe 80d2 403e
00000130: beaf 2fbe 0355 2f3e f49c db3d 991a 6ebe
00000140: ce4d 37be 9fe2 4a3e 990d 30be 83e6 593e
00000150: 5c40 263e 3dad 6cbd e91b 153d 0518 6cbd
00000160: 7138 06be e126 ef3d 85bd 4e3c f8a3 013d
00000170: 271d 073e 8b33 053b 86f1 d23c c0b3 143e
00000180: 2960 1ebe 7563 58be 1a4f 773d a969 23be
00000190: 6848 e5bd 74eb 443e 63e5 bc3d 03d0 3b3e
000001a0: 2db4 d0bd 53d5 103e 51f0 42be c52a 293e
000001b0: 0814 cebd 9f24 1a3e af35 413d 6191 f5bc
000001c0: 005d efbc 5a46 4a3e 26b1 503e 2924 b2bd
000001d0: 500d 88bd 9a45 39be 2f95 8abc f647 3b3e
000001e0: 6df4 60be 9855 65bd 2812 b4bd f6dd 8a3c
000001f0: 9459 2fbe b982 ae3d 6ced e53b 1f66 153e
00000200: f0a0 5f3d 6ec5 08bd 7a16 64be fe32 57bd
00000210: dbf8 1ebd 789e 5abe 7654 5d3e 9bd5 f23c
00000220: 18da c5bd f424 473e a1ca 41be 333d f3bb
00000230: d8a1 3f3e 204a 24be 6afa 523e 6c34 49be
00000240: 93bb c13d 5a65 a1bc 44e8 f83b bb3d fc3c
00000250: c596 47be a659 38be b3f1 90bd b390 393e
00000260: f4ee 083e 4c3e 443e 5a5a 1b3e e8ae f53d
00000270: 489b cc3d cd89 83be 420a ad3c bafc de3d
00000280: 414a 00be 592e 89bd d827 81bc 9c43 90be
00000290: 53eb f8bd 362e 56be 6b11 413e c316 47be
000002a0: ab21 d0bd 97fa 38be dc78 113e e0bf bdbd
000002b0: e8fb 42bd 7034 4e3e 29d4 223d c5f0 3a3d
000002c0: 59b8 c43c 0e83 26be 2f1d 2abe b891 063d
000002d0: 2412 873e 9653 f8bd 7661 d73d 4881 4f3e
000002e0: ca88 0bbe 38dd 6c3e e972 0b3e 8766 fc3d
000002f0: 71e4 56be 52f5 5d3e d648 643e 28c8 333e
00000300: 8cd9 b13d 7dfc d7bd c469 88be b61b 5b3e
00000310: 9bd5 193e 280c 7bbe 4f0e 433e b521 19be
00000320: 76af dfbc 0099 46be 8767 863d 90e4 993b
00000330: dbc7 c4bd 1188 00be 4155 fb3d 4490 3cbe
00000340: 018b 7abd ca8d 45be 5776 02be 07e5 d23d
00000350: ffc1 c7bd ee46 04be 910c 31be ed3f a23d
00000360: b70f fd3c fc96 aabd aed7 57bd ede5 3d3e
00000370: 2876 1fbe e0d2 d83d 8327 cc3d 88c2 30be
00000380: 8b02 edbd 8a31 24be bdee f03c 8485 46be
00000390: 16af 25be 284e 3a3e 0689 583e 3a3d f73d
000003a0: 5dbc 5bbe 487d 623e af55 90bc 63eb 8a3c
000003b0: 7c03 203e acfa f2bc f033 39be faeb 3c3c
000003c0: eb0a f6bd 8a7f 53be b149 debd 7597 623e
000003d0: 7288 3dbe 70fa 7d3e da6a 36be d1a2 15be
000003e0: 8469 8d3b 1d8e c13d 394d 873d c543 53be
000003f0: ada7 ab3d 925e 2cbe d42b b73d f3c6 383e

net.2.bias f4 [64]
-0.05999976 0.052140392 -0.14316672 -0.20999368 0.15842794 -0.08877869 0.22939841 -0.08142442
-0.008807023 -0.08942502 -0.059583317 -0.08402266 0.15685654 -0.023631807 -0.05878717 0.056510467
0.13693057 0.11347434 -0.12075249 0.06916745 0.14918023 -0.2541655 0.08936589 -0.17394288
-0.20051005 -0.05399351 -0.118473746 0.07201424 0.13014713 0.045467783 -0.017798614 -0.12417834
-0.24707289 -0.20214629 0.0017496444 0.11577521 0.054541346 0.14542943 0.026022088 -0.016103756
0.08787395 0.22431847 -0.051947374 -0.0903101 -0.0006815856 -0.0920518 -0.259475 0.020803954
0.098820105 0.19830477 -0.20214982 -0.11647686 0.19025764 0.09718847 -0.12223465 -0.056001615
-0.12142114 0.18406813 0.09229268 -0.17797053 -0.047884114 -0.216643 0.09178382 0.01236548
00000000: 4fc2 75bd 2a91 553d 4c9a 12be 9508 57be
00000010: ef3a 223e 9ad1 b5bd 6be7 6a3e d9c1 a6bd
00000020: 554b 10bc 7724 b7bd a30d 74bd 1314 acbd
00000030: 009f 203e 7e97 c1bc d1ca 70bd 8577 673d
00000040: 8737 0c3e 3c65 e83d 154d f7bd aaa7 8d3d
00000050: b4c2 183e fb21 82be 7705 b73d 151e 32be
00000060: 8252 4dbe 4c28 5dbd 5da2 f2bd 347c 933d
00000070: 4a45 053e 6d3c 3a3d 66ce 91bc 3751 febd
00000080: ad00 7dbe 70ff 4ebe 5354 e53a 8e1b ed3d
00000090: bf66 5f3d 74eb 143e 462c d53c 06ec 83bc
000000a0: 42f7 b33d beb3 653e c5c6 54bd 80f4 b8bd
000000b0: 6fac 32ba a785 bcbd e8d9 84be 0e6d aa3c
000000c0: 3262 ca3d 6810 4b3e 5d00 4fbe 6c8b eebd
000000d0: e6d2 423e c00a c73d 2956 fabd f361 65bd
000000e0: a6ab f8bd 5b7c 3c3e f203 bd3d e83d 36be
000000f0: 2222 44bd aad7 5dbe 28f9 bb3d 9598 4a3c

net.4.weight f4 [8, 64]
0.026868647 0.008728708 -0.038311474 0.09228228 0.10279364 -0.009836552 -0.032254476 0.08794949
0.07030991 0.025992788 0.020243965 0.051152624 -0.12225964 -0.063967936 0.055790674 -0.082438104
0.0429756 -0.055338632 0.060024474 -0.009562849 -0.01872455 0.028694598 -0.105667844 -0.079765886
0.0064953663 0.06796943 0.010018659 0.03788391 0.099914715 -0.088803895 -0.106497414 -0.009021287
0.10969647 0.08057734 0.0016978326 -0.060718697 0.0042585665 -0.056212623 -0.06869165 0.013708787
0.04489331 0.06496565 0.10642212 0.1154299 -0.008455604 0.03472286 0.013925962 0.008399321
-0.021481227 0.090920106 -0.05250811 0.1408205 0.11038678 -0.12947804 -0.06690355 -0.009736906
0.086184606 0.079752564 0.018235601 -0.08523516 -0.029818729 -0.0044972585 0.11580535 -0.09237023
-0.12629578 -0.018883426 0.032125626 0.007439383 0.0109299375 0.008674359 0.10280243 -0.07303654
0.029408325 0.018416436 -0.068996124 -0.09046794 -0.09948414 -0.0036690503 0.02312243 -0.10405046
0.009850565 -0.042566285 -0.11193782 0.004246314 -0.057979602 0.060933653 0.112837456 0.035200324
-0.015328492 -0.09608036 0.0014586314 0.0036350924 0.079034574 -0.049535125 0.036121696 -0.013305377
-0.08680843 0.06302655 0.013947781 -0.09591132 -0.120475434 -0.028279401 0.08337529 0.035462495
0.11282033 -0.06099258 -0.03424805 0.061892148 -0.032435264 -0.082871616 0.007043205 -0.062369462
0.07822916 0.06116119 0.05661938 -0.049749147 0.13589288 -0.11539216 -0.017173856 0.021251531
0.07749924 -0.02962015 0.057750836 -0.07551988 -0.0055922475 -0.07666074 -0.06984175 -0.11773118
-0.061045926 -0.06450877 -0.05544357 -0.0164685 0.104947045 0.04815934 -0.057985846 -0.011048559
-0.0037853427 -0.016136756 0.018047584 0.076046176 -0.07033794 -0.060133845 -0.018317288 -0.021661522
0.04621066 0.1020472 -0.06767881 0.09678594 -0.038571764 -0.11809202 0.11848472 -0.0013985201
0.015607746 -0.094421 0.08557918 -0.07807375 0.018451983 0.08074496 0.03884198 -0.010239346
0.103939116 0.023083959 -0.07410945 0.14448956 0.0012177904 -0.049239602 0.08223014 0.09595593
0.021351352 0.11265221 0.0992527 0.06496957 -0.1348429 0.063655995 -0.09925254 0.020389132
-0.008153296 -0.105409205 0.06106934 -0.077056125 0.065515645 -0.008336484 0.06633325 -0.02578211
0.042535786 -0.024742296 -0.106141604 0.009603209 0.10616789 0.016036244 -0.009333388 -0.0031346602
-0.006816304 0.08148572 0.017821165 -0.013857811 0.0034283022 -0.1003539 -0.0687307 0.06807641
0.040569384 -0.05988532 -0.10920516 0.05182753 -0.045062713 0.043452337 0.12313077 0.049614113
-0.06470713 -0.08588391 -0.07106074 0.0876228 0.06567018 0.050209787 -0.06339457 -0.03502229
0.09311445 0.036260914 0.057448845 0.023458423 -0.0076434966 -0.08507765 -0.09929451 -0.002844167
-0.12398507 0.004689655 0.031350356 -0.043820683 0.055829 -0.03790244 0.05226838 0.10390303
0.044335444 0.0019509456 0.05393676 -0.04287386 -0.038483795 -0.055112258 -0.07178748 -0.08516117
0.02122857 -0.0791063 -0.078391045 0.00958269 -0.04863404 -0.044120707 -0.06297353 0.07185764
0.09173734 0.011192844 0.12516162 0.020998783 -0.114662655 -0.029181715 -0.019695014 0.010888146
00000000: a31b dc3c db02 0f3c 7eec 1cbd 7efe bc3d
00000010: 7985 d23d 7d29 21bc 451d 04bd dd1e b43d
00000020: a4fe 8f3d d4ee d43c acd6 a53c 6a85 513d
00000030: 4363 fabd 9f01 83bd c384 643d 4fd5 a8bd
00000040: 2f07 303d c3aa 62bd 39dc 753d 7fad 1cbc
00000050: 3a64 99bc ef10 eb3c 6268 d8bd 4c5c a3bd
00000060: 15d7 d43b 8e33 8b3d 4d25 243c 292c 1b3d
00000070: 16a0 cc3d d1de b5bd 511b dabd 05ce 13bc
00000080: 8ba8 e03d bc05 a53d cf89 de3a 2bb4 78bd
00000090: 728b 8b3b 353f 66bd 35ae 8cbd d29a 603c
000000a0: 0ce2 373d b60c 853d d7f3 d93d 8366 ec3d
000000b0: 6089 0abc 8f39 0e3d b829 643c 4e9d 093c
000000c0: 66f9 afbc 5234 ba3d be12 57bd 4033 103e
000000d0: 7712 e23d e495 04be ba04 89bd 8b87 1fbc
000000e0: 8e81 b03d 5055 a33d d462 953c c68f aebd
000000f0: 6846 f4bc bd5d 93bb 5b2b ed3d 9a2c bdbd
00000100: ae53 01be 6ab1 9abc 2996 033d 11c6 f33b
00000110: 7b13 333c e61e 0e3c 158a d23d 2e94 95bd
00000120: bae9 f03c 11de 963c d74d 8dbd 4147 b9bd
00000130: 57be cbbd 7374 70bb 406b bd3c 6818 d5bd
00000140: 4464 213c fc59 2ebd a83f e5bd aa24 8b3b
00000150: 057c 6dbd 9195 793d 5317 e73d 372e 103d
00000160: 5b24 7bbc c8c5 c4bd 8c2f bf3a bb3a 6e3b
00000170: e1dc a13d 58e5 4abd 58f4 133d ccfe 59bc
00000180: 9ec8 b1bd 1014 813d 3c85 643c 276d c4bd
00000190: d3bb f6bd 34aa e7bc aac0 aa3d 1f41 113d
000001a0: 580e e73d 5bd3 79bd af47 0cbd 9f82 7d3d
000001b0: d7da 04bd 98b8 a9bd b0ca e63b 1f77 7fbd
000001c0: 9c36 a03d 2884 7a3d b9e9 673d c3c5 4bbd
000001d0: 8127 0b3e ba52 ecbd 30b0 8cbc b117 ae3c
000001e0: ecb7 9e3d f5a5 f2bc 248c 6c3d 2baa 9abd
000001f0: 2c3f b7bb 4e00 9dbd 3109 8fbd 0b1d f1bd
00000200: 4b0b 7abd 2d1d 84bd cc18 63bd f3e8 86bc
00000210: 7aee d63d ba42 453d 9182 6dbd 0405 35bc
00000220: 8313 78bb 3b31 84bc 87d8 933c 19be 9b3d
00000230: 560d 90bd e84e 76bd 230e 96bc 8173 b1bc
00000240: 6447 3d3d 1ffe d03d 309b 8abd b537 c63d
00000250: 6dfd 1dbd 3bda f1bd 1ea8 f23d 8c4e b7ba
00000260: a2b7 7f3c cc5f c1bd 2344 af3d 21e5 9fbd
00000270: 9d28 973c 9d5d a53d c518 1f3d eec2 27bc
00000280: 08de d43d 921a bd3c b2c6 97bd 12f5 133e
00000290: 449e 9f3a 77af 49bd 4768 a83d 8b84 c43d
000002a0: 08e9 ae3c 34b6 e63d 0045 cb3d c40e 853d
000002b0: 4214 0abe 135e 823d ea44 cbbd 1c07 a73c
000002c0: 6795 05bc c8e0 d7bd d823 7a3d 9acf 9dbd
000002d0: 112d 863d c095 08bc bad9 873d 0135 d3bc
000002e0: 013a 2e3d 5bb0 cabc c560 d9bd c756 1d3c
000002f0: 8d6e d93d 715e 833c 11eb 18bc df6e 4dbb
00000300: 4d5b dfbb fce1 a63d b1fd 913c df0b 63bc
00000310: 5ead 603b 5886 cdbd aec2 8cbd a56b 8b3d
00000320: 152c 263d 4f4a 75bd f4a6 dfbd 1b49 543d
00000330: ae93 38bd 14fb 313d fc2b fc3d 2b38 4b3d
00000340: 2c85 84bd e7e3 afbd 4b88 91bd 9573 b33d
00000350: 167e 863d c7a8 4d3d 03d5 81bd 8873 0fbd
00000360: cab2 be3d 5386 143d 7b4f 6b3d e12b c03c
00000370: 4c76 fabb 313d aebd ec5a cbbd 3465 3abb
00000380: e2eb fdbd adab 993b 3b69 003d 517d 33bd
00000390: f3ac 643d 973f 1bbd 5e17 563d 1dcb d43d
000003a0: 1599 353d dfb6 ff3a cbec 5c3d 809c 2fbd
000003b0: 2fa1 1dbd 64bd 61bd 5005 93bd fb68 aebd
000003c0: 8ae7 ad3c 7c02 a2bd 7c8b a0bd b700 1d3c
000003d0: 7d34 47bd eab7 34bd 44f8 80bd 192a 933d
000003e0: c9e0 bb3d 3162 373c 5e2a 003e a405 ac3c
000003f0: 41d4 eabd 7e0e efbc 7057 a1bc 3264 323c

net.4.bias f4 [8]
0.07299711 -0.05596971 -0.034370456 -0.00454695 -0.092449255 -0.040248945 -0.028167829 -0.076074846
00000000: 827f 953d 7f40 65bd 09c8 0cbd 95fe 94bb
00000010: 0956 bdbd 14dc 24bd 38c0 e6bc 21cd 9bbd
