models/cartpole/z_encoder.pth (torch, 15188 bytes, 10 tensors)

share_mlp.net.0.weight f4 [64, 8]
000000 c0 87 21 3d f2 f4 17 3d c3 00 8a be 25 a5 f9 bd
       0.039436102 0.037098832 -0.26953706 -0.12189702
000010 b9 81 67 be c8 9d 17 3e 75 bd 96 bd 13 3c 7b bd
       -0.22608079 0.14806283 -0.07360355 -0.061336588
000020 ac 7d 34 3e ac 72 b1 be 97 68 89 3d aa 09 62 3e
       0.17626065 -0.346578 0.06709402 0.22073999
000030 ec 47 43 be 23 33 42 be b1 17 c8 3d 64 ba 97 be
       -0.19070405 -0.1896482 0.09770144 -0.29634392
000040 ea 37 44 3e d6 86 45 3c 9c 06 88 bd 8a 5a b4 3d
       0.19161955 0.012056073 -0.06641886 0.088063315
000050 64 8b ae 3e 56 41 8f 3e 75 e2 88 3e 25 ae 88 3e
       0.34090722 0.27979535 0.26735273 0.26695362
000060 2d 6a 70 3d ad d6 fe 3d c6 e2 8f be be 13 9a 3e
       0.058695007 0.1244329 -0.28102702 0.30093187
000070 84 70 86 3e 2d 60 87 bd 4c 8c b1 be ed bf 82 3e
       0.26257718 -0.06610141 -0.3467735 0.25537053
000080 ca 86 7b bd de b8 04 be 99 6c bb 3d cb e5 97 3e
       -0.06140784 -0.12961146 0.09151573 0.29667506
000090 66 6d 22 be 53 d5 21 be f9 cb a0 3e bc 5a 8c 3e
       -0.15862045 -0.15804033 0.3140562 0.27412975
0000a0 8b 81 30 be f5 de e6 3d 35 ad 64 be 0d 24 b2 bd
       -0.17236917 0.112729944 -0.22331698 -0.086982824
0000b0 4f 1b 61 3e 1c f0 4e be 4c 0e 9f be a9 eb ee bd
       0.21983074 -0.20208782 -0.31065595 -0.11666042
0000c0 b1 df 9a be 6c 7d 6e 3e b2 44 df 3c c2 e7 ab 3e
       -0.30248788 0.23290032 0.027254436 0.33575255
0000d0 1a c2 45 3e 99 3e 73 3e 75 c4 a0 bd 67 e7 88 3e
       0.19312325 0.23754348 -0.07849971 0.26739046
0000e0 4d 4d fd bd 97 47 0b 3c 4a 35 a1 bd d6 e7 61 3e
       -0.123682596 0.008500955 -0.07871492 0.22061095
0000f0 eb f6 78 3e 09 e7 3b be 4a a7 2d 3e c9 d0 80 3e
       0.24312942 -0.18349852 0.16958347 0.2515929
000100 92 6a 46 3e c4 8d f6 3d a9 1a a7 be 07 32 fa bd
       0.19376591 0.120387584 -0.32637528 -0.12216573
000110 43 2f 29 be 79 1e 43 3e 8b 78 b1 be e5 e8 95 3e
       -0.16521935 0.19054593 -0.3466228 0.29279247
000120 cf 2a 0e be f1 20 e7 bd 97 5a 15 3e 78 01 ad 3e
       -0.13883518 -0.1128558 0.14585339 0.33790183
000130 a9 3f f4 bd c9 47 b7 bd 38 79 b7 be dc 1d 3c 3d
       -0.11926205 -0.08949239 -0.3583467 0.045926914
000140 02 71 9b be 1c 73 4c 3e dd 7c 58 bd 5d fa 8a 3e
       -0.30359656 0.19965786 -0.052853454 0.27144137
000150 bf ba 70 be 2b fd b1 3e 72 a6 1e 3e 80 55 50 3e
       -0.23508738 0.34763464 0.15493181 0.20345116
000160 df df 10 ba 9e ae 09 be a2 45 66 3e ac ac 91 be
       -0.00055265235 -0.13445517 0.224875 -0.2845205
000170 c8 a7 b2 3e 70 47 db 3d e2 fd 74 3e e8 bd 9e 3e
       0.34893632 0.10706985 0.23924974 0.31004262
000180 a8 78 00 be 6b 6b 97 be ce 4c 82 be a2 e0 54 3e
       -0.12546027 -0.2957414 -0.25449222 0.20788816
000190 92 a0 4e 3e df 88 ed bd f3 22 37 3e 74 8c c9 3d
       0.2017844 -0.11598372 0.17884426 0.098412424
0001a0 d4 80 7a bb 84 66 98 3e 62 2d 27 3d 69 6a 90 3e
       -0.003822376 0.29765713 0.040814765 0.28206185
0001b0 b5 24 43 be 9a cb f0 3d bd 55 93 be b3 6e 8b 3e
       -0.19056971 0.11757584 -0.2877635 0.27232894
0001c0 cc dc 45 bd 17 a9 3d 3e f6 43 91 be 4d 6d 62 be
       -0.04830627 0.18521534 -0.28372163 -0.22112007
0001d0 c6 3f 0a be 17 64 b8 be fd 06 8c 3e e3 e9 5c 3e
       -0.1350089 -0.36013862 0.27349082 0.21573596
0001e0 4a 6a 24 3e d6 fb b4 bc c7 5a 49 be 0f b2 2f 3e
       0.16056171 -0.022092741 -0.19663535 0.17157768
0001f0 0e a7 4b 3d 03 9d 14 3e ac 7a 9f 3b b1 aa 5a 3d
       0.049719863 0.1451302 0.0048669185 0.05338544
000200 cf 99 9a 3e 4a 45 52 3d d8 0e 91 be a3 b3 6b bc
       0.30195472 0.05133561 -0.28331637 -0.01438609
000210 90 94 e0 3d 04 a4 c6 bc bc b7 d7 3d 8d 07 64 be
       0.10965836 -0.02424813 0.105330914 -0.22268505
000220 13 3c a6 3d 5f df 16 bd 44 ef 8f be 05 da de 3d
       0.08116927 -0.036834117 -0.28112233 0.10881428
000230 36 d9 8b 3e 73 b5 fc bd 79 5e a6 3e 16 33 8a be
       0.27314156 -0.12339296 0.32493952 -0.269921
000240 e0 20 c9 3c d5 34 d7 bd b4 87 95 3e 13 a8 7e be
       0.024551809 -0.10508124 0.29205096 -0.24868803
000250 48 b3 c5 bd 91 29 8a be 81 98 30 3e 88 cc ac 3d
       -0.09653336 -0.26984838 0.17245676 0.08437449
000260 00 51 93 3e 09 50 16 bc ae 35 88 3d ce 41 7a be
       0.28772736 -0.009174355 0.066508636 -0.24439165
000270 a5 2e 8a bd f7 1c db 3c 6b 68 54 be 54 c6 1a 3e
       -0.06747178 0.02674721 -0.20742957 0.15114719
000280 bc 0f 24 3d 20 6b 7d bd b8 60 72 bc 22 b6 b4 3e
       0.040054068 -0.06186974 -0.014793567 0.35295206
000290 70 60 81 3e a9 e5 f7 3d 90 da 5c 3d 20 62 dd 3d
       0.25268888 0.12104351 0.053919375 0.108097315
0002a0 76 ce 81 3e 2b 77 39 3e fe 2f 95 be 44 0b 4c be
       0.2535283 0.18111865 -0.29138178 -0.19926172
0002b0 07 ab 3e be e8 2d 6f bd bc aa 8c 3d 3c 26 c3 bb
       -0.18619929 -0.05839339 0.068685025 -0.0059554856
0002c0 c6 77 97 be 7a 01 3b 3e b1 5e b1 3d fc 34 c4 3d
       -0.29583567 0.18262282 0.08660639 0.095804185
0002d0 eb 35 23 be 10 97 84 be 4f e7 b3 3e a9 f8 8e 3e
       -0.15938537 -0.25896502 0.35137412 0.27924088
0002e0 d4 54 ab be 68 d1 5f be a1 0c 08 be f6 92 7b bc
       -0.33463156 -0.21857226 -0.13286068 -0.015354862
0002f0 bc ca 6a be e2 e2 58 3d fb d1 8d 3e ba 76 e9 bd
       -0.229289 0.052950747 0.27699265 -0.113995984
000300 d6 b3 35 3e 1d 20 33 be b7 03 94 be 9d 68 17 bd
       0.17744383 -0.17492719 -0.28909084 -0.036965
000310 97 ff 8a 3e 5b c1 08 3d 0f 1d 2c 3e a9 90 89 be
       0.27148125 0.033387523 0.1680796 -0.2686818
000320 db 4b f0 3c 4f d8 08 3e e9 62 c3 3e c3 b2 63 3e
       0.029333046 0.13363765 0.381614 0.22236161
000330 77 e4 76 3e 3c 9e 8d bd 06 25 82 be e7 05 00 bd
       0.2411059 -0.069149464 -0.25418872 -0.03125563
000340 06 fc 8b 3e 66 3a 07 3e b6 c7 23 3e 69 7d 93 bd
       0.27340716 0.13205871 0.15994152 -0.072016545
000350 b0 3d 08 be 36 f9 a1 be 7c f4 df 3d be 91 0f 3e
       -0.13304782 -0.31635445 0.109353036 0.1402044
000360 e3 2d 79 be 47 53 cd be c9 38 3e be 46 c9 89 3e
       -0.2433391 -0.40102598 -0.1857635 0.26911372
000370 64 f2 f4 3d 48 e8 9b 3d e2 04 79 be 6d cf fe bd
       0.11960295 0.076126635 -0.24318269 -0.12441907
000380 fb a3 93 be 21 9b 70 be 4c 4f 0c be 19 b6 74 3d
       -0.28836045 -0.23496677 -0.13702124 0.059743974
000390 a2 e2 52 3e ca 34 35 be 09 82 a5 3e 32 c6 75 3e
       0.20594266 -0.17695919 0.3232577 0.24001387
0003a0 29 44 77 be 1a d9 94 be d5 75 ab 3e 20 f9 49 be
       -0.24147095 -0.29071885 0.33488336 -0.1972394
0003b0 95 44 50 be 4d b0 a7 be d6 0d 92 3e 41 1c 89 be
       -0.20338662 -0.32751694 0.2852618 -0.2677937
0003c0 d0 86 26 bd b9 23 f2 bd 80 27 13 be 9a 90 30 3d
       -0.04065591 -0.1182322 -0.14370537 0.043106653
0003d0 81 dc 27 be 7d 4c a5 3e 84 0a 92 be 68 28 82 3d
       -0.1639271 0.32284918 -0.28523648 0.06355363
0003e0 2c 06 61 3e 29 55 d3 3d b8 7a 66 3e c1 9b 02 3e
       0.2197501 0.103189774 0.22507751 0.12754728
0003f0 74 9c 94 3e b5 d2 18 3e 10 20 44 be 64 4e 3d 3e
       0.29025614 0.14924128 -0.19152856 0.18486935

share_mlp.net.0.bias f4 [64]
000000 e5 5d 70 be 0a 02 84 be 3d 69 ec bd 3f 7b 11 3e
       -0.23473318 -0.25782806 -0.1154351 0.14207171
000010 31 0b 1a 3e 1a ec 9e bd d0 82 82 bc c2 37 5f be
       0.15043332 -0.077598765 -0.015931517 -0.21798614
000020 be d2 cf bd 97 00 2e 3e 75 71 87 be 5c bb e9 3d
       -0.10147618 0.16992413 -0.26453748 0.11412689
000030 0a ee b7 3d 33 f0 bc bd 2a d9 0e be 16 38 25 bd
       0.08980949 -0.09225502 -0.13950029 -0.04033669
000040 d3 83 b7 be bf ba f0 bc ff 3b 23 be ac c3 a6 3d
       -0.3584276 -0.029385922 -0.15940855 0.0814279
000050 aa 53 1c be 34 14 88 be 9c 97 69 3e c5 b3 1a be
       -0.1526629 -0.26577914 0.2281174 -0.15107639
000060 5e 62 56 be db 6c 4a 3e 5a f8 43 be 48 93 83 3b
       -0.20935962 0.19768088 -0.19137707 0.00401536
000070 7d c9 ce bd 51 1d 3d 3e 1c 97 77 bd 50 07 41 3e
       -0.100970246 0.18468215 -0.060446844 0.18850446
000080 59 15 c9 3b ee 03 9d 3e b9 5d 75 3e a3 e4 79 bd
       0.006136578 0.3066706 0.23961534 -0.06100906
000090 51 6b ca 3d f4 ec 3d 3e 63 cf aa 3e de d7 cb bc
       0.0988375 0.18547422 0.33361349 -0.024883207
0000a0 ef a7 38 3e fe ec 82 be bf f0 3f 3e ea ec f6 bd
       0.18032812 -0.25571436 0.18744181 -0.120569065
0000b0 ee d7 68 3e 0c 92 1c be c5 be 5e be d0 f0 f2 bd
       0.2273862 -0.15290087 -0.2175246 -0.118623376
0000c0 44 a3 c9 bd 6d 23 a1 3d 68 d1 80 be bb e9 87 3e
       -0.098455936 0.07868085 -0.25159764 0.2654551
0000d0 8a 63 0f 3e 3b e6 31 3e 74 e9 29 bc 5b 1b e3 bd
       0.14002815 0.17372982 -0.010370601 -0.11089202
0000e0 f4 e6 51 3c a7 04 66 3d 45 6c 93 bd b1 09 53 3c
       0.012811411 0.05615678 -0.07198385 0.012880729
0000f0 35 a3 05 3e b0 35 c7 39 3f 58 f7 3d 65 72 9b bb
       0.1305054 0.00037996238 0.120773785 -0.0047438615

mean_mlp.net.0.weight f4 [16, 64]
000000 f1 8c 49 3c 02 9e b7 3d dd c1 0a 3e a8 66 4b bd
       0.012301669 0.089656845 0.13550515 -0.049658448
000010 fd e3 04 be ac 7a a2 bd 6a ad cb 3d 9d 13 57 3d
       -0.12977596 -0.07933554 0.099451855 0.05250894
000020 a5 8d 30 3b d4 88 fb bd 57 0e f2 bb 36 1a 9b 3d
       0.0026939895 -0.12281957 -0.0073869633 0.07573359
000030 b8 20 a8 bd 77 1d 66 3d 03 15 30 3b 42 21 c5 3d
       -0.082093656 0.056180444 0.0026867993 0.09625484
000040 c8 4d 7b 3d b4 53 99 3d e7 39 34 3d 4c 53 fd bd
       0.061353475 0.07486668 0.044000532 -0.12369403
000050 a6 30 f2 3c ef 17 b9 bd 49 ef 50 3d 02 ec 6a bd
       0.029564213 -0.09037768 0.05100945 -0.05735398
000060 dd bf 84 bd 38 07 73 3d 16 35 9a 3d a0 1f 90 3d
       -0.064819075 0.059333056 0.075296566 0.07037282
000070 17 3d 2a bc 7d 83 51 bd 94 72 92 3d ed 8d 23 bd
       -0.0103905415 -0.051150788 0.0715076 -0.039930273
000080 54 f2 6a bd ff 12 ba bd 44 af b8 3d 3f c4 1e bd
       -0.05736001 -0.090856545 0.09017804 -0.038761374
000090 f6 1d 6d 3d 1a 84 83 3d 5c 83 3d bd da 72 c9 bd
       0.0578899 0.06421681 -0.046267852 -0.09836359
0000a0 b0 83 46 bd a8 99 0b bd 1c aa cc 3c 90 33 52 3d
       -0.04846543 -0.034082085 0.024983458 0.051318705
0000b0 5a 16 9b bd 75 e1 81 3d 39 92 db bc 31 6f a7 3d
       -0.075726226 0.06341831 -0.026803123 0.08175505
0000c0 7b 96 8c 3d c4 2f ea bd d0 b8 af bd a7 30 d6 3d
       0.06864639 -0.11434892 -0.08580172 0.104584984
0000d0 6e 14 02 3d d3 a2 cd 3d dd 8c 50 3d bc ff cc 3d
       0.031757765 0.10040822 0.050915588 0.10009715
0000e0 54 46 ee bd d6 f0 16 3d 4a d2 a0 3d d1 6e c5 bd
       -0.11634508 0.036850773 0.078526095 -0.09640277
0000f0 84 6a f5 3c 22 84 97 3d 7c c4 95 bd cb 73 da bd
       0.029958017 0.07398249 -0.07312867 -0.10666617
000100 5b c5 57 3d fb 4d b0 bd b6 db be bd a8 b3 0a 3e
       0.052678447 -0.086086236 -0.0931925 0.13545096
000110 c2 a3 b2 3d 9c 1e 8e 3d 10 81 a4 3d f5 02 c8 bd
       0.087226406 0.06939432 0.08032429 -0.09766189
000120 04 2b 72 3d d0 a8 36 bd 78 74 3d bc f9 75 ee 3d
       0.059123054 -0.044594586 -0.011563413 0.11643595
000130 40 b9 01 3d f4 a3 1e 3c 22 a3 0c 3d 21 9a ab bd
       0.03167081 0.009682644 0.034335263 -0.08379007
000140 19 ec 2b bd 48 10 71 bb c8 d0 e0 3b 49 32 90 bd
       -0.041973207 -0.0036783386 0.006860826 -0.07040841
000150 13 3b d0 bd 9c 00 f7 bd 5f 6d a5 3d a2 c7 ef bc
       -0.101675175 -0.12060663 0.080775015 -0.029269997
000160 33 b2 8f bc 40 bf 29 3d 2f 54 69 bc d5 98 d9 3d
       -0.017541027 0.041442156 -0.014241262 0.106248535
000170 08 c5 b7 3d 06 5c f6 3d 1a 65 37 bc 6c c7 7a bd
       0.089731276 0.12029271 -0.011193538 -0.06122534
000180 93 5b 1f bd 01 ff 49 3d a9 ee 01 3e d6 1f fd 3c
       -0.03890569 0.049315456 0.12688698 0.03089897
000190 61 0a 06 3e a8 49 00 3e f5 a8 07 3e d0 50 93 bd
       0.13089897 0.12528098 0.13248046 -0.07193148
0001a0 0e 73 ae bd d5 17 e3 bd 4c 3b ec 3d 13 ea 41 bc
       -0.08518039 -0.1108853 0.115347475 -0.011835593
0001b0 40 c1 83 bd 5a 31 bc 3d 8f bc 2a bd 1d 00 e9 bd
       -0.06433344 0.091891006 -0.04168373 -0.11376975
0001c0 13 e9 c7 3d cc ae 0c 3e 55 98 2b bd 4f 2e a0 bc
       0.09761252 0.13738555 -0.041893322 -0.019553332
0001d0 6e 50 0e bb 99 21 d9 3d 17 9d c1 3c fc 6f f2 bd
       -0.002171542 0.10602111 0.023634477 -0.118377656
0001e0 a2 c3 27 bd 21 94 0e 3c ea 85 97 bd 57 dd 8c 3a
       -0.040958054 0.008702309 -0.07398589 0.0010747117
0001f0 6f 09 16 bd 0d e2 7c bd cd 74 bb 3d 45 5b ba bd
       -0.03663009 -0.061739016 0.09153137 -0.090994395
000200 34 97 a7 bd c3 ad c9 3d fb dc 5f 3d 86 64 a3 bd
       -0.081831366 0.098475955 0.054654103 -0.07978158
000210 36 b8 d2 3d f3 4d c1 bc 2a f9 b2 3d 2e 68 ec bc
       0.10289042 -0.02359674 0.087389305 -0.02885827
000220 3b 74 ac 3d b8 b3 1a bc 0e a1 a8 bd ab 22 fb bd
       0.08420607 -0.009442262 -0.08233844 -0.12262472
000230 95 36 af bd 28 2e 99 3b e5 fc 8f bc 31 5d 9e bd
       -0.085553326 0.0046746917 -0.017576644 -0.077326186
000240 f3 56 59 3d c0 67 e8 3d 91 cc 9a 3d 52 a6 e8 bd
       0.053061437 0.11347914 0.07558549 -0.11359848
000250 82 f6 14 3d e8 36 d4 3d cb 41 36 3d 14 33 99 3d
       0.0363679 0.10362035 0.04449634 0.074804455
000260 7e c2 5c 3c 53 1f f3 bd 29 22 0b bd 6c a2 00 be
       0.013474105 -0.11871209 -0.033968125 -0.12561959
000270 22 62 fd 3d 1c 9c 0a be 4c 06 32 3d ce 9e d1 bd
       0.12372233 -0.13536114 0.043463036 -0.10235368
000280 46 ff cc 3d a9 ae 38 3d a6 ac d4 3d a5 68 a5 bd
       0.10009627 0.045088444 0.103844926 -0.080766
000290 25 70 78 3c 9f 93 83 bc d8 3a 4c 3d 77 cb be 3d
       0.015163456 -0.016061602 0.049860805 0.093161516
0002a0 bd 92 2f bd 17 36 fb 3d a7 43 d5 bd fe 97 4f bd
       -0.04286455 0.12266176 -0.10413294 -0.05068206
0002b0 37 0f a8 3d 79 73 e6 3d f3 96 cf 3d 6e 73 bf bd
       0.08206027 0.112524934 0.10136213 -0.09348188
0002c0 40 22 db bd 96 0b c2 bd 11 02 d4 3d 3f 41 9d 3d
       -0.10699892 -0.09474866 0.10351957 0.0767846
0002d0 bc e5 53 bd b0 0c 72 3d 43 19 95 bc 2e 9e 9d 3d
       -0.051732764 0.05909413 -0.018200522 0.07696186
0002e0 32 6f b8 3d 5c 50 c5 3d 26 51 92 3d 8d 1a 6e 3c
       0.09005584 0.09634468 0.07144384 0.014532697
0002f0 42 e7 4a bd 0b fc c5 bd 56 07 92 bd 94 32 98 bd
       -0.04953695 -0.09667214 -0.071303055 -0.07431522
000300 22 3d 23 3c 80 df ba bd 3f c1 22 3d 48 ae 41 3d
       0.009963306 -0.091246605 0.039735075 0.04728535
000310 fa b4 a7 3d d2 f5 06 3d 9d 3c 8f bc 06 d9 90 bc
       0.081888154 0.032949276 -0.017484957 -0.01768161
000320 13 d0 81 3c 05 f4 a8 bc 2c 41 a2 bd e9 c4 8f 3d
       0.015846288 -0.02062417 -0.07922587 0.070199795
000330 ef 88 f2 3c 53 cc e5 3d ed 1c e1 bd 72 2f 86 3d
       0.02960631 0.112206124 -0.10991845 0.06552018
000340 a0 ab ae bd 65 11 98 bd 9a de 8f bd 50 8f dd 3d
       -0.085288286 -0.07425193 -0.0702488 0.1081835
000350 1f 46 ca 3d 06 28 17 3d 4e aa 01 bd 20 f6 1e bd
       0.09876656 0.036903404 -0.031656556 -0.03880894
000360 c9 27 42 bd b4 b7 e0 bd 93 14 d3 ba cd 0b 44 3d
       -0.047401223 -0.109725386 -0.0016104154 0.047862817
000370 d7 a4 01 bd 86 a5 8d 3c bf c3 f2 3d af 0a 39 bd
       -0.031651344 0.017290842 0.11853742 -0.045176204
000380 dc 1f 1c bd 29 54 9a 3d 45 3d c9 bd 83 11 37 3c
       -0.03811632 0.075355835 -0.09826139 0.011173609
000390 fd e8 d7 bd c5 79 50 bc c7 19 ca bc b7 0f 7e 3d
       -0.10542486 -0.012724345 -0.024670495 0.062026706
0003a0 77 df 6b bd a6 65 58 bd f5 bc aa bc fe 1c 2f bd
       -0.05758616 -0.052831315 -0.020842055 -0.04275226
0003b0 e8 bb cb 3d 16 86 84 bd a4 57 ec bd d2 5f 0b be
       0.0994795 -0.06470887 -0.115401536 -0.13610771
0003c0 39 ef 13 3d ca f9 f8 3d 13 2e 13 3d 0d 86 d9 bc
       0.036116812 0.121570185 0.03593261 -0.026553178
0003d0 ad 85 9c bd 56 c6 9d bd 35 11 88 bd 12 bd 9e bd
       -0.07642684 -0.07703845 -0.06643907 -0.07750906
0003e0 fe 2a 91 bd 22 14 42 bd 20 28 df 3d ae 6c bd bd
       -0.07088278 -0.04738248 0.10896325 -0.09249245
0003f0 da dd 88 3d 5d a8 4c 3c a5 53 f9 bb 75 4f bb bc
       0.0668294 0.012491313 -0.007608848 -0.022865037

mean_mlp.net.0.bias f4 [16]
000000 01 1a 92 bd 86 0a 8e bd c7 3e 97 3c 51 60 c1 bc
       -0.07133866 -0.06935601 0.018462552 -0.023605498
000010 ae ca 9f 3c 7a 5d d5 3d f0 f5 87 bd 7c f0 d7 3b
       0.019505825 0.1041822 -0.06638706 0.0065899473
000020 38 85 dc bd 54 10 bb 3c 17 4e 67 3d 94 19 ad 3d
       -0.10767597 0.022834934 0.056470957 0.08452144
000030 b5 36 8a 3d 3d 97 43 bc 6f fe 90 bd 7d 41 67 3b
       0.06748716 -0.0119379135 -0.07079779 0.0035286837

mean_mlp.net.2.weight f4 [4, 16]
000000 e9 0c bf 3c a6 17 93 3d be b5 19 be ef 81 78 3d
       0.023321586 0.07182245 -0.15010735 0.06067079
000010 2b 34 de bd 9a 55 0f 3e 3e 42 4c 3e 76 fd 39 be
       -0.10849794 0.13997498 0.19947144 -0.18163094
000020 f4 1b 29 3e 65 8f 34 be 99 56 6f 3e e9 d7 26 be
       0.1651457 -0.17632826 0.23372878 -0.162933
000030 3b 5c 1c 3e 38 3e ef bd a0 a4 c4 bd 24 d5 ae 3b
       0.15269558 -0.11681789 -0.09601712 0.005335467
000040 6c 57 7f 3e a5 32 c1 bc c2 7b 18 3d 2b 1b c2 bd
       0.24935693 -0.02358372 0.0372274 -0.09477838
000050 05 d7 04 be a4 0a 48 3e a2 2f 9b bd 92 f2 59 be
       -0.12972648 0.19535309 -0.075774446 -0.2128394
000060 56 54 65 be 21 d2 21 3e d9 b7 35 3e a5 46 e1 bc
       -0.22395453 0.15802814 0.17745914 -0.027499506
000070 c4 97 8a bd d3 65 6a 3e 3a fd d0 bd c0 95 64 3e
       -0.06767228 0.22890405 -0.10204549 0.2232275
000080 2a b5 80 be a8 b2 c4 3d 5a d1 2c be b7 b8 92 bc
       -0.25138217 0.096043885 -0.16876736 -0.017910345
000090 d8 ae 53 bd 59 a8 48 3e fe f2 99 bd 5f 59 5e 3d
       -0.051680416 0.1959547 -0.0751705 0.05428445
0000a0 78 19 a2 bd 06 a9 d5 3d 48 b9 6e 3e b0 8c 39 be
       -0.07915014 0.10432629 0.23312867 -0.18120074
0000b0 22 3c 26 3d 9e 5a a7 3d 30 40 3b be 00 f8 1b 3e
       0.04058469 0.08171581 -0.18286204 0.15231323
0000c0 9c e3 61 3d 9a 81 2e 3e d5 00 73 3d 5e 75 df 3d
       0.055148706 0.17041627 0.059326965 0.10911058
0000d0 c3 ca 52 3e e0 c9 ec 3d f8 ec 68 3d b6 ca af bd
       0.2058516 0.11561942 0.056866616 -0.08583586
0000e0 ff 7e 72 be 38 ef 89 3c 93 f4 15 bd 99 d6 88 3d
       -0.23681258 0.016837701 -0.036610197 0.06681556
0000f0 31 f1 75 bd 11 db f1 3d 90 f7 58 3e 5f 03 fd 3d
       -0.06004447 0.11809362 0.21188188 0.123541586

mean_mlp.net.2.bias f4 [4]
000000 1a be b0 3d 07 10 26 3e c0 57 93 bd 60 f5 13 be
       0.08630009 0.16217051 -0.07194471 -0.14449072

logvar_mlp.net.0.weight f4 [16, 64]
000000 8b 8e 85 3d e9 7e 09 bd c4 45 9d bd b4 47 7d bd
       0.065213285 -0.033568297 -0.07679322 -0.06183596
000010 8d 63 4e bd 0b 29 80 bd a4 61 52 bd 93 98 c4 3d
       -0.050387908 -0.06257828 -0.05136265 0.09599414
000020 8b f6 3a 3c 4a 61 97 3d f1 fb cb 3d c2 4f 0b 3e
       0.0114113195 0.07391603 0.099601634 0.13604644
000030 82 f3 98 bd 3a 29 94 bd 11 f6 02 be 68 43 dd bd
       -0.074683204 -0.07234426 -0.1278918 -0.10803872
000040 08 08 d6 bd 89 4d db 3d 31 47 30 3d 9d 5c dd 3c
       -0.104507506 0.10708148 0.043036643 0.0270217
000050 c3 81 07 be 24 b6 1b bc 13 ce c2 bb 94 5c 93 bd
       -0.13233094 -0.009503875 -0.005944976 -0.07195392
000060 be 4a f5 bd c8 da 2d 3c 4a 20 ef bc 5f ae a7 3d
       -0.119771466 0.010611244 -0.029190201 0.081875555
000070 1c 48 0c bc 75 35 e1 3d ea 28 d0 bd 92 6d 03 3e
       -0.008562114 0.10996524 -0.10164054 0.12834767
000080 64 8b d2 3c 70 52 8e bd 27 76 e2 bb 17 17 89 bc
       0.025701232 -0.069493175 -0.0069110575 -0.016734643
000090 04 9c a2 3d 6b 76 09 3e 7a 26 0a bd ef e0 72 3d
       0.07939914 0.13424079 -0.0337281 0.059296545
0000a0 30 04 0b 3e 32 db eb 3a b8 a5 63 3d 14 ce 30 3d
       0.13575816 0.0017994402 0.055577964 0.04316528
0000b0 83 a9 c0 bd 9f 1f 62 bc 42 05 0e bc f2 ff a7 bd
       -0.09407332 -0.013801484 -0.008668246 -0.082031146
0000c0 38 4c e1 3c 83 05 3e bd 1f 37 28 3d 70 e1 9a bd
       0.027502164 -0.046391975 0.041068193 -0.0756253
0000d0 30 6a 72 bc d1 ee b3 bd e3 1d c7 3d 24 ef 29 bd
       -0.014795825 -0.08785785 0.09722497 -0.041487828
0000e0 88 8d c2 3d da 47 da 3d 58 6a d4 3d 3e 35 b4 bd
       0.09499651 0.10658236 0.10371846 -0.08799218
0000f0 11 f0 09 3c c0 3c 56 bd 2f d5 43 3b a1 c3 b8 bd
       0.008419053 -0.05230403 0.0029881706 -0.09021688
000100 b5 6f dd bd 9f 5c b1 3d c8 74 6c bd 8f 6c 22 bd
       -0.10812322 0.08660244 -0.05772856 -0.03965431
000110 d5 3f b7 bd 05 ab aa bd 64 0f ea 3d 35 fc 8f bd
       -0.08947722 -0.08333401 0.11428717 -0.070305265
000120 9d e7 77 bd 91 3e f6 3d fa 88 58 bc 3d 21 7c bb
       -0.060523618 0.12023652 -0.0132162515 -0.003847196
000130 82 74 d0 3d d8 9f b7 3c ef 8c 13 bd 81 6a df bd
       0.10178472 0.022415087 -0.036023077 -0.10908986
000140 51 13 31 3d 6c f5 04 bd 19 61 51 3c 4c 4a 8f bc
       0.043231312 -0.032460615 0.012779498 -0.017491482
000150 d1 25 c1 bd af 59 09 be 2a c5 81 ba 49 57 14 3d
       -0.09431041 -0.13413118 -0.0009900678 0.036216054
000160 07 d7 94 3d 1e f0 4a bc 11 e0 99 bd 34 b8 40 bd
       0.07267576 -0.01238635 -0.075134404 -0.04705067
000170 63 34 90 3d 62 d8 fe 3c 63 79 8d bd 69 9c ef 3c
       0.07041242 0.031109039 -0.06907918 0.029249387
000180 d9 93 9d 3d 0d 47 32 3d df 4a f9 bc a0 87 de 3d
       0.07694215 0.04352479 -0.03043121 0.10865712
000190 17 72 22 bc 19 70 ea 3d 13 72 77 ba 74 53 34 bd
       -0.009914896 0.11447162 -0.00094393006 -0.0440249
0001a0 3e 72 9e 3d ee e4 6d bd a1 97 a2 bd 2e ae 95 bc
       0.07736634 -0.058079652 -0.07939077 -0.018271532
0001b0 17 03 a0 3d f9 29 a4 bd 52 e0 5f bd 49 ef b2 bb
       0.07813089 -0.08015818 -0.054657288 -0.005460654
0001c0 b4 56 c7 bd 48 d4 1c 3d 03 89 09 be 1d 83 4f bd
       -0.09733334 0.038288385 -0.13431172 -0.05066215
0001d0 eb ab 80 ba ff cd be 3d 70 98 eb bd 35 ae 40 ba
       -0.000981686 0.093166344 -0.115036845 -0.00073501776
0001e0 d6 6c fa 3d 78 08 84 bd 05 77 29 bd be af ed bd
       0.1222779 -0.06446928 -0.04137327 -0.11605786
0001f0 eb 11 93 3d e8 75 07 be 1c 41 f8 3d ca 5a cf bd
       0.07181152 -0.13228571 0.12121794 -0.101247385
000200 85 0a 16 bd 67 f4 55 bd 60 29 6d bd ee fe 42 3b
       -0.036631126 -0.052235033 -0.057900786 0.0029754
000210 28 49 87 3d f9 f8 d7 3d 74 32 c8 3d ec ca 4d 3d
       0.0660575 0.10545535 0.09775248 0.05024235
000220 8d c4 d5 bb 97 de be 3d de e1 d4 bc 75 83 9b 3d
       -0.006523675 0.093197994 -0.025986608 0.07593433
000230 3c 15 2c 3d a3 5f 44 bd 61 69 be bd b1 51 59 3d
       0.04201244 -0.04794277 -0.09297443 0.053056423
000240 29 40 b3 bd 38 59 0b bd 91 56 2c 3d 96 dd 8b bd
       -0.08752472 -0.034020633 0.042074744 -0.068293735
000250 5e 74 ee bd 17 1e 66 bd f3 1e ac bc 9a 92 7c 3d
       -0.11643289 -0.05618104 -0.021010851 0.061663248
000260 4e d9 a5 3d 6f 9c b7 bc 92 0d d7 bd e1 55 08 3c
       0.08098088 -0.02241346 -0.10500635 0.008321256
000270 3b c2 d6 bb 8b 56 6d bd 70 67 cf bd a3 ea ee 3b
       -0.006553916 -0.057943862 -0.10127151 0.0072911545
000280 69 93 7b 3d 01 47 a3 3d 8f ec fa bd ee 84 b8 3d
       0.06141988 0.07972527 -0.12252151 0.09009729
000290 07 45 c1 3d 40 b9 d8 bd 3c e9 53 3c 23 d2 a4 3c
       0.09436994 -0.10582209 0.012934025 0.020119732
0002a0 6c a0 fa bd e8 b1 cb 3d d5 f3 28 bd a7 b2 75 3d
       -0.12237629 0.09946042 -0.04124816 0.05998483
0002b0 74 65 5a bd 59 7b f0 bd e4 f9 d9 3d 01 1b 6b bc
       -0.05331941 -0.11742277 0.10643366 -0.0143497
0002c0 3c 3d 22 3d 6f 99 34 bd 22 f4 22 3d d1 2a 4e bd
       0.03960918 -0.04409164 0.039783604 -0.0503338
0002d0 be 69 de 3d 6b b8 b4 3d 56 58 04 be be 57 c2 bd
       0.108600125 0.088242374 -0.12924322 -0.09489392
0002e0 a0 0e 33 bd d8 af f6 bd ad 19 a6 3c 14 d9 d5 3b
       -0.04371512 -0.12045258 0.020275915 0.006526122
0002f0 ef 1c 6b bc 58 2e d3 bd d1 29 95 3d 3a 05 89 3c
       -0.01435016 -0.10311574 0.072833665 0.016726125
000300 12 ed 7b 3c 12 56 81 bc 04 14 d5 3c 14 e2 cf bd
       0.015376346 -0.015788112 0.02601052 -0.10150543
000310 90 95 b9 bd c8 a7 c7 3d f9 1a f3 bd d7 d3 79 3d
       -0.0906173 0.097487986 -0.11870379 0.06099304
000320 51 7c b0 3d bc f7 6f 3d 16 3d b8 bd 4c 9d e8 bd
       0.086174615 0.058585867 -0.08996026 -0.11358127
000330 71 5d fd bd ae c9 bf 3d 1e 43 16 3d 4b 02 23 3d
       -0.12371338 0.09364639 0.0366851 0.03979711
000340 8f 93 1f 3d 7a 84 51 3c c1 26 92 bd 57 c7 3b bd
       0.038959082 0.0127879325 -0.07136298 -0.045844402
000350 fc 26 16 bd 59 a0 6e bd c5 f7 62 bd dd 97 01 3e
       -0.036658272 -0.05825839 -0.055412073 0.12655587
000360 7e b8 a5 bd 9c 98 2f 3d 68 25 05 3c dd e9 df 3c
       -0.0809183 0.04287015 0.008126594 0.027333194
000370 30 cb 94 3d 8a 66 62 3d de dd b2 3d 90 de 6d bd
       0.072653174 0.05527357 0.08733724 -0.05807358
000380 6c af 61 bd 64 9d 49 bc 09 78 8a 3c 33 df 85 bd
       -0.055098936 -0.012305591 0.01690294 -0.065367125
000390 31 58 0b be 63 bc a7 bd 66 15 12 bd f6 a7 a9 bd
       -0.13607861 -0.08190229 -0.03566494 -0.08283989
0003a0 77 d6 dc bd 1c 17 7f 3d 46 c4 8c 3d d4 6d db 3d
       -0.107830934 0.0622779 0.06873374 0.107143074
0003b0 40 38 b0 bd 25 60 83 3d 9d 68 ed 3d fc d0 ee 3c
       -0.08604479 0.064148225 0.11592219 0.029152386
0003c0 f0 15 b1 3c 60 47 47 bd d5 65 a6 3c 5e bb 01 bd
       0.021616906 -0.048652053 0.02031223 -0.031672828
0003d0 da 3b ef bd ec b5 d1 bb 86 a1 75 bd 6a d6 f4 3d
       -0.11681338 -0.0063998606 -0.059968494 0.11954959
0003e0 97 a6 08 bd 0c 3b 99 bc 2e 2e ca 3c 1f c1 a9 bd
       -0.033361997 -0.018704914 0.024680223 -0.08288788
0003f0 c1 40 96 3d 29 3b 9b bc a5 39 c4 bd 3d ee ab 3d
       0.073365696 -0.018949108 -0.09581307 0.0839505

logvar_mlp.net.0.bias f4 [16]
000000 c4 c0 8a bd 47 00 62 3d 14 93 d2 bd 3a e7 00 be
       -0.067750484 0.055176046 -0.10281959 -0.12588206
000010 fd 37 af bd ae 74 60 bd a3 54 a2 bd 2b 78 f8 bc
       -0.08555601 -0.054798774 -0.079262994 -0.030330738
000020 be e4 6d 3d 5e 4a 89 bd 80 68 a4 bd c6 fb b5 bd
       0.058079474 -0.067036375 -0.08027744 -0.088859126
000030 5e 6f 3b bc d6 ec 8d 3d 4d bd f5 3d 23 a4 ec 3c
       -0.011440126 0.069299385 0.11998997 0.02888686

logvar_mlp.net.2.weight f4 [4, 16]
000000 78 e0 00 be d6 51 92 bd 68 9e a2 bc 56 54 18 3e
       -0.12585628 -0.07144515 -0.019850925 0.14875922
000010 b4 ea 48 be 7c 3b 0d 3e 44 2b c1 bd 80 54 0f be
       -0.19620782 0.13792223 -0.094320804 -0.13997078
000020 61 76 3a 3e 93 c7 91 3d bd 0d b8 3d e0 6b 0d 3e
       0.1820922 0.07118144 0.08986995 0.13810682
000030 8e 39 f0 3d f2 be 91 b8 fa 00 30 3e 12 da ee bd
       0.11729728 -6.949705e-05 0.17187873 -0.11662687
000040 71 1d 45 3e 96 65 5f 3e 3b e2 78 3d 0f c0 80 be
       0.19249512 0.21816096 0.060762625 -0.2514653
000050 95 a8 10 3e 49 b2 22 3e e4 40 6c be 19 b9 45 3e
       0.14126809 0.15888323 -0.23071629 0.1930889
000060 5e da 0a be ad 7f 9b bc 44 0b de bd b6 29 1b 3e
       -0.13559863 -0.018981779 -0.108419925 0.1515263
000070 12 a3 ae 3d 2d 9f c8 3c 17 a7 20 bd b2 e1 24 3e
       0.08527197 0.024489963 -0.03922185 0.16101721
000080 0c 67 39 be af bb 21 3e 65 f4 10 be ae a6 82 3c
       -0.18105716 0.15794252 -0.14155729 0.01594862
000090 7c 19 81 3e 0e eb 17 3e e9 fb db 3d 86 9a bb bd
       0.25214756 0.1483576 0.107414074 -0.091603324
0000a0 bc 17 16 be fd 22 37 3e db 58 73 3e 8f 53 7f 3e
       -0.14657491 0.1788444 0.23764364 0.24934219
0000b0 55 41 0a be 3b e0 4d be 46 dc 43 be b7 0f 33 3d
       -0.13501485 -0.20105068 -0.19126996 0.04371616
0000c0 b4 f0 d9 3d 45 55 4d 3d 9f d6 77 be 42 ce 34 bb
       0.106416136 0.050130147 -0.24202965 -0.002758876
0000d0 2a 8f ee bd 78 7d 26 3e df c0 05 be c7 8e f0 bd
       -0.116484 0.162588 -0.13061856 -0.117459826
0000e0 09 83 a3 bb ee 96 13 be 65 1f 36 3e f8 9b 21 bd
       -0.004989986 -0.14413044 0.17785414 -0.039455384
0000f0 8e 66 d7 bd e8 7c 0b be cb d7 0e 3e 97 3d 63 3e
       -0.10517608 -0.13621867 0.13949506 0.22191463

logvar_mlp.net.2.bias f4 [4]
000000 5c 16 95 3d b3 66 6d be 4b 72 16 3e 1a 67 05 be
       0.07279655 -0.23183708 0.14692037 -0.13027611
